model properties:
metadata_props:


graph tf2onnx (
  %input[FLOAT, 1x32x20x3], exponents: [0]
) initializers (
  %digit_recognizer_v3_rgb_1/conv2_24f_1/Squeeze:0[FLOAT, 24]
  %digit_recognizer_v3_rgb_1/feature_dense_1/Cast/ReadVariableOp:0[FLOAT, 48x48]
  %digit_recognizer_v3_rgb_1/conv3_32f_1/Squeeze:0[FLOAT, 32]
  %digit_recognizer_v3_rgb_1/output_1/BiasAdd/ReadVariableOp:0[FLOAT, 10]
  %digit_recognizer_v3_rgb_1/feature_dense_1/BiasAdd/ReadVariableOp:0[FLOAT, 48]
  %digit_recognizer_v3_rgb_1/conv2_24f_1/convolution/ReadVariableOp:0[FLOAT, 24x16x3x3]
  %digit_recognizer_v3_rgb_1/output_1/Cast/ReadVariableOp:0[FLOAT, 48x10]
  %digit_recognizer_v3_rgb_1/conv4_bottleneck_1/Squeeze:0[FLOAT, 48]
  %digit_recognizer_v3_rgb_1/sep_conv1_16f_1/Squeeze:0[FLOAT, 16]
  %const_fold_opt__49[FLOAT, 3x1x3x3]
  %digit_recognizer_v3_rgb_1/conv4_bottleneck_1/convolution/ReadVariableOp:0[FLOAT, 48x32x3x3]
  %digit_recognizer_v3_rgb_1/conv3_32f_1/convolution/ReadVariableOp:0[FLOAT, 32x24x3x3]
  %digit_recognizer_v3_rgb_1/sep_conv1_16f_1/separable_conv2d/ReadVariableOp_1:0[FLOAT, 16x3x1x1]
  %const_axes__50[INT64, 2]
  %PPQ_Variable_0[FLOAT, 1]
  %PPQ_Variable_1[FLOAT, 1]
  %PPQ_Variable_2[FLOAT, 1]
  %PPQ_Variable_3[FLOAT, 1]
  %PPQ_Variable_4[FLOAT, 1]
  %PPQ_Variable_5[FLOAT, 1]
  %PPQ_Variable_6[FLOAT, 1]
  %PPQ_Variable_7[FLOAT, 1]
  %PPQ_Variable_8[FLOAT, 1]
  %PPQ_Variable_9[FLOAT, 1]
) {
  %digit_recognizer_v3_rgb_1/sep_conv1_16f_1/separable_conv2d/depthwise:0 = Conv[dilations = [1, 1], group = 3, kernel_shape = [3, 3], pads = [1, 1, 1, 1], quant_type = 'F32', strides = [1, 1]](%input, %const_fold_opt__49)
  %digit_recognizer_v3_rgb_1/sep_conv1_16f_1/BiasAdd:0 = Conv[dilations = [1, 1], group = 1, kernel_shape = [1, 1], quant_type = 'F32', strides = [1, 1]](%digit_recognizer_v3_rgb_1/sep_conv1_16f_1/separable_conv2d/depthwise:0, %digit_recognizer_v3_rgb_1/sep_conv1_16f_1/separable_conv2d/ReadVariableOp_1:0, %digit_recognizer_v3_rgb_1/sep_conv1_16f_1/Squeeze:0)
  %digit_recognizer_v3_rgb_1/sep_conv1_16f_1/Relu:0 = Relu[quant_type = 'F32'](%digit_recognizer_v3_rgb_1/sep_conv1_16f_1/BiasAdd:0)
  %digit_recognizer_v3_rgb_1/relu6_1_1/Relu6:0 = Clip[quant_type = 'F32'](%digit_recognizer_v3_rgb_1/sep_conv1_16f_1/Relu:0, %PPQ_Variable_5, %PPQ_Variable_0)
  %digit_recognizer_v3_rgb_1/pool1_1/MaxPool2d:0 = MaxPool[kernel_shape = [2, 2], quant_type = 'F32', strides = [2, 2]](%digit_recognizer_v3_rgb_1/relu6_1_1/Relu6:0)
  %digit_recognizer_v3_rgb_1/conv2_24f_1/BiasAdd:0 = Conv[dilations = [1, 1], group = 1, kernel_shape = [3, 3], pads = [1, 1, 1, 1], quant_type = 'F32', strides = [1, 1]](%digit_recognizer_v3_rgb_1/pool1_1/MaxPool2d:0, %digit_recognizer_v3_rgb_1/conv2_24f_1/convolution/ReadVariableOp:0, %digit_recognizer_v3_rgb_1/conv2_24f_1/Squeeze:0)
  %digit_recognizer_v3_rgb_1/conv2_24f_1/Relu:0 = Relu[quant_type = 'F32'](%digit_recognizer_v3_rgb_1/conv2_24f_1/BiasAdd:0)
  %digit_recognizer_v3_rgb_1/relu6_2_1/Relu6:0 = Clip[quant_type = 'F32'](%digit_recognizer_v3_rgb_1/conv2_24f_1/Relu:0, %PPQ_Variable_6, %PPQ_Variable_1)
  %digit_recognizer_v3_rgb_1/pool2_1/MaxPool2d:0 = MaxPool[kernel_shape = [2, 2], quant_type = 'F32', strides = [2, 2]](%digit_recognizer_v3_rgb_1/relu6_2_1/Relu6:0)
  %digit_recognizer_v3_rgb_1/conv3_32f_1/BiasAdd:0 = Conv[dilations = [1, 1], group = 1, kernel_shape = [3, 3], pads = [1, 1, 1, 1], quant_type = 'F32', strides = [1, 1]](%digit_recognizer_v3_rgb_1/pool2_1/MaxPool2d:0, %digit_recognizer_v3_rgb_1/conv3_32f_1/convolution/ReadVariableOp:0, %digit_recognizer_v3_rgb_1/conv3_32f_1/Squeeze:0)
  %digit_recognizer_v3_rgb_1/conv3_32f_1/Relu:0 = Relu[quant_type = 'F32'](%digit_recognizer_v3_rgb_1/conv3_32f_1/BiasAdd:0)
  %digit_recognizer_v3_rgb_1/relu6_3_1/Relu6:0 = Clip[quant_type = 'F32'](%digit_recognizer_v3_rgb_1/conv3_32f_1/Relu:0, %PPQ_Variable_7, %PPQ_Variable_2)
  %digit_recognizer_v3_rgb_1/conv4_bottleneck_1/BiasAdd:0 = Conv[dilations = [1, 1], group = 1, kernel_shape = [3, 3], pads = [1, 1, 1, 1], quant_type = 'F32', strides = [1, 1]](%digit_recognizer_v3_rgb_1/relu6_3_1/Relu6:0, %digit_recognizer_v3_rgb_1/conv4_bottleneck_1/convolution/ReadVariableOp:0, %digit_recognizer_v3_rgb_1/conv4_bottleneck_1/Squeeze:0)
  %digit_recognizer_v3_rgb_1/conv4_bottleneck_1/Relu:0 = Relu[quant_type = 'F32'](%digit_recognizer_v3_rgb_1/conv4_bottleneck_1/BiasAdd:0)
  %digit_recognizer_v3_rgb_1/relu6_4_1/Relu6:0 = Clip[quant_type = 'F32'](%digit_recognizer_v3_rgb_1/conv4_bottleneck_1/Relu:0, %PPQ_Variable_8, %PPQ_Variable_3)
  %digit_recognizer_v3_rgb_1/global_avg_pool_1/Mean:0 = GlobalAveragePool[quant_type = 'F32'](%digit_recognizer_v3_rgb_1/relu6_4_1/Relu6:0)
  %PPQ_Variable_10 = Transpose[perm = [0, 3, 1, 2], quant_type = 'F32'](%digit_recognizer_v3_rgb_1/global_avg_pool_1/Mean:0)
  %digit_recognizer_v3_rgb_1/global_avg_pool_1/Mean_Squeeze__51:0 = Squeeze[quant_type = 'F32'](%PPQ_Variable_10, %const_axes__50)
  %digit_recognizer_v3_rgb_1/feature_dense_1/MatMul:0 = MatMul[quant_type = 'F32'](%digit_recognizer_v3_rgb_1/global_avg_pool_1/Mean_Squeeze__51:0, %digit_recognizer_v3_rgb_1/feature_dense_1/Cast/ReadVariableOp:0)
  %digit_recognizer_v3_rgb_1/feature_dense_1/BiasAdd:0 = Add[quant_type = 'F32'](%digit_recognizer_v3_rgb_1/feature_dense_1/MatMul:0, %digit_recognizer_v3_rgb_1/feature_dense_1/BiasAdd/ReadVariableOp:0)
  %digit_recognizer_v3_rgb_1/feature_dense_1/Relu:0 = Relu[quant_type = 'F32'](%digit_recognizer_v3_rgb_1/feature_dense_1/BiasAdd:0)
  %digit_recognizer_v3_rgb_1/relu6_dense_1/Relu6:0 = Clip[quant_type = 'F32'](%digit_recognizer_v3_rgb_1/feature_dense_1/Relu:0, %PPQ_Variable_9, %PPQ_Variable_4)
  %digit_recognizer_v3_rgb_1/output_1/MatMul:0 = MatMul[quant_type = 'F32'](%digit_recognizer_v3_rgb_1/relu6_dense_1/Relu6:0, %digit_recognizer_v3_rgb_1/output_1/Cast/ReadVariableOp:0)
  %digit_recognizer_v3_rgb_1/output_1/BiasAdd:0 = Add[quant_type = 'F32'](%digit_recognizer_v3_rgb_1/output_1/MatMul:0, %digit_recognizer_v3_rgb_1/output_1/BiasAdd/ReadVariableOp:0)
  %output = Softmax[quant_type = 'F32'](%digit_recognizer_v3_rgb_1/output_1/BiasAdd:0)
  return %output
}


initializers value:
%digit_recognizer_v3_rgb_1/conv2_24f_1/Squeeze:0, shape: [24], exponents: [0], docString: b'layout ==> UNK', 
value: array([ … dtype=float32)
%digit_recognizer_v3_rgb_1/feature_dense_1/Cast/ReadVariableOp:0, shape: [48, 48], exponents: [0], docString: b'layout ==> UNK', 
value: array([… dtype=float32)
%digit_recognizer_v3_rgb_1/conv3_32f_1/Squeeze:0, shape: [32], exponents: [0], docString: b'layout ==> UNK', 
value: array([ … dtype=float32)
%digit_recognizer_v3_rgb_1/output_1/BiasAdd/ReadVariableOp:0, shape: [10], exponents: [0], docString: b'layout ==> UNK', 
value: array([ 0.42731696, -0.7414429 ,  0.3074728 ,  0.09470312, -0.10666154,
       -0.03629934,  0.3213442 , -0.24320367, -0.2398463 ,  0.05991445,
        0.        ,  0.        ], dtype=float32)
%digit_recognizer_v3_rgb_1/feature_dense_1/BiasAdd/ReadVariableOp:0, shape: [48], exponents: [0], docString: b'layout ==> UNK', 
value: array([ … dtype=float32)
%digit_recognizer_v3_rgb_1/conv2_24f_1/convolution/ReadVariableOp:0, shape: [24, 16, 3, 3], exponents: [0], docString: b'layout ==> UNK', 
value: array([… dtype=float32)
%digit_recognizer_v3_rgb_1/output_1/Cast/ReadVariableOp:0, shape: [48, 10], exponents: [0], docString: b'layout ==> UNK', 
value: array([ … dtype=float32)
%digit_recognizer_v3_rgb_1/conv4_bottleneck_1/Squeeze:0, shape: [48], exponents: [0], docString: b'layout ==> UNK', 
value: array([ … dtype=float32)
%digit_recognizer_v3_rgb_1/sep_conv1_16f_1/Squeeze:0, shape: [16], exponents: [0], docString: b'layout ==> UNK', 
value: array([ … dtype=float32)
%const_fold_opt__49, shape: [3, 1, 3, 3], exponents: [0], docString: b'layout ==> UNK', 
value: array([ … 0.        ], dtype=float32)
%digit_recognizer_v3_rgb_1/conv4_bottleneck_1/convolution/ReadVariableOp:0, shape: [48, 32, 3, 3], exponents: [0], docString: b'layout ==> UNK', 
value: array([ … dtype=float32)
%digit_recognizer_v3_rgb_1/conv3_32f_1/convolution/ReadVariableOp:0, shape: [32, 24, 3, 3], exponents: [0], docString: b'layout ==> UNK', 
value: array([ … dtype=float32)
%digit_recognizer_v3_rgb_1/sep_conv1_16f_1/separable_conv2d/ReadVariableOp_1:0, shape: [16, 3, 1, 1], exponents: [0], docString: b'layout ==> UNK', 
value: array([ … dtype=float32)
%const_axes__50, shape: [2], exponents: [0], docString: b'layout ==> UNK', 
value: array([2, 3], dtype=int64)
%PPQ_Variable_0, shape: [1], exponents: [0], docString: b'layout ==> UNK', 
value: array([6., 0., 0., 0.], dtype=float32)
%PPQ_Variable_1, shape: [1], exponents: [0], docString: b'layout ==> UNK', 
value: array([6., 0., 0., 0.], dtype=float32)
%PPQ_Variable_2, shape: [1], exponents: [0], docString: b'layout ==> UNK', 
value: array([6., 0., 0., 0.], dtype=float32)
%PPQ_Variable_3, shape: [1], exponents: [0], docString: b'layout ==> UNK', 
value: array([6., 0., 0., 0.], dtype=float32)
%PPQ_Variable_4, shape: [1], exponents: [0], docString: b'layout ==> UNK', 
value: array([6., 0., 0., 0.], dtype=float32)
%PPQ_Variable_5, shape: [1], exponents: [0], docString: b'layout ==> UNK', 
value: array([0., 0., 0., 0.], dtype=float32)
%PPQ_Variable_6, shape: [1], exponents: [0], docString: b'layout ==> UNK', 
value: array([0., 0., 0., 0.], dtype=float32)
%PPQ_Variable_7, shape: [1], exponents: [0], docString: b'layout ==> UNK', 
value: array([0., 0., 0., 0.], dtype=float32)
%PPQ_Variable_8, shape: [1], exponents: [0], docString: b'layout ==> UNK', 
value: array([0., 0., 0., 0.], dtype=float32)
%PPQ_Variable_9, shape: [1], exponents: [0], docString: b'layout ==> UNK', 
value: array([0., 0., 0., 0.], dtype=float32)


values info:
%digit_recognizer_v3_rgb_1/conv4_bottleneck_1/Relu:0[FLOAT, 1x8x5x48], exponents: [0]
%digit_recognizer_v3_rgb_1/sep_conv1_16f_1/separable_conv2d/depthwise:0[FLOAT, 1x32x20x3], exponents: [0]
%digit_recognizer_v3_rgb_1/conv4_bottleneck_1/BiasAdd:0[FLOAT, 1x8x5x48], exponents: [0]
%digit_recognizer_v3_rgb_1/conv3_32f_1/Relu:0[FLOAT, 1x8x5x32], exponents: [0]
%digit_recognizer_v3_rgb_1/feature_dense_1/MatMul:0[FLOAT, 1x48], exponents: [0]
%digit_recognizer_v3_rgb_1/conv3_32f_1/BiasAdd:0[FLOAT, 1x8x5x32], exponents: [0]
%digit_recognizer_v3_rgb_1/conv2_24f_1/BiasAdd:0[FLOAT, 1x16x10x24], exponents: [0]
%digit_recognizer_v3_rgb_1/relu6_1_1/Relu6:0[FLOAT, 1x32x20x16], exponents: [0]
%digit_recognizer_v3_rgb_1/relu6_4_1/Relu6:0[FLOAT, 1x8x5x48], exponents: [0]
%digit_recognizer_v3_rgb_1/pool2_1/MaxPool2d:0[FLOAT, 1x8x5x24], exponents: [0]
%digit_recognizer_v3_rgb_1/output_1/BiasAdd:0[FLOAT, 1x10], exponents: [0]
%digit_recognizer_v3_rgb_1/sep_conv1_16f_1/BiasAdd:0[FLOAT, 1x32x20x16], exponents: [0]
%digit_recognizer_v3_rgb_1/global_avg_pool_1/Mean_Squeeze__51:0[FLOAT, 1x48], exponents: [0]
%output[FLOAT, 1x10], exponents: [0]
%digit_recognizer_v3_rgb_1/feature_dense_1/Relu:0[FLOAT, 1x48], exponents: [0]
%digit_recognizer_v3_rgb_1/output_1/MatMul:0[FLOAT, 1x10], exponents: [0]
%digit_recognizer_v3_rgb_1/relu6_3_1/Relu6:0[FLOAT, 1x8x5x32], exponents: [0]
%digit_recognizer_v3_rgb_1/sep_conv1_16f_1/Relu:0[FLOAT, 1x32x20x16], exponents: [0]
%digit_recognizer_v3_rgb_1/conv2_24f_1/Relu:0[FLOAT, 1x16x10x24], exponents: [0]
%digit_recognizer_v3_rgb_1/pool1_1/MaxPool2d:0[FLOAT, 1x16x10x16], exponents: [0]
%digit_recognizer_v3_rgb_1/feature_dense_1/BiasAdd:0[FLOAT, 1x48], exponents: [0]
%input[FLOAT, 1x32x20x3], exponents: [0]
%digit_recognizer_v3_rgb_1/global_avg_pool_1/Mean:0[FLOAT, 1x1x1x48], exponents: [0]
%digit_recognizer_v3_rgb_1/relu6_2_1/Relu6:0[FLOAT, 1x16x10x24], exponents: [0]
%digit_recognizer_v3_rgb_1/relu6_dense_1/Relu6:0[FLOAT, 1x48], exponents: [0]
%PPQ_Variable_10[FLOAT, 1x1x48x1], exponents: [0]


test inputs value:



test outputs value:
