…
  augmentation: True
  sources: ['Tenth-of-step-of-a-meter-digit', 'real_integra_bad_predictions', 'real_integra', 'static_augmentation']

QUANTIZATION:
  qat: False
  post_training: True
  esp_dl: False

==================================================


MODEL SUMMARY:
Model: "digit_recognizer_v4_grayscale"
+--------------------------------------------------------------------------------------+
| Layer (type)                         | Output Shape                |         Param # |
|--------------------------------------+-----------------------------+-----------------|
| input (InputLayer)                   | (None, 32, 20, 1)           |               0 |
|--------------------------------------+-----------------------------+-----------------|
| conv1_20f (Conv2D)                   | (None, 32, 20, 20)          |             200 |
|--------------------------------------+-----------------------------+-----------------|
| relu6_1 (ReLU)                       | (None, 32, 20, 20)          |               0 |
|--------------------------------------+-----------------------------+-----------------|
| pool1 (MaxPooling2D)                 | (None, 16, 10, 20)          |               0 |
|--------------------------------------+-----------------------------+-----------------|
| conv2_36f (Conv2D)                   | (None, 16, 10, 36)          |           6,516 |
|--------------------------------------+-----------------------------+-----------------|
| relu6_2 (ReLU)                       | (None, 16, 10, 36)          |               0 |
|--------------------------------------+-----------------------------+-----------------|
| pool2 (MaxPooling2D)                 | (None, 8, 5, 36)            |               0 |
|--------------------------------------+-----------------------------+-----------------|
| conv3_48f (Conv2D)                   | (None, 8, 5, 48)            |          15,600 |
|--------------------------------------+-----------------------------+-----------------|
| relu6_3 (ReLU)                       | (None, 8, 5, 48)            |               0 |
|--------------------------------------+-----------------------------+-----------------|
| conv4_56f (Conv2D)                   | (None, 8, 5, 56)            |          24,248 |
|--------------------------------------+-----------------------------+-----------------|
| relu6_4 (ReLU)                       | (None, 8, 5, 56)            |               0 |
|--------------------------------------+-----------------------------+-----------------|
| global_avg_pool                      | (None, 56)                  |               0 |
| (GlobalAveragePooling2D)             |                             |                 |
|--------------------------------------+-----------------------------+-----------------|
| feature_dense (Dense)                | (None, 64)                  |           3,648 |
|--------------------------------------+-----------------------------+-----------------|
| relu6_dense (ReLU)                   | (None, 64)                  |               0 |
|--------------------------------------+-----------------------------+-----------------|
| output (Dense)                       | (None, 100)                 |           6,500 |
+--------------------------------------------------------------------------------------+
 Total params: 56,712 (221.53 KB)
 Trainable params: 56,712 (221.53 KB)
 Non-trainable params: 0 (0.00 B)



GENERATED: 2025-11-02 14:48:30
