model properties:
metadata_props:


graph tf2onnx (
  %input[FLOAT, 1x32x20x3], exponents: [0]
) initializers (
  %digit_recognizer_v6_rgb_100classes_1/dense2_1/Cast/ReadVariableOp:0[FLOAT, 144x96]
  %digit_recognizer_v6_rgb_100classes_1/output_1/BiasAdd/ReadVariableOp:0[FLOAT, 100]
  %digit_recognizer_v6_rgb_100classes_1/conv3_1/Squeeze:0[FLOAT, 72]
  %digit_recognizer_v6_rgb_100classes_1/dense1_1/Cast/ReadVariableOp:0[FLOAT, 80x144]
  %digit_recognizer_v6_rgb_100classes_1/conv2_1/convolution/ReadVariableOp:0[FLOAT, 56x36x3x3]
  %const_axes__28[INT64, 2]
  %digit_recognizer_v6_rgb_100classes_1/dense2_1/BiasAdd/ReadVariableOp:0[FLOAT, 96]
  %digit_recognizer_v6_rgb_100classes_1/conv2_1/Squeeze:0[FLOAT, 56]
  %digit_recognizer_v6_rgb_100classes_1/conv1_1/convolution/ReadVariableOp:0[FLOAT, 36x3x3x3]
  %digit_recognizer_v6_rgb_100classes_1/conv4_1/Squeeze:0[FLOAT, 80]
  %digit_recognizer_v6_rgb_100classes_1/conv1_1/Squeeze:0[FLOAT, 36]
  %digit_recognizer_v6_rgb_100classes_1/dense1_1/BiasAdd/ReadVariableOp:0[FLOAT, 144]
  %digit_recognizer_v6_rgb_100classes_1/conv3_1/convolution/ReadVariableOp:0[FLOAT, 72x56x3x3]
  %digit_recognizer_v6_rgb_100classes_1/output_1/Cast/ReadVariableOp:0[FLOAT, 96x100]
  %digit_recognizer_v6_rgb_100classes_1/conv4_1/convolution/ReadVariableOp:0[FLOAT, 80x72x3x3]
) {
  %digit_recognizer_v6_rgb_100classes_1/conv1_1/BiasAdd:0 = Conv[dilations = [1, 1], group = 1, kernel_shape = [3, 3], pads = [1, 1, 1, 1], quant_type = 'F32', strides = [1, 1]](%input, %digit_recognizer_v6_rgb_100classes_1/conv1_1/convolution/ReadVariableOp:0, %digit_recognizer_v6_rgb_100classes_1/conv1_1/Squeeze:0)
  %digit_recognizer_v6_rgb_100classes_1/relu1_1/Relu:0 = Relu[quant_type = 'F32'](%digit_recognizer_v6_rgb_100classes_1/conv1_1/BiasAdd:0)
  %digit_recognizer_v6_rgb_100classes_1/pool1_1/MaxPool2d:0 = MaxPool[kernel_shape = [2, 2], quant_type = 'F32', strides = [2, 2]](%digit_recognizer_v6_rgb_100classes_1/relu1_1/Relu:0)
  %digit_recognizer_v6_rgb_100classes_1/conv2_1/BiasAdd:0 = Conv[dilations = [1, 1], group = 1, kernel_shape = [3, 3], pads = [1, 1, 1, 1], quant_type = 'F32', strides = [1, 1]](%digit_recognizer_v6_rgb_100classes_1/pool1_1/MaxPool2d:0, %digit_recognizer_v6_rgb_100classes_1/conv2_1/convolution/ReadVariableOp:0, %digit_recognizer_v6_rgb_100classes_1/conv2_1/Squeeze:0)
  %digit_recognizer_v6_rgb_100classes_1/relu2_1/Relu:0 = Relu[quant_type = 'F32'](%digit_recognizer_v6_rgb_100classes_1/conv2_1/BiasAdd:0)
  %digit_recognizer_v6_rgb_100classes_1/conv3_1/BiasAdd:0 = Conv[dilations = [1, 1], group = 1, kernel_shape = [3, 3], pads = [1, 1, 1, 1], quant_type = 'F32', strides = [1, 1]](%digit_recognizer_v6_rgb_100classes_1/relu2_1/Relu:0, %digit_recognizer_v6_rgb_100classes_1/conv3_1/convolution/ReadVariableOp:0, %digit_recognizer_v6_rgb_100classes_1/conv3_1/Squeeze:0)
  %digit_recognizer_v6_rgb_100classes_1/relu3_1/Relu:0 = Relu[quant_type = 'F32'](%digit_recognizer_v6_rgb_100classes_1/conv3_1/BiasAdd:0)
  %digit_recognizer_v6_rgb_100classes_1/conv4_1/BiasAdd:0 = Conv[dilations = [1, 1], group = 1, kernel_shape = [3, 3], pads = [1, 1, 1, 1], quant_type = 'F32', strides = [1, 1]](%digit_recognizer_v6_rgb_100classes_1/relu3_1/Relu:0, %digit_recognizer_v6_rgb_100classes_1/conv4_1/convolution/ReadVariableOp:0, %digit_recognizer_v6_rgb_100classes_1/conv4_1/Squeeze:0)
  %digit_recognizer_v6_rgb_100classes_1/relu4_1/Relu:0 = Relu[quant_type = 'F32'](%digit_recognizer_v6_rgb_100classes_1/conv4_1/BiasAdd:0)
  %digit_recognizer_v6_rgb_100classes_1/global_avg_pool_1/Mean:0 = GlobalAveragePool[quant_type = 'F32'](%digit_recognizer_v6_rgb_100classes_1/relu4_1/Relu:0)
  %PPQ_Variable_0 = Transpose[perm = [0, 3, 1, 2], quant_type = 'F32'](%digit_recognizer_v6_rgb_100classes_1/global_avg_pool_1/Mean:0)
  %digit_recognizer_v6_rgb_100classes_1/global_avg_pool_1/Mean_Squeeze__29:0 = Squeeze[quant_type = 'F32'](%PPQ_Variable_0, %const_axes__28)
  %digit_recognizer_v6_rgb_100classes_1/dense1_1/MatMul:0 = MatMul[quant_type = 'F32'](%digit_recognizer_v6_rgb_100classes_1/global_avg_pool_1/Mean_Squeeze__29:0, %digit_recognizer_v6_rgb_100classes_1/dense1_1/Cast/ReadVariableOp:0)
  %digit_recognizer_v6_rgb_100classes_1/dense1_1/BiasAdd:0 = Add[quant_type = 'F32'](%digit_recognizer_v6_rgb_100classes_1/dense1_1/MatMul:0, %digit_recognizer_v6_rgb_100classes_1/dense1_1/BiasAdd/ReadVariableOp:0)
  %digit_recognizer_v6_rgb_100classes_1/dense1_1/Relu:0 = Relu[quant_type = 'F32'](%digit_recognizer_v6_rgb_100classes_1/dense1_1/BiasAdd:0)
  %digit_recognizer_v6_rgb_100classes_1/dense2_1/MatMul:0 = MatMul[quant_type = 'F32'](%digit_recognizer_v6_rgb_100classes_1/dense1_1/Relu:0, %digit_recognizer_v6_rgb_100classes_1/dense2_1/Cast/ReadVariableOp:0)
  %digit_recognizer_v6_rgb_100classes_1/dense2_1/BiasAdd:0 = Add[quant_type = 'F32'](%digit_recognizer_v6_rgb_100classes_1/dense2_1/MatMul:0, %digit_recognizer_v6_rgb_100classes_1/dense2_1/BiasAdd/ReadVariableOp:0)
  %digit_recognizer_v6_rgb_100classes_1/dense2_1/Relu:0 = Relu[quant_type = 'F32'](%digit_recognizer_v6_rgb_100classes_1/dense2_1/BiasAdd:0)
  %digit_recognizer_v6_rgb_100classes_1/output_1/MatMul:0 = MatMul[quant_type = 'F32'](%digit_recognizer_v6_rgb_100classes_1/dense2_1/Relu:0, %digit_recognizer_v6_rgb_100classes_1/output_1/Cast/ReadVariableOp:0)
  %digit_recognizer_v6_rgb_100classes_1/output_1/BiasAdd:0 = Add[quant_type = 'F32'](%digit_recognizer_v6_rgb_100classes_1/output_1/MatMul:0, %digit_recognizer_v6_rgb_100classes_1/output_1/BiasAdd/ReadVariableOp:0)
  %output = Softmax[quant_type = 'F32'](%digit_recognizer_v6_rgb_100classes_1/output_1/BiasAdd:0)
  return %output
}


initializers value:
%digit_recognizer_v6_rgb_100classes_1/dense2_1/Cast/ReadVariableOp:0, shape: [144, 96], exponents: [0], docString: b'layout ==> UNK', 
value: array([… dtype=float32)
%digit_recognizer_v6_rgb_100classes_1/output_1/BiasAdd/ReadVariableOp:0, shape: [100], exponents: [0], docString: b'layout ==> UNK', 
value: array([ … dtype=float32)
%digit_recognizer_v6_rgb_100classes_1/conv3_1/Squeeze:0, shape: [72], exponents: [0], docString: b'layout ==> UNK', 
value: array([ … dtype=float32)
%digit_recognizer_v6_rgb_100classes_1/dense1_1/Cast/ReadVariableOp:0, shape: [80, 144], exponents: [0], docString: b'layout ==> UNK', 
value: array([… dtype=float32)
%digit_recognizer_v6_rgb_100classes_1/conv2_1/convolution/ReadVariableOp:0, shape: [56, 36, 3, 3], exponents: [0], docString: b'layout ==> UNK', 
value: array([ … dtype=float32)
%const_axes__28, shape: [2], exponents: [0], docString: b'layout ==> UNK', 
value: array([2, 3], dtype=int64)
%digit_recognizer_v6_rgb_100classes_1/dense2_1/BiasAdd/ReadVariableOp:0, shape: [96], exponents: [0], docString: b'layout ==> UNK', 
value: array([ … dtype=float32)
%digit_recognizer_v6_rgb_100classes_1/conv2_1/Squeeze:0, shape: [56], exponents: [0], docString: b'layout ==> UNK', 
value: array([ … dtype=float32)
%digit_recognizer_v6_rgb_100classes_1/conv1_1/convolution/ReadVariableOp:0, shape: [36, 3, 3, 3], exponents: [0], docString: b'layout ==> UNK', 
value: array([… dtype=float32)
%digit_recognizer_v6_rgb_100classes_1/conv4_1/Squeeze:0, shape: [80], exponents: [0], docString: b'layout ==> UNK', 
value: array([… dtype=float32)
%digit_recognizer_v6_rgb_100classes_1/conv1_1/Squeeze:0, shape: [36], exponents: [0], docString: b'layout ==> UNK', 
value: array([ … dtype=float32)
%digit_recognizer_v6_rgb_100classes_1/dense1_1/BiasAdd/ReadVariableOp:0, shape: [144], exponents: [0], docString: b'layout ==> UNK', 
value: array([… dtype=float32)
%digit_recognizer_v6_rgb_100classes_1/conv3_1/convolution/ReadVariableOp:0, shape: [72, 56, 3, 3], exponents: [0], docString: b'layout ==> UNK', 
value: array([… dtype=float32)
%digit_recognizer_v6_rgb_100classes_1/output_1/Cast/ReadVariableOp:0, shape: [96, 100], exponents: [0], docString: b'layout ==> UNK', 
value: array([ … dtype=float32)
%digit_recognizer_v6_rgb_100classes_1/conv4_1/convolution/ReadVariableOp:0, shape: [80, 72, 3, 3], exponents: [0], docString: b'layout ==> UNK', 
value: array([ … dtype=float32)


values info:
%digit_recognizer_v6_rgb_100classes_1/global_avg_pool_1/Mean_Squeeze__29:0[FLOAT, 1x80], exponents: [0]
%digit_recognizer_v6_rgb_100classes_1/relu4_1/Relu:0[FLOAT, 1x16x10x80], exponents: [0]
%digit_recognizer_v6_rgb_100classes_1/dense2_1/MatMul:0[FLOAT, 1x96], exponents: [0]
%digit_recognizer_v6_rgb_100classes_1/dense2_1/Relu:0[FLOAT, 1x96], exponents: [0]
%digit_recognizer_v6_rgb_100classes_1/pool1_1/MaxPool2d:0[FLOAT, 1x16x10x36], exponents: [0]
%digit_recognizer_v6_rgb_100classes_1/relu2_1/Relu:0[FLOAT, 1x16x10x56], exponents: [0]
%digit_recognizer_v6_rgb_100classes_1/global_avg_pool_1/Mean:0[FLOAT, 1x1x1x80], exponents: [0]
%digit_recognizer_v6_rgb_100classes_1/conv3_1/BiasAdd:0[FLOAT, 1x16x10x72], exponents: [0]
%digit_recognizer_v6_rgb_100classes_1/dense2_1/BiasAdd:0[FLOAT, 1x96], exponents: [0]
%output[FLOAT, 1x100], exponents: [0]
%digit_recognizer_v6_rgb_100classes_1/output_1/MatMul:0[FLOAT, 1x100], exponents: [0]
%digit_recognizer_v6_rgb_100classes_1/conv2_1/BiasAdd:0[FLOAT, 1x16x10x56], exponents: [0]
%digit_recognizer_v6_rgb_100classes_1/output_1/BiasAdd:0[FLOAT, 1x100], exponents: [0]
%digit_recognizer_v6_rgb_100classes_1/conv4_1/BiasAdd:0[FLOAT, 1x16x10x80], exponents: [0]
%digit_recognizer_v6_rgb_100classes_1/dense1_1/Relu:0[FLOAT, 1x144], exponents: [0]
%digit_recognizer_v6_rgb_100classes_1/dense1_1/MatMul:0[FLOAT, 1x144], exponents: [0]
%digit_recognizer_v6_rgb_100classes_1/conv1_1/BiasAdd:0[FLOAT, 1x32x20x36], exponents: [0]
%digit_recognizer_v6_rgb_100classes_1/dense1_1/BiasAdd:0[FLOAT, 1x144], exponents: [0]
%input[FLOAT, 1x32x20x3], exponents: [0]
%digit_recognizer_v6_rgb_100classes_1/relu1_1/Relu:0[FLOAT, 1x32x20x36], exponents: [0]
%digit_recognizer_v6_rgb_100classes_1/relu3_1/Relu:0[FLOAT, 1x16x10x72], exponents: [0]
%PPQ_Variable_0[FLOAT, 1x1x80x1], exponents: [0]


test inputs value:



test outputs value:
