model properties:
metadata_props:


graph tf2onnx (
  %input[FLOAT, 1x32x20x3], exponents: [0]
) initializers (
  %digit_recognizer_v16_1/entry_bn_1/batchnorm/sub:0[FLOAT, 16]
  %const_fold_opt__216[FLOAT, 96x1x3x3]
  %digit_recognizer_v16_1/ir3_proj_bn_1/batchnorm/sub:0[FLOAT, 40]
  %const_fold_opt__221[FLOAT, 1x64x1x1]
  %const_fold_opt__215[FLOAT, 240x1x3x3]
  %digit_recognizer_v16_1/ir4_dw_bn_1/batchnorm/mul:0[FLOAT, 1x240x1x1]
  %digit_recognizer_v16_1/ir2_exp_bn_1/batchnorm/sub:0[FLOAT, 96]
  %digit_recognizer_v16_1/ir1_project_1/convolution/merged_input:0[FLOAT, 24x64x1x1]
  %digit_recognizer_v16_1/ir4_expand_1/convolution/merged_input:0[FLOAT, 240x40x1x1]
  %const_fold_opt__213[FLOAT, 240x1x3x3]
  %digit_recognizer_v16_1/entry_conv_1/convolution/merged_input:0[FLOAT, 16x3x3x3]
  %digit_recognizer_v16_1/ir4_exp_bn_1/batchnorm/sub:0[FLOAT, 240]
  %digit_recognizer_v16_1/ir5_dw_bn_1/batchnorm/mul:0[FLOAT, 1x240x1x1]
  %digit_recognizer_v16_1/ir2_project_1/convolution/merged_input:0[FLOAT, 24x96x1x1]
  %digit_recognizer_v16_1/ir5_project_1/convolution/merged_input:0[FLOAT, 56x240x1x1]
  %digit_recognizer_v16_1/ir1_expand_1/convolution/merged_input:0[FLOAT, 64x16x1x1]
  %const_fold_opt__219[FLOAT, 64x1x3x3]
  %digit_recognizer_v16_1/ir4_proj_bn_1/batchnorm/sub:0[FLOAT, 40]
  %digit_recognizer_v16_1/ir1_dw_bn_1/batchnorm/mul:0[FLOAT, 1x64x1x1]
  %digit_recognizer_v16_1/ir5_exp_bn_1/batchnorm/sub:0[FLOAT, 240]
  %digit_recognizer_v16_1/ir5_expand_1/convolution/merged_input:0[FLOAT, 240x40x1x1]
  %digit_recognizer_v16_1/ir1_proj_bn_1/batchnorm/sub:0[FLOAT, 24]
  %digit_recognizer_v16_1/output_1/BiasAdd/ReadVariableOp:0[FLOAT, 10]
  %digit_recognizer_v16_1/ir2_proj_bn_1/batchnorm/sub:0[FLOAT, 24]
  %digit_recognizer_v16_1/output_1/Cast/ReadVariableOp:0[FLOAT, 96x10]
  %digit_recognizer_v16_1/ir2_expand_1/convolution/merged_input:0[FLOAT, 96x24x1x1]
  %digit_recognizer_v16_1/flatten_1/Reshape_shape__229[INT64, 2]
  %digit_recognizer_v16_1/ir3_project_1/convolution/merged_input:0[FLOAT, 40x96x1x1]
  %digit_recognizer_v16_1/ir3_expand_1/convolution/merged_input:0[FLOAT, 96x24x1x1]
  %digit_recognizer_v16_1/ir5_proj_bn_1/batchnorm/sub:0[FLOAT, 56]
  %digit_recognizer_v16_1/ir2_dw_bn_1/batchnorm/mul:0[FLOAT, 1x96x1x1]
  %const_fold_opt__217[FLOAT, 96x1x3x3]
  %digit_recognizer_v16_1/head_conv_1/convolution/merged_input:0[FLOAT, 96x56x1x1]
  %digit_recognizer_v16_1/head_bn_1/batchnorm/sub:0[FLOAT, 96]
  %const_fold_opt__228[FLOAT, 1x96x1x1]
  %const_fold_opt__225[FLOAT, 1x240x1x1]
  %digit_recognizer_v16_1/ir4_project_1/convolution/merged_input:0[FLOAT, 40x240x1x1]
  %const_fold_opt__224[FLOAT, 1x96x1x1]
  %digit_recognizer_v16_1/ir3_exp_bn_1/batchnorm/sub:0[FLOAT, 96]
  %const_fold_opt__226[FLOAT, 1x240x1x1]
  %digit_recognizer_v16_1/ir3_dw_bn_1/batchnorm/mul:0[FLOAT, 1x96x1x1]
  %digit_recognizer_v16_1/ir1_exp_bn_1/batchnorm/sub:0[FLOAT, 64]
  %PPQ_Variable_0[FLOAT, 1]
  %PPQ_Variable_1[FLOAT, 1]
  %PPQ_Variable_2[FLOAT, 1]
  %PPQ_Variable_3[FLOAT, 1]
  %PPQ_Variable_4[FLOAT, 1]
  %PPQ_Variable_5[FLOAT, 1]
  %PPQ_Variable_6[FLOAT, 1]
  %PPQ_Variable_7[FLOAT, 1]
  %PPQ_Variable_8[FLOAT, 1]
  %PPQ_Variable_9[FLOAT, 1]
  %PPQ_Variable_10[FLOAT, 1]
  %PPQ_Variable_11[FLOAT, 1]
  %PPQ_Variable_12[FLOAT, 1]
  %PPQ_Variable_13[FLOAT, 1]
  %PPQ_Variable_14[FLOAT, 1]
  %PPQ_Variable_15[FLOAT, 1]
  %PPQ_Variable_16[FLOAT, 1]
  %PPQ_Variable_17[FLOAT, 1]
  %PPQ_Variable_18[FLOAT, 1]
  %PPQ_Variable_19[FLOAT, 1]
  %PPQ_Variable_20[FLOAT, 1]
  %PPQ_Variable_21[FLOAT, 1]
  %PPQ_Variable_22[FLOAT, 1]
  %PPQ_Variable_23[FLOAT, 1]
) {
  %Conv__127:0 = Conv[dilations = [1, 1], group = 1, kernel_shape = [3, 3], pads = [1, 1, 1, 1], quant_type = 'F32', strides = [1, 1]](%input, %digit_recognizer_v16_1/entry_conv_1/convolution/merged_input:0, %digit_recognizer_v16_1/entry_bn_1/batchnorm/sub:0)
  %digit_recognizer_v16_1/entry_relu6_1/Relu6:0 = Clip[quant_type = 'F32'](%Conv__127:0, %PPQ_Variable_0, %PPQ_Variable_12)
  %Conv__129:0 = Conv[dilations = [1, 1], group = 1, kernel_shape = [1, 1], pads = [0, 0, 0, 0], quant_type = 'F32', strides = [1, 1]](%digit_recognizer_v16_1/entry_relu6_1/Relu6:0, %digit_recognizer_v16_1/ir1_expand_1/convolution/merged_input:0, %digit_recognizer_v16_1/ir1_exp_bn_1/batchnorm/sub:0)
  %digit_recognizer_v16_1/ir1_exp_relu6_1/Relu6:0 = Clip[quant_type = 'F32'](%Conv__129:0, %PPQ_Variable_1, %PPQ_Variable_13)
  %digit_recognizer_v16_1/ir1_dw_1/depthwise:0 = Conv[dilations = [1, 1], group = 64, kernel_shape = [3, 3], pads = [0, 0, 1, 1], quant_type = 'F32', strides = [2, 2]](%digit_recognizer_v16_1/ir1_exp_relu6_1/Relu6:0, %const_fold_opt__219)
  %PPQ_Variable_24 = Transpose[perm = [0, 3, 1, 2], quant_type = 'F32'](%digit_recognizer_v16_1/ir1_dw_1/depthwise:0)
  %digit_recognizer_v16_1/ir1_dw_bn_1/batchnorm/mul_1:0 = Mul[quant_type = 'F32'](%PPQ_Variable_24, %digit_recognizer_v16_1/ir1_dw_bn_1/batchnorm/mul:0)
  %digit_recognizer_v16_1/ir1_dw_bn_1/batchnorm/add_1:0 = Add[quant_type = 'F32'](%digit_recognizer_v16_1/ir1_dw_bn_1/batchnorm/mul_1:0, %const_fold_opt__221)
  %digit_recognizer_v16_1/ir1_dw_relu6_1/Relu6:0 = Clip[quant_type = 'F32'](%digit_recognizer_v16_1/ir1_dw_bn_1/batchnorm/add_1:0, %PPQ_Variable_2, %PPQ_Variable_14)
  %PPQ_Variable_25 = Transpose[perm = [0, 2, 3, 1], quant_type = 'F32'](%digit_recognizer_v16_1/ir1_dw_relu6_1/Relu6:0)
  %Conv__139:0 = Conv[dilations = [1, 1], group = 1, kernel_shape = [1, 1], pads = [0, 0, 0, 0], quant_type = 'F32', strides = [1, 1]](%PPQ_Variable_25, %digit_recognizer_v16_1/ir1_project_1/convolution/merged_input:0, %digit_recognizer_v16_1/ir1_proj_bn_1/batchnorm/sub:0)
  %Conv__145:0 = Conv[dilations = [1, 1], group = 1, kernel_shape = [1, 1], pads = [0, 0, 0, 0], quant_type = 'F32', strides = [1, 1]](%Conv__139:0, %digit_recognizer_v16_1/ir2_expand_1/convolution/merged_input:0, %digit_recognizer_v16_1/ir2_exp_bn_1/batchnorm/sub:0)
  %digit_recognizer_v16_1/ir2_exp_relu6_1/Relu6:0 = Clip[quant_type = 'F32'](%Conv__145:0, %PPQ_Variable_3, %PPQ_Variable_15)
  %digit_recognizer_v16_1/ir2_dw_1/depthwise:0 = Conv[dilations = [1, 1], group = 96, kernel_shape = [3, 3], pads = [1, 1, 1, 1], quant_type = 'F32', strides = [1, 1]](%digit_recognizer_v16_1/ir2_exp_relu6_1/Relu6:0, %const_fold_opt__217)
  %PPQ_Variable_26 = Transpose[perm = [0, 3, 1, 2], quant_type = 'F32'](%digit_recognizer_v16_1/ir2_dw_1/depthwise:0)
  %digit_recognizer_v16_1/ir2_dw_bn_1/batchnorm/mul_1:0 = Mul[quant_type = 'F32'](%PPQ_Variable_26, %digit_recognizer_v16_1/ir2_dw_bn_1/batchnorm/mul:0)
  %digit_recognizer_v16_1/ir2_dw_bn_1/batchnorm/add_1:0 = Add[quant_type = 'F32'](%digit_recognizer_v16_1/ir2_dw_bn_1/batchnorm/mul_1:0, %const_fold_opt__224)
  %digit_recognizer_v16_1/ir2_dw_relu6_1/Relu6:0 = Clip[quant_type = 'F32'](%digit_recognizer_v16_1/ir2_dw_bn_1/batchnorm/add_1:0, %PPQ_Variable_4, %PPQ_Variable_16)
  %PPQ_Variable_27 = Transpose[perm = [0, 2, 3, 1], quant_type = 'F32'](%digit_recognizer_v16_1/ir2_dw_relu6_1/Relu6:0)
  %Conv__155:0 = Conv[dilations = [1, 1], group = 1, kernel_shape = [1, 1], pads = [0, 0, 0, 0], quant_type = 'F32', strides = [1, 1]](%PPQ_Variable_27, %digit_recognizer_v16_1/ir2_project_1/convolution/merged_input:0, %digit_recognizer_v16_1/ir2_proj_bn_1/batchnorm/sub:0)
  %digit_recognizer_v16_1/ir2_add_1/Add:0 = Add[quant_type = 'F32'](%Conv__139:0, %Conv__155:0)
  %Conv__157:0 = Conv[dilations = [1, 1], group = 1, kernel_shape = [1, 1], pads = [0, 0, 0, 0], quant_type = 'F32', strides = [1, 1]](%digit_recognizer_v16_1/ir2_add_1/Add:0, %digit_recognizer_v16_1/ir3_expand_1/convolution/merged_input:0, %digit_recognizer_v16_1/ir3_exp_bn_1/batchnorm/sub:0)
  %digit_recognizer_v16_1/ir3_exp_relu6_1/Relu6:0 = Clip[quant_type = 'F32'](%Conv__157:0, %PPQ_Variable_5, %PPQ_Variable_17)
  %digit_recognizer_v16_1/ir3_dw_1/depthwise:0 = Conv[dilations = [1, 1], group = 96, kernel_shape = [3, 3], pads = [0, 0, 1, 1], quant_type = 'F32', strides = [2, 2]](%digit_recognizer_v16_1/ir3_exp_relu6_1/Relu6:0, %const_fold_opt__216)
  %PPQ_Variable_28 = Transpose[perm = [0, 3, 1, 2], quant_type = 'F32'](%digit_recognizer_v16_1/ir3_dw_1/depthwise:0)
  %digit_recognizer_v16_1/ir3_dw_bn_1/batchnorm/mul_1:0 = Mul[quant_type = 'F32'](%PPQ_Variable_28, %digit_recognizer_v16_1/ir3_dw_bn_1/batchnorm/mul:0)
  %digit_recognizer_v16_1/ir3_dw_bn_1/batchnorm/add_1:0 = Add[quant_type = 'F32'](%digit_recognizer_v16_1/ir3_dw_bn_1/batchnorm/mul_1:0, %const_fold_opt__228)
  %digit_recognizer_v16_1/ir3_dw_relu6_1/Relu6:0 = Clip[quant_type = 'F32'](%digit_recognizer_v16_1/ir3_dw_bn_1/batchnorm/add_1:0, %PPQ_Variable_6, %PPQ_Variable_18)
  %PPQ_Variable_29 = Transpose[perm = [0, 2, 3, 1], quant_type = 'F32'](%digit_recognizer_v16_1/ir3_dw_relu6_1/Relu6:0)
  %Conv__167:0 = Conv[dilations = [1, 1], group = 1, kernel_shape = [1, 1], pads = [0, 0, 0, 0], quant_type = 'F32', strides = [1, 1]](%PPQ_Variable_29, %digit_recognizer_v16_1/ir3_project_1/convolution/merged_input:0, %digit_recognizer_v16_1/ir3_proj_bn_1/batchnorm/sub:0)
  %Conv__173:0 = Conv[dilations = [1, 1], group = 1, kernel_shape = [1, 1], pads = [0, 0, 0, 0], quant_type = 'F32', strides = [1, 1]](%Conv__167:0, %digit_recognizer_v16_1/ir4_expand_1/convolution/merged_input:0, %digit_recognizer_v16_1/ir4_exp_bn_1/batchnorm/sub:0)
  %digit_recognizer_v16_1/ir4_exp_relu6_1/Relu6:0 = Clip[quant_type = 'F32'](%Conv__173:0, %PPQ_Variable_7, %PPQ_Variable_19)
  %digit_recognizer_v16_1/ir4_dw_1/depthwise:0 = Conv[dilations = [1, 1], group = 240, kernel_shape = [3, 3], pads = [1, 1, 1, 1], quant_type = 'F32', strides = [1, 1]](%digit_recognizer_v16_1/ir4_exp_relu6_1/Relu6:0, %const_fold_opt__215)
  %PPQ_Variable_30 = Transpose[perm = [0, 3, 1, 2], quant_type = 'F32'](%digit_recognizer_v16_1/ir4_dw_1/depthwise:0)
  %digit_recognizer_v16_1/ir4_dw_bn_1/batchnorm/mul_1:0 = Mul[quant_type = 'F32'](%PPQ_Variable_30, %digit_recognizer_v16_1/ir4_dw_bn_1/batchnorm/mul:0)
  %digit_recognizer_v16_1/ir4_dw_bn_1/batchnorm/add_1:0 = Add[quant_type = 'F32'](%digit_recognizer_v16_1/ir4_dw_bn_1/batchnorm/mul_1:0, %const_fold_opt__225)
  %digit_recognizer_v16_1/ir4_dw_relu6_1/Relu6:0 = Clip[quant_type = 'F32'](%digit_recognizer_v16_1/ir4_dw_bn_1/batchnorm/add_1:0, %PPQ_Variable_8, %PPQ_Variable_20)
  %PPQ_Variable_31 = Transpose[perm = [0, 2, 3, 1], quant_type = 'F32'](%digit_recognizer_v16_1/ir4_dw_relu6_1/Relu6:0)
  %Conv__183:0 = Conv[dilations = [1, 1], group = 1, kernel_shape = [1, 1], pads = [0, 0, 0, 0], quant_type = 'F32', strides = [1, 1]](%PPQ_Variable_31, %digit_recognizer_v16_1/ir4_project_1/convolution/merged_input:0, %digit_recognizer_v16_1/ir4_proj_bn_1/batchnorm/sub:0)
  %digit_recognizer_v16_1/ir4_add_1/Add:0 = Add[quant_type = 'F32'](%Conv__167:0, %Conv__183:0)
  %Conv__185:0 = Conv[dilations = [1, 1], group = 1, kernel_shape = [1, 1], pads = [0, 0, 0, 0], quant_type = 'F32', strides = [1, 1]](%digit_recognizer_v16_1/ir4_add_1/Add:0, %digit_recognizer_v16_1/ir5_expand_1/convolution/merged_input:0, %digit_recognizer_v16_1/ir5_exp_bn_1/batchnorm/sub:0)
  %digit_recognizer_v16_1/ir5_exp_relu6_1/Relu6:0 = Clip[quant_type = 'F32'](%Conv__185:0, %PPQ_Variable_9, %PPQ_Variable_21)
  %digit_recognizer_v16_1/ir5_dw_1/depthwise:0 = Conv[dilations = [1, 1], group = 240, kernel_shape = [3, 3], pads = [1, 1, 1, 1], quant_type = 'F32', strides = [1, 1]](%digit_recognizer_v16_1/ir5_exp_relu6_1/Relu6:0, %const_fold_opt__213)
  %PPQ_Variable_32 = Transpose[perm = [0, 3, 1, 2], quant_type = 'F32'](%digit_recognizer_v16_1/ir5_dw_1/depthwise:0)
  %digit_recognizer_v16_1/ir5_dw_bn_1/batchnorm/mul_1:0 = Mul[quant_type = 'F32'](%PPQ_Variable_32, %digit_recognizer_v16_1/ir5_dw_bn_1/batchnorm/mul:0)
  %digit_recognizer_v16_1/ir5_dw_bn_1/batchnorm/add_1:0 = Add[quant_type = 'F32'](%digit_recognizer_v16_1/ir5_dw_bn_1/batchnorm/mul_1:0, %const_fold_opt__226)
  %digit_recognizer_v16_1/ir5_dw_relu6_1/Relu6:0 = Clip[quant_type = 'F32'](%digit_recognizer_v16_1/ir5_dw_bn_1/batchnorm/add_1:0, %PPQ_Variable_10, %PPQ_Variable_22)
  %PPQ_Variable_33 = Transpose[perm = [0, 2, 3, 1], quant_type = 'F32'](%digit_recognizer_v16_1/ir5_dw_relu6_1/Relu6:0)
  %Conv__195:0 = Conv[dilations = [1, 1], group = 1, kernel_shape = [1, 1], pads = [0, 0, 0, 0], quant_type = 'F32', strides = [1, 1]](%PPQ_Variable_33, %digit_recognizer_v16_1/ir5_project_1/convolution/merged_input:0, %digit_recognizer_v16_1/ir5_proj_bn_1/batchnorm/sub:0)
  %Conv__197:0 = Conv[dilations = [1, 1], group = 1, kernel_shape = [1, 1], pads = [0, 0, 0, 0], quant_type = 'F32', strides = [1, 1]](%Conv__195:0, %digit_recognizer_v16_1/head_conv_1/convolution/merged_input:0, %digit_recognizer_v16_1/head_bn_1/batchnorm/sub:0)
  %digit_recognizer_v16_1/head_relu6_1/Relu6:0 = Clip[quant_type = 'F32'](%Conv__197:0, %PPQ_Variable_11, %PPQ_Variable_23)
  %digit_recognizer_v16_1/gap_1/Mean:0 = GlobalAveragePool[quant_type = 'F32'](%digit_recognizer_v16_1/head_relu6_1/Relu6:0)
  %PPQ_Variable_34 = Transpose[perm = [0, 3, 1, 2], quant_type = 'F32'](%digit_recognizer_v16_1/gap_1/Mean:0)
  %digit_recognizer_v16_1/flatten_1/Reshape:0 = Reshape[quant_type = 'F32'](%PPQ_Variable_34, %digit_recognizer_v16_1/flatten_1/Reshape_shape__229)
  %digit_recognizer_v16_1/output_1/MatMul:0 = MatMul[quant_type = 'F32'](%digit_recognizer_v16_1/flatten_1/Reshape:0, %digit_recognizer_v16_1/output_1/Cast/ReadVariableOp:0)
  %digit_recognizer_v16_1/output_1/BiasAdd:0 = Add[quant_type = 'F32'](%digit_recognizer_v16_1/output_1/MatMul:0, %digit_recognizer_v16_1/output_1/BiasAdd/ReadVariableOp:0)
  %output = Softmax[quant_type = 'F32'](%digit_recognizer_v16_1/output_1/BiasAdd:0)
  return %output
}


initializers value:
%digit_recognizer_v16_1/entry_bn_1/batchnorm/sub:0, shape: [16], exponents: [0], docString: b'layout ==> UNK', 
value: array([ … dtype=float32)
%const_fold_opt__216, shape: [96, 1, 3, 3], exponents: [0], docString: b'layout ==> UNK', 
value: array([… dtype=float32)
%digit_recognizer_v16_1/ir3_proj_bn_1/batchnorm/sub:0, shape: [40], exponents: [0], docString: b'layout ==> UNK', 
value: array([ … dtype=float32)
%const_fold_opt__221, shape: [1, 64, 1, 1], exponents: [0], docString: b'layout ==> UNK', 
value: array([… dtype=float32)
%const_fold_opt__215, shape: [240, 1, 3, 3], exponents: [0], docString: b'layout ==> UNK', 
value: array([ … dtype=float32)
%digit_recognizer_v16_1/ir4_dw_bn_1/batchnorm/mul:0, shape: [1, 240, 1, 1], exponents: [0], docString: b'layout ==> UNK', 
value: array([… dtype=float32)
%digit_recognizer_v16_1/ir2_exp_bn_1/batchnorm/sub:0, shape: [96], exponents: [0], docString: b'layout ==> UNK', 
value: array([… dtype=float32)
%digit_recognizer_v16_1/ir1_project_1/convolution/merged_input:0, shape: [24, 64, 1, 1], exponents: [0], docString: b'layout ==> UNK', 
value: array([ … dtype=float32)
%digit_recognizer_v16_1/ir4_expand_1/convolution/merged_input:0, shape: [240, 40, 1, 1], exponents: [0], docString: b'layout ==> UNK', 
value: array([… dtype=float32)
%const_fold_opt__213, shape: [240, 1, 3, 3], exponents: [0], docString: b'layout ==> UNK', 
value: array([… dtype=float32)
%digit_recognizer_v16_1/entry_conv_1/convolution/merged_input:0, shape: [16, 3, 3, 3], exponents: [0], docString: b'layout ==> UNK', 
value: array([… dtype=float32)
%digit_recognizer_v16_1/ir4_exp_bn_1/batchnorm/sub:0, shape: [240], exponents: [0], docString: b'layout ==> UNK', 
value: array([… dtype=float32)
%digit_recognizer_v16_1/ir5_dw_bn_1/batchnorm/mul:0, shape: [1, 240, 1, 1], exponents: [0], docString: b'layout ==> UNK', 
value: array([… dtype=float32)
%digit_recognizer_v16_1/ir2_project_1/convolution/merged_input:0, shape: [24, 96, 1, 1], exponents: [0], docString: b'layout ==> UNK', 
value: array([ … dtype=float32)
%digit_recognizer_v16_1/ir5_project_1/convolution/merged_input:0, shape: [56, 240, 1, 1], exponents: [0], docString: b'layout ==> UNK', 
value: array([… dtype=float32)
%digit_recognizer_v16_1/ir1_expand_1/convolution/merged_input:0, shape: [64, 16, 1, 1], exponents: [0], docString: b'layout ==> UNK', 
value: array([ … dtype=float32)
%const_fold_opt__219, shape: [64, 1, 3, 3], exponents: [0], docString: b'layout ==> UNK', 
value: array([… dtype=float32)
%digit_recognizer_v16_1/ir4_proj_bn_1/batchnorm/sub:0, shape: [40], exponents: [0], docString: b'layout ==> UNK', 
value: array([… dtype=float32)
%digit_recognizer_v16_1/ir1_dw_bn_1/batchnorm/mul:0, shape: [1, 64, 1, 1], exponents: [0], docString: b'layout ==> UNK', 
value: array([… dtype=float32)
%digit_recognizer_v16_1/ir5_exp_bn_1/batchnorm/sub:0, shape: [240], exponents: [0], docString: b'layout ==> UNK', 
value: array([ … dtype=float32)
%digit_recognizer_v16_1/ir5_expand_1/convolution/merged_input:0, shape: [240, 40, 1, 1], exponents: [0], docString: b'layout ==> UNK', 
value: array([ … dtype=float32)
%digit_recognizer_v16_1/ir1_proj_bn_1/batchnorm/sub:0, shape: [24], exponents: [0], docString: b'layout ==> UNK', 
value: array([ … dtype=float32)
%digit_recognizer_v16_1/output_1/BiasAdd/ReadVariableOp:0, shape: [10], exponents: [0], docString: b'layout ==> UNK', 
value: array([ 0.07919648, -0.00639347, -0.03907972,  0.00575237, -0.09715509,
        0.00311057,  0.03469157,  0.03788051, -0.03471306, -0.13005254,
        0.        ,  0.        ], dtype=float32)
%digit_recognizer_v16_1/ir2_proj_bn_1/batchnorm/sub:0, shape: [24], exponents: [0], docString: b'layout ==> UNK', 
value: array([… dtype=float32)
%digit_recognizer_v16_1/output_1/Cast/ReadVariableOp:0, shape: [96, 10], exponents: [0], docString: b'layout ==> UNK', 
value: array([ … dtype=float32)
%digit_recognizer_v16_1/ir2_expand_1/convolution/merged_input:0, shape: [96, 24, 1, 1], exponents: [0], docString: b'layout ==> UNK', 
value: array([ … dtype=float32)
%digit_recognizer_v16_1/flatten_1/Reshape_shape__229, shape: [2], exponents: [0], docString: b'layout ==> UNK', 
value: array([-1, 96], dtype=int64)
%digit_recognizer_v16_1/ir3_project_1/convolution/merged_input:0, shape: [40, 96, 1, 1], exponents: [0], docString: b'layout ==> UNK', 
value: array([… dtype=float32)
%digit_recognizer_v16_1/ir3_expand_1/convolution/merged_input:0, shape: [96, 24, 1, 1], exponents: [0], docString: b'layout ==> UNK', 
value: array([… dtype=float32)
%digit_recognizer_v16_1/ir5_proj_bn_1/batchnorm/sub:0, shape: [56], exponents: [0], docString: b'layout ==> UNK', 
value: array([… dtype=float32)
%digit_recognizer_v16_1/ir2_dw_bn_1/batchnorm/mul:0, shape: [1, 96, 1, 1], exponents: [0], docString: b'layout ==> UNK', 
value: array([… dtype=float32)
%const_fold_opt__217, shape: [96, 1, 3, 3], exponents: [0], docString: b'layout ==> UNK', 
value: array([… dtype=float32)
%digit_recognizer_v16_1/head_conv_1/convolution/merged_input:0, shape: [96, 56, 1, 1], exponents: [0], docString: b'layout ==> UNK', 
value: array([… dtype=float32)
%digit_recognizer_v16_1/head_bn_1/batchnorm/sub:0, shape: [96], exponents: [0], docString: b'layout ==> UNK', 
value: array([… dtype=float32)
%const_fold_opt__228, shape: [1, 96, 1, 1], exponents: [0], docString: b'layout ==> UNK', 
value: array([ … dtype=float32)
%const_fold_opt__225, shape: [1, 240, 1, 1], exponents: [0], docString: b'layout ==> UNK', 
value: array([ … dtype=float32)
%digit_recognizer_v16_1/ir4_project_1/convolution/merged_input:0, shape: [40, 240, 1, 1], exponents: [0], docString: b'layout ==> UNK', 
value: array([… dtype=float32)
%const_fold_opt__224, shape: [1, 96, 1, 1], exponents: [0], docString: b'layout ==> UNK', 
value: array([ … dtype=float32)
%digit_recognizer_v16_1/ir3_exp_bn_1/batchnorm/sub:0, shape: [96], exponents: [0], docString: b'layout ==> UNK', 
value: array([ … dtype=float32)
%const_fold_opt__226, shape: [1, 240, 1, 1], exponents: [0], docString: b'layout ==> UNK', 
value: array([… dtype=float32)
%digit_recognizer_v16_1/ir3_dw_bn_1/batchnorm/mul:0, shape: [1, 96, 1, 1], exponents: [0], docString: b'layout ==> UNK', 
value: array([… dtype=float32)
%digit_recognizer_v16_1/ir1_exp_bn_1/batchnorm/sub:0, shape: [64], exponents: [0], docString: b'layout ==> UNK', 
value: array([… dtype=float32)
%PPQ_Variable_0, shape: [1], exponents: [0], docString: b'layout ==> UNK', 
value: array([0., 0., 0., 0.], dtype=float32)
%PPQ_Variable_1, shape: [1], exponents: [0], docString: b'layout ==> UNK', 
value: array([0., 0., 0., 0.], dtype=float32)
%PPQ_Variable_2, shape: [1], exponents: [0], docString: b'layout ==> UNK', 
value: array([0., 0., 0., 0.], dtype=float32)
%PPQ_Variable_3, shape: [1], exponents: [0], docString: b'layout ==> UNK', 
value: array([0., 0., 0., 0.], dtype=float32)
%PPQ_Variable_4, shape: [1], exponents: [0], docString: b'layout ==> UNK', 
value: array([0., 0., 0., 0.], dtype=float32)
%PPQ_Variable_5, shape: [1], exponents: [0], docString: b'layout ==> UNK', 
value: array([0., 0., 0., 0.], dtype=float32)
%PPQ_Variable_6, shape: [1], exponents: [0], docString: b'layout ==> UNK', 
value: array([0., 0., 0., 0.], dtype=float32)
%PPQ_Variable_7, shape: [1], exponents: [0], docString: b'layout ==> UNK', 
value: array([0., 0., 0., 0.], dtype=float32)
%PPQ_Variable_8, shape: [1], exponents: [0], docString: b'layout ==> UNK', 
value: array([0., 0., 0., 0.], dtype=float32)
%PPQ_Variable_9, shape: [1], exponents: [0], docString: b'layout ==> UNK', 
value: array([0., 0., 0., 0.], dtype=float32)
%PPQ_Variable_10, shape: [1], exponents: [0], docString: b'layout ==> UNK', 
value: array([0., 0., 0., 0.], dtype=float32)
%PPQ_Variable_11, shape: [1], exponents: [0], docString: b'layout ==> UNK', 
value: array([0., 0., 0., 0.], dtype=float32)
%PPQ_Variable_12, shape: [1], exponents: [0], docString: b'layout ==> UNK', 
value: array([6., 0., 0., 0.], dtype=float32)
%PPQ_Variable_13, shape: [1], exponents: [0], docString: b'layout ==> UNK', 
value: array([6., 0., 0., 0.], dtype=float32)
%PPQ_Variable_14, shape: [1], exponents: [0], docString: b'layout ==> UNK', 
value: array([6., 0., 0., 0.], dtype=float32)
%PPQ_Variable_15, shape: [1], exponents: [0], docString: b'layout ==> UNK', 
value: array([6., 0., 0., 0.], dtype=float32)
%PPQ_Variable_16, shape: [1], exponents: [0], docString: b'layout ==> UNK', 
value: array([6., 0., 0., 0.], dtype=float32)
%PPQ_Variable_17, shape: [1], exponents: [0], docString: b'layout ==> UNK', 
value: array([6., 0., 0., 0.], dtype=float32)
%PPQ_Variable_18, shape: [1], exponents: [0], docString: b'layout ==> UNK', 
value: array([6., 0., 0., 0.], dtype=float32)
%PPQ_Variable_19, shape: [1], exponents: [0], docString: b'layout ==> UNK', 
value: array([6., 0., 0., 0.], dtype=float32)
%PPQ_Variable_20, shape: [1], exponents: [0], docString: b'layout ==> UNK', 
value: array([6., 0., 0., 0.], dtype=float32)
%PPQ_Variable_21, shape: [1], exponents: [0], docString: b'layout ==> UNK', 
value: array([6., 0., 0., 0.], dtype=float32)
%PPQ_Variable_22, shape: [1], exponents: [0], docString: b'layout ==> UNK', 
value: array([6., 0., 0., 0.], dtype=float32)
%PPQ_Variable_23, shape: [1], exponents: [0], docString: b'layout ==> UNK', 
value: array([6., 0., 0., 0.], dtype=float32)


values info:
%digit_recognizer_v16_1/ir3_dw_relu6_1/Relu6:0[FLOAT, 1x96x8x5], exponents: [0]
%digit_recognizer_v16_1/output_1/MatMul:0[FLOAT, 1x10], exponents: [0]
%digit_recognizer_v16_1/ir5_exp_relu6_1/Relu6:0[FLOAT, 1x8x5x240], exponents: [0]
%Conv__129:0[FLOAT, 1x32x20x64], exponents: [0]
%digit_recognizer_v16_1/ir3_dw_1/depthwise:0[FLOAT, 1x8x5x96], exponents: [0]
%digit_recognizer_v16_1/ir1_dw_bn_1/batchnorm/mul_1:0[FLOAT, 1x64x16x10], exponents: [0]
%digit_recognizer_v16_1/ir5_dw_1/depthwise:0[FLOAT, 1x8x5x240], exponents: [0]
%digit_recognizer_v16_1/ir4_dw_relu6_1/Relu6:0[FLOAT, 1x240x8x5], exponents: [0]
%digit_recognizer_v16_1/ir3_dw_bn_1/batchnorm/mul_1:0[FLOAT, 1x96x8x5], exponents: [0]
%Conv__185:0[FLOAT, 1x8x5x240], exponents: [0]
%Conv__183:0[FLOAT, 1x8x5x40], exponents: [0]
%digit_recognizer_v16_1/ir2_dw_bn_1/batchnorm/mul_1:0[FLOAT, 1x96x16x10], exponents: [0]
%Conv__173:0[FLOAT, 1x8x5x240], exponents: [0]
%digit_recognizer_v16_1/ir1_exp_relu6_1/Relu6:0[FLOAT, 1x32x20x64], exponents: [0]
%Conv__139:0[FLOAT, 1x16x10x24], exponents: [0]
%Conv__195:0[FLOAT, 1x8x5x56], exponents: [0]
%Conv__157:0[FLOAT, 1x16x10x96], exponents: [0]
%digit_recognizer_v16_1/ir1_dw_bn_1/batchnorm/add_1:0[FLOAT, 1x64x16x10], exponents: [0]
%digit_recognizer_v16_1/ir2_dw_1/depthwise:0[FLOAT, 1x16x10x96], exponents: [0]
%digit_recognizer_v16_1/ir5_dw_bn_1/batchnorm/add_1:0[FLOAT, 1x240x8x5], exponents: [0]
%output[FLOAT, 1x10], exponents: [0]
%digit_recognizer_v16_1/head_relu6_1/Relu6:0[FLOAT, 1x8x5x96], exponents: [0]
%digit_recognizer_v16_1/flatten_1/Reshape:0[FLOAT, 1x96], exponents: [0]
%Conv__167:0[FLOAT, 1x8x5x40], exponents: [0]
%input[FLOAT, 1x32x20x3], exponents: [0]
%digit_recognizer_v16_1/ir4_dw_bn_1/batchnorm/mul_1:0[FLOAT, 1x240x8x5], exponents: [0]
%digit_recognizer_v16_1/ir4_dw_1/depthwise:0[FLOAT, 1x8x5x240], exponents: [0]
%digit_recognizer_v16_1/ir4_dw_bn_1/batchnorm/add_1:0[FLOAT, 1x240x8x5], exponents: [0]
%digit_recognizer_v16_1/ir2_exp_relu6_1/Relu6:0[FLOAT, 1x16x10x96], exponents: [0]
%Conv__155:0[FLOAT, 1x16x10x24], exponents: [0]
%digit_recognizer_v16_1/ir1_dw_1/depthwise:0[FLOAT, 1x16x10x64], exponents: [0]
%digit_recognizer_v16_1/ir1_dw_relu6_1/Relu6:0[FLOAT, 1x64x16x10], exponents: [0]
%digit_recognizer_v16_1/ir2_add_1/Add:0[FLOAT, 1x16x10x24], exponents: [0]
%digit_recognizer_v16_1/ir4_add_1/Add:0[FLOAT, 1x8x5x40], exponents: [0]
%digit_recognizer_v16_1/gap_1/Mean:0[FLOAT, 1x1x1x96], exponents: [0]
%digit_recognizer_v16_1/ir3_dw_bn_1/batchnorm/add_1:0[FLOAT, 1x96x8x5], exponents: [0]
%digit_recognizer_v16_1/ir2_dw_bn_1/batchnorm/add_1:0[FLOAT, 1x96x16x10], exponents: [0]
%digit_recognizer_v16_1/ir3_exp_relu6_1/Relu6:0[FLOAT, 1x16x10x96], exponents: [0]
%Conv__127:0[FLOAT, 1x32x20x16], exponents: [0]
%digit_recognizer_v16_1/ir5_dw_relu6_1/Relu6:0[FLOAT, 1x240x8x5], exponents: [0]
%Conv__197:0[FLOAT, 1x8x5x96], exponents: [0]
%digit_recognizer_v16_1/entry_relu6_1/Relu6:0[FLOAT, 1x32x20x16], exponents: [0]
%Conv__145:0[FLOAT, 1x16x10x96], exponents: [0]
%digit_recognizer_v16_1/ir5_dw_bn_1/batchnorm/mul_1:0[FLOAT, 1x240x8x5], exponents: [0]
%digit_recognizer_v16_1/output_1/BiasAdd:0[FLOAT, 1x10], exponents: [0]
%digit_recognizer_v16_1/ir4_exp_relu6_1/Relu6:0[FLOAT, 1x8x5x240], exponents: [0]
%digit_recognizer_v16_1/ir2_dw_relu6_1/Relu6:0[FLOAT, 1x96x16x10], exponents: [0]
%PPQ_Variable_24[FLOAT, 1x10x64x16], exponents: [0]
%PPQ_Variable_25[FLOAT, 1x16x10x64], exponents: [0]
%PPQ_Variable_26[FLOAT, 1x10x96x16], exponents: [0]
%PPQ_Variable_27[FLOAT, 1x16x10x96], exponents: [0]
%PPQ_Variable_28[FLOAT, 1x5x96x8], exponents: [0]
%PPQ_Variable_29[FLOAT, 1x8x5x96], exponents: [0]
%PPQ_Variable_30[FLOAT, 1x5x240x8], exponents: [0]
%PPQ_Variable_31[FLOAT, 1x8x5x240], exponents: [0]
%PPQ_Variable_32[FLOAT, 1x5x240x8], exponents: [0]
%PPQ_Variable_33[FLOAT, 1x8x5x240], exponents: [0]
%PPQ_Variable_34[FLOAT, 1x1x96x1], exponents: [0]


test inputs value:



test outputs value:
