Model: "sequential"
+--------------------------------------------------------------------------------------+
| Layer (type)                         | Output Shape                |         Param # |
|--------------------------------------+-----------------------------+-----------------|
| conv1 (Conv2D)                       | (None, 32, 20, 32)          |             320 |
|--------------------------------------+-----------------------------+-----------------|
| relu6_1 (ReLU)                       | (None, 32, 20, 32)          |               0 |
|--------------------------------------+-----------------------------+-----------------|
| pool1 (MaxPooling2D)                 | (None, 16, 10, 32)          |               0 |
|--------------------------------------+-----------------------------+-----------------|
| conv2 (Conv2D)                       | (None, 16, 10, 64)          |          18,496 |
|--------------------------------------+-----------------------------+-----------------|
| relu6_2 (ReLU)                       | (None, 16, 10, 64)          |               0 |
|--------------------------------------+-----------------------------+-----------------|
| pool2 (MaxPooling2D)                 | (None, 8, 5, 64)            |               0 |
|--------------------------------------+-----------------------------+-----------------|
| conv3 (Conv2D)                       | (None, 8, 5, 64)            |          36,928 |
|--------------------------------------+-----------------------------+-----------------|
| relu6_3 (ReLU)                       | (None, 8, 5, 64)            |               0 |
|--------------------------------------+-----------------------------+-----------------|
| global_avg_pool                      | (None, 64)                  |               0 |
| (GlobalAveragePooling2D)             |                             |                 |
|--------------------------------------+-----------------------------+-----------------|
| output (Dense)                       | (None, 100)                 |           6,500 |
+--------------------------------------------------------------------------------------+
 Total params: 62,244 (243.14 KB)
 Trainable params: 62,244 (243.14 KB)
 Non-trainable params: 0 (0.00 B)

