model properties:
metadata_props:


graph tf2onnx (
  %input[FLOAT, 1x3x32x20], exponents: [0]
) initializers (
  %digit_recognizer_v24_adaptive_1/conv2_36f_1/Squeeze:0[FLOAT, 36]
  %digit_recognizer_v24_adaptive_1/luminance_grayscale_1/mul_2/x:0[FLOAT, 1]
  %digit_recognizer_v24_adaptive_1/adaptive_contrast_1/Less/y:0[FLOAT, 1]
  %digit_recognizer_v24_adaptive_1/conv3_48f_1/Squeeze:0[FLOAT, 48]
  %digit_recognizer_v24_adaptive_1/adaptive_contrast_1/Maximum/ReadVariableOp:0[FLOAT, 1]
  %digit_recognizer_v24_adaptive_1/conv2_36f_1/convolution/ReadVariableOp:0[FLOAT, 36x20x3x3]
  %new_shape__86[INT64, 4]
  %const_ends__9[INT64, 1]
  %const_fold_opt__91[FLOAT, 1x1x1x1]
  %digit_recognizer_v24_adaptive_1/output_1/BiasAdd/ReadVariableOp:0[FLOAT, 10]
  %digit_recognizer_v24_adaptive_1/feature_dense_1/Cast/ReadVariableOp:0[FLOAT, 56x64]
  %digit_recognizer_v24_adaptive_1/luminance_grayscale_1/mul/x:0[FLOAT, 1]
  %const_starts__14[INT64, 1]
  %digit_recognizer_v24_adaptive_1/luminance_grayscale_1/mul_1/x:0[FLOAT, 1]
  %digit_recognizer_v24_adaptive_1/conv4_56f_1/convolution/ReadVariableOp:0[FLOAT, 56x48x3x3]
  %const_axes__92[INT64, 2]
  %digit_recognizer_v24_adaptive_1/conv4_56f_1/Squeeze:0[FLOAT, 56]
  %digit_recognizer_v24_adaptive_1/adaptive_contrast_1/sub_1/x:0[FLOAT, 1]
  %digit_recognizer_v24_adaptive_1/output_1/Cast/ReadVariableOp:0[FLOAT, 64x10]
  %digit_recognizer_v24_adaptive_1/conv1_20f_1/convolution/ReadVariableOp:0[FLOAT, 20x1x3x3]
  %digit_recognizer_v24_adaptive_1/feature_dense_1/BiasAdd/ReadVariableOp:0[FLOAT, 64]
  %digit_recognizer_v24_adaptive_1/conv1_20f_1/Squeeze:0[FLOAT, 20]
  %digit_recognizer_v24_adaptive_1/conv3_48f_1/convolution/ReadVariableOp:0[FLOAT, 48x36x3x3]
  %PPQ_Variable_0[INT64, 4]
  %PPQ_Variable_1[INT64, 4]
  %PPQ_Variable_2[INT64, 1]
  %PPQ_Variable_3[INT64, 1]
  %PPQ_Variable_4[FLOAT, 1]
  %PPQ_Variable_5[FLOAT, 1]
  %PPQ_Variable_6[FLOAT, 1]
  %PPQ_Variable_7[FLOAT, 1]
  %PPQ_Variable_8[FLOAT, 1]
  %PPQ_Variable_9[INT64, 1]
  %PPQ_Variable_10[INT64, 1]
  %PPQ_Variable_11[INT64, 1]
  %PPQ_Variable_12[INT64, 1]
  %PPQ_Variable_13[INT64, 1]
  %PPQ_Variable_14[FLOAT, 1]
  %PPQ_Variable_15[FLOAT, 1]
  %PPQ_Variable_16[FLOAT, 1]
  %PPQ_Variable_17[FLOAT, 1]
  %PPQ_Variable_18[FLOAT, 1]
  %PPQ_Variable_19[INT64, 3]
  %PPQ_Variable_20[INT64, 3]
  %PPQ_Variable_21[INT64, 3]
) {
  %digit_recognizer_v24_adaptive_1/luminance_grayscale_1/strided_slice:0 = Slice[quant_type = 'F32'](%input, %const_starts__14, %PPQ_Variable_9, %PPQ_Variable_10)
  %digit_recognizer_v24_adaptive_1/luminance_grayscale_1/strided_slice_2:0 = Slice[quant_type = 'F32'](%input, %PPQ_Variable_2, %const_ends__9, %PPQ_Variable_11)
  %digit_recognizer_v24_adaptive_1/luminance_grayscale_1/strided_slice_1:0 = Slice[quant_type = 'F32'](%input, %PPQ_Variable_12, %PPQ_Variable_3, %PPQ_Variable_13)
  %digit_recognizer_v24_adaptive_1/luminance_grayscale_1/mul:0 = Mul[quant_type = 'F32'](%digit_recognizer_v24_adaptive_1/luminance_grayscale_1/mul/x:0, %digit_recognizer_v24_adaptive_1/luminance_grayscale_1/strided_slice:0)
  %digit_recognizer_v24_adaptive_1/luminance_grayscale_1/mul_2:0 = Mul[quant_type = 'F32'](%digit_recognizer_v24_adaptive_1/luminance_grayscale_1/mul_2/x:0, %digit_recognizer_v24_adaptive_1/luminance_grayscale_1/strided_slice_2:0)
  %digit_recognizer_v24_adaptive_1/luminance_grayscale_1/mul_1:0 = Mul[quant_type = 'F32'](%digit_recognizer_v24_adaptive_1/luminance_grayscale_1/mul_1/x:0, %digit_recognizer_v24_adaptive_1/luminance_grayscale_1/strided_slice_1:0)
  %digit_recognizer_v24_adaptive_1/luminance_grayscale_1/add:0 = Add[quant_type = 'F32'](%digit_recognizer_v24_adaptive_1/luminance_grayscale_1/mul:0, %digit_recognizer_v24_adaptive_1/luminance_grayscale_1/mul_1:0)
  %digit_recognizer_v24_adaptive_1/luminance_grayscale_1/add_1:0 = Add[quant_type = 'F32'](%digit_recognizer_v24_adaptive_1/luminance_grayscale_1/add:0, %digit_recognizer_v24_adaptive_1/luminance_grayscale_1/mul_2:0)
  %digit_recognizer_v24_adaptive_1/adaptive_contrast_1/sub:0 = Sub[quant_type = 'F32'](%const_fold_opt__91, %digit_recognizer_v24_adaptive_1/luminance_grayscale_1/add_1:0)
  %digit_recognizer_v24_adaptive_1/adaptive_contrast_1/Mean:0 = ReduceMean[keepdims = 1, quant_type = 'F32'](%digit_recognizer_v24_adaptive_1/luminance_grayscale_1/add_1:0, %PPQ_Variable_19)
  %Transpose__75:0 = Reshape[quant_type = 'F32'](%digit_recognizer_v24_adaptive_1/luminance_grayscale_1/add_1:0, %PPQ_Variable_1)
  %Transpose__83:0 = Reshape[quant_type = 'F32'](%digit_recognizer_v24_adaptive_1/adaptive_contrast_1/sub:0, %PPQ_Variable_0)
  %digit_recognizer_v24_adaptive_1/adaptive_contrast_1/Less:0 = Less[quant_type = 'F32'](%digit_recognizer_v24_adaptive_1/adaptive_contrast_1/Mean:0, %digit_recognizer_v24_adaptive_1/adaptive_contrast_1/Less/y:0)
  %digit_recognizer_v24_adaptive_1/adaptive_contrast_1/Cast:0 = Cast[quant_type = 'F32', to = 1](%digit_recognizer_v24_adaptive_1/adaptive_contrast_1/Less:0)
  %digit_recognizer_v24_adaptive_1/adaptive_contrast_1/sub_1:0 = Sub[quant_type = 'F32'](%digit_recognizer_v24_adaptive_1/adaptive_contrast_1/sub_1/x:0, %digit_recognizer_v24_adaptive_1/adaptive_contrast_1/Cast:0)
  %digit_recognizer_v24_adaptive_1/adaptive_contrast_1/mul_1:0 = Mul[quant_type = 'F32'](%digit_recognizer_v24_adaptive_1/adaptive_contrast_1/Cast:0, %Transpose__83:0)
  %digit_recognizer_v24_adaptive_1/adaptive_contrast_1/mul:0 = Mul[quant_type = 'F32'](%digit_recognizer_v24_adaptive_1/adaptive_contrast_1/sub_1:0, %Transpose__75:0)
  %digit_recognizer_v24_adaptive_1/adaptive_contrast_1/add:0 = Add[quant_type = 'F32'](%digit_recognizer_v24_adaptive_1/adaptive_contrast_1/mul:0, %digit_recognizer_v24_adaptive_1/adaptive_contrast_1/mul_1:0)
  %digit_recognizer_v24_adaptive_1/adaptive_contrast_1/Min:0 = ReduceMin[keepdims = 1, quant_type = 'F32'](%digit_recognizer_v24_adaptive_1/adaptive_contrast_1/add:0, %PPQ_Variable_20)
  %digit_recognizer_v24_adaptive_1/adaptive_contrast_1/Max:0 = ReduceMax[keepdims = 1, quant_type = 'F32'](%digit_recognizer_v24_adaptive_1/adaptive_contrast_1/add:0, %PPQ_Variable_21)
  %digit_recognizer_v24_adaptive_1/adaptive_contrast_1/sub_3:0 = Sub[quant_type = 'F32'](%digit_recognizer_v24_adaptive_1/adaptive_contrast_1/add:0, %digit_recognizer_v24_adaptive_1/adaptive_contrast_1/Min:0)
  %digit_recognizer_v24_adaptive_1/adaptive_contrast_1/sub_2:0 = Sub[quant_type = 'F32'](%digit_recognizer_v24_adaptive_1/adaptive_contrast_1/Max:0, %digit_recognizer_v24_adaptive_1/adaptive_contrast_1/Min:0)
  %digit_recognizer_v24_adaptive_1/adaptive_contrast_1/Maximum:0 = Max[quant_type = 'F32'](%digit_recognizer_v24_adaptive_1/adaptive_contrast_1/sub_2:0, %digit_recognizer_v24_adaptive_1/adaptive_contrast_1/Maximum/ReadVariableOp:0)
  %digit_recognizer_v24_adaptive_1/adaptive_contrast_1/truediv:0 = Div[quant_type = 'F32'](%digit_recognizer_v24_adaptive_1/adaptive_contrast_1/sub_3:0, %digit_recognizer_v24_adaptive_1/adaptive_contrast_1/Maximum:0)
  %digit_recognizer_v24_adaptive_1/conv1_20f_1/BiasAdd__17:0 = Reshape[quant_type = 'F32'](%digit_recognizer_v24_adaptive_1/adaptive_contrast_1/truediv:0, %new_shape__86)
  %PPQ_Variable_22 = Transpose[perm = [0, 2, 3, 1], quant_type = 'F32'](%digit_recognizer_v24_adaptive_1/conv1_20f_1/BiasAdd__17:0)
  %digit_recognizer_v24_adaptive_1/conv1_20f_1/BiasAdd:0 = Conv[dilations = [1, 1], group = 1, kernel_shape = [3, 3], pads = [1, 1, 1, 1], quant_type = 'F32', strides = [1, 1]](%PPQ_Variable_22, %digit_recognizer_v24_adaptive_1/conv1_20f_1/convolution/ReadVariableOp:0, %digit_recognizer_v24_adaptive_1/conv1_20f_1/Squeeze:0)
  %digit_recognizer_v24_adaptive_1/relu6_1_1/Relu6:0 = Clip[quant_type = 'F32'](%digit_recognizer_v24_adaptive_1/conv1_20f_1/BiasAdd:0, %PPQ_Variable_14, %PPQ_Variable_4)
  %digit_recognizer_v24_adaptive_1/pool1_1/MaxPool2d:0 = MaxPool[kernel_shape = [2, 2], quant_type = 'F32', strides = [2, 2]](%digit_recognizer_v24_adaptive_1/relu6_1_1/Relu6:0)
  %digit_recognizer_v24_adaptive_1/conv2_36f_1/BiasAdd:0 = Conv[dilations = [1, 1], group = 1, kernel_shape = [3, 3], pads = [1, 1, 1, 1], quant_type = 'F32', strides = [1, 1]](%digit_recognizer_v24_adaptive_1/pool1_1/MaxPool2d:0, %digit_recognizer_v24_adaptive_1/conv2_36f_1/convolution/ReadVariableOp:0, %digit_recognizer_v24_adaptive_1/conv2_36f_1/Squeeze:0)
  %digit_recognizer_v24_adaptive_1/relu6_2_1/Relu6:0 = Clip[quant_type = 'F32'](%digit_recognizer_v24_adaptive_1/conv2_36f_1/BiasAdd:0, %PPQ_Variable_15, %PPQ_Variable_5)
  %digit_recognizer_v24_adaptive_1/pool2_1/MaxPool2d:0 = MaxPool[kernel_shape = [2, 2], quant_type = 'F32', strides = [2, 2]](%digit_recognizer_v24_adaptive_1/relu6_2_1/Relu6:0)
  %digit_recognizer_v24_adaptive_1/conv3_48f_1/BiasAdd:0 = Conv[dilations = [1, 1], group = 1, kernel_shape = [3, 3], pads = [1, 1, 1, 1], quant_type = 'F32', strides = [1, 1]](%digit_recognizer_v24_adaptive_1/pool2_1/MaxPool2d:0, %digit_recognizer_v24_adaptive_1/conv3_48f_1/convolution/ReadVariableOp:0, %digit_recognizer_v24_adaptive_1/conv3_48f_1/Squeeze:0)
  %digit_recognizer_v24_adaptive_1/relu6_3_1/Relu6:0 = Clip[quant_type = 'F32'](%digit_recognizer_v24_adaptive_1/conv3_48f_1/BiasAdd:0, %PPQ_Variable_16, %PPQ_Variable_6)
  %digit_recognizer_v24_adaptive_1/conv4_56f_1/BiasAdd:0 = Conv[dilations = [1, 1], group = 1, kernel_shape = [3, 3], pads = [1, 1, 1, 1], quant_type = 'F32', strides = [1, 1]](%digit_recognizer_v24_adaptive_1/relu6_3_1/Relu6:0, %digit_recognizer_v24_adaptive_1/conv4_56f_1/convolution/ReadVariableOp:0, %digit_recognizer_v24_adaptive_1/conv4_56f_1/Squeeze:0)
  %digit_recognizer_v24_adaptive_1/relu6_4_1/Relu6:0 = Clip[quant_type = 'F32'](%digit_recognizer_v24_adaptive_1/conv4_56f_1/BiasAdd:0, %PPQ_Variable_17, %PPQ_Variable_7)
  %digit_recognizer_v24_adaptive_1/global_avg_pool_1/Mean:0 = GlobalAveragePool[quant_type = 'F32'](%digit_recognizer_v24_adaptive_1/relu6_4_1/Relu6:0)
  %PPQ_Variable_23 = Transpose[perm = [0, 3, 1, 2], quant_type = 'F32'](%digit_recognizer_v24_adaptive_1/global_avg_pool_1/Mean:0)
  %digit_recognizer_v24_adaptive_1/global_avg_pool_1/Mean_Squeeze__93:0 = Squeeze[quant_type = 'F32'](%PPQ_Variable_23, %const_axes__92)
  %digit_recognizer_v24_adaptive_1/feature_dense_1/MatMul:0 = MatMul[quant_type = 'F32'](%digit_recognizer_v24_adaptive_1/global_avg_pool_1/Mean_Squeeze__93:0, %digit_recognizer_v24_adaptive_1/feature_dense_1/Cast/ReadVariableOp:0)
  %digit_recognizer_v24_adaptive_1/feature_dense_1/BiasAdd:0 = Add[quant_type = 'F32'](%digit_recognizer_v24_adaptive_1/feature_dense_1/MatMul:0, %digit_recognizer_v24_adaptive_1/feature_dense_1/BiasAdd/ReadVariableOp:0)
  %digit_recognizer_v24_adaptive_1/relu6_dense_1/Relu6:0 = Clip[quant_type = 'F32'](%digit_recognizer_v24_adaptive_1/feature_dense_1/BiasAdd:0, %PPQ_Variable_18, %PPQ_Variable_8)
  %digit_recognizer_v24_adaptive_1/output_1/MatMul:0 = MatMul[quant_type = 'F32'](%digit_recognizer_v24_adaptive_1/relu6_dense_1/Relu6:0, %digit_recognizer_v24_adaptive_1/output_1/Cast/ReadVariableOp:0)
  %digit_recognizer_v24_adaptive_1/output_1/BiasAdd:0 = Add[quant_type = 'F32'](%digit_recognizer_v24_adaptive_1/output_1/MatMul:0, %digit_recognizer_v24_adaptive_1/output_1/BiasAdd/ReadVariableOp:0)
  %output = Softmax[quant_type = 'F32'](%digit_recognizer_v24_adaptive_1/output_1/BiasAdd:0)
  return %output
}


initializers value:
%digit_recognizer_v24_adaptive_1/conv2_36f_1/Squeeze:0, shape: [36], exponents: [0], docString: b'layout ==> UNK', 
value: array([ … dtype=float32)
%digit_recognizer_v24_adaptive_1/luminance_grayscale_1/mul_2/x:0, shape: [1], exponents: [0], docString: b'layout ==> UNK', 
value: array([0.114, 0.   , 0.   , 0.   ], dtype=float32)
%digit_recognizer_v24_adaptive_1/adaptive_contrast_1/Less/y:0, shape: [1], exponents: [0], docString: b'layout ==> UNK', 
value: array([0.5, 0. , 0. , 0. ], dtype=float32)
%digit_recognizer_v24_adaptive_1/conv3_48f_1/Squeeze:0, shape: [48], exponents: [0], docString: b'layout ==> UNK', 
value: array([ … dtype=float32)
%digit_recognizer_v24_adaptive_1/adaptive_contrast_1/Maximum/ReadVariableOp:0, shape: [1], exponents: [0], docString: b'layout ==> UNK', 
value: array([0.01, 0.  , 0.  , 0.  ], dtype=float32)
%digit_recognizer_v24_adaptive_1/conv2_36f_1/convolution/ReadVariableOp:0, shape: [36, 20, 3, 3], exponents: [0], docString: b'layout ==> UNK', 
value: array([… dtype=float32)
%new_shape__86, shape: [4], exponents: [0], docString: b'layout ==> UNK', 
value: array([-1,  1, 32, 20], dtype=int64)
%const_ends__9, shape: [1], exponents: [0], docString: b'layout ==> UNK', 
value: array([3, 0], dtype=int64)
%const_fold_opt__91, shape: [1, 1, 1, 1], exponents: [0], docString: b'layout ==> UNK', 
value: array([1., 0., 0., 0.], dtype=float32)
%digit_recognizer_v24_adaptive_1/output_1/BiasAdd/ReadVariableOp:0, shape: [10], exponents: [0], docString: b'layout ==> UNK', 
value: array([ 0.46115294, -0.06695592, -0.08424442,  0.51076686,  0.2168132 ,
       -0.2638602 ,  0.25802174, -0.15425466, -0.802481  , -0.09856979,
        0.        ,  0.        ], dtype=float32)
%digit_recognizer_v24_adaptive_1/feature_dense_1/Cast/ReadVariableOp:0, shape: [56, 64], exponents: [0], docString: b'layout ==> UNK', 
value: array([… dtype=float32)
%digit_recognizer_v24_adaptive_1/luminance_grayscale_1/mul/x:0, shape: [1], exponents: [0], docString: b'layout ==> UNK', 
value: array([0.299, 0.   , 0.   , 0.   ], dtype=float32)
%const_starts__14, shape: [1], exponents: [0], docString: b'layout ==> UNK', 
value: array([0, 0], dtype=int64)
%digit_recognizer_v24_adaptive_1/luminance_grayscale_1/mul_1/x:0, shape: [1], exponents: [0], docString: b'layout ==> UNK', 
value: array([0.587, 0.   , 0.   , 0.   ], dtype=float32)
%digit_recognizer_v24_adaptive_1/conv4_56f_1/convolution/ReadVariableOp:0, shape: [56, 48, 3, 3], exponents: [0], docString: b'layout ==> UNK', 
value: array([ … dtype=float32)
%const_axes__92, shape: [2], exponents: [0], docString: b'layout ==> UNK', 
value: array([2, 3], dtype=int64)
%digit_recognizer_v24_adaptive_1/conv4_56f_1/Squeeze:0, shape: [56], exponents: [0], docString: b'layout ==> UNK', 
value: array([… dtype=float32)
%digit_recognizer_v24_adaptive_1/adaptive_contrast_1/sub_1/x:0, shape: [1], exponents: [0], docString: b'layout ==> UNK', 
value: array([1., 0., 0., 0.], dtype=float32)
%digit_recognizer_v24_adaptive_1/output_1/Cast/ReadVariableOp:0, shape: [64, 10], exponents: [0], docString: b'layout ==> UNK', 
value: array([ … dtype=float32)
%digit_recognizer_v24_adaptive_1/conv1_20f_1/convolution/ReadVariableOp:0, shape: [20, 1, 3, 3], exponents: [0], docString: b'layout ==> UNK', 
value: array([… dtype=float32)
%digit_recognizer_v24_adaptive_1/feature_dense_1/BiasAdd/ReadVariableOp:0, shape: [64], exponents: [0], docString: b'layout ==> UNK', 
value: array([ … dtype=float32)
%digit_recognizer_v24_adaptive_1/conv1_20f_1/Squeeze:0, shape: [20], exponents: [0], docString: b'layout ==> UNK', 
value: array([ … dtype=float32)
%digit_recognizer_v24_adaptive_1/conv3_48f_1/convolution/ReadVariableOp:0, shape: [48, 36, 3, 3], exponents: [0], docString: b'layout ==> UNK', 
value: array([ … dtype=float32)
%PPQ_Variable_0, shape: [4], exponents: [0], docString: b'layout ==> UNK', 
value: array([-1, 32, 20,  1], dtype=int64)
%PPQ_Variable_1, shape: [4], exponents: [0], docString: b'layout ==> UNK', 
value: array([-1, 32, 20,  1], dtype=int64)
%PPQ_Variable_2, shape: [1], exponents: [0], docString: b'layout ==> UNK', 
value: array([2, 0], dtype=int64)
%PPQ_Variable_3, shape: [1], exponents: [0], docString: b'layout ==> UNK', 
value: array([2, 0], dtype=int64)
%PPQ_Variable_4, shape: [1], exponents: [0], docString: b'layout ==> UNK', 
value: array([6., 0., 0., 0.], dtype=float32)
%PPQ_Variable_5, shape: [1], exponents: [0], docString: b'layout ==> UNK', 
value: array([6., 0., 0., 0.], dtype=float32)
%PPQ_Variable_6, shape: [1], exponents: [0], docString: b'layout ==> UNK', 
value: array([6., 0., 0., 0.], dtype=float32)
%PPQ_Variable_7, shape: [1], exponents: [0], docString: b'layout ==> UNK', 
value: array([6., 0., 0., 0.], dtype=float32)
%PPQ_Variable_8, shape: [1], exponents: [0], docString: b'layout ==> UNK', 
value: array([6., 0., 0., 0.], dtype=float32)
%PPQ_Variable_9, shape: [1], exponents: [0], docString: b'layout ==> UNK', 
value: array([1, 0], dtype=int64)
%PPQ_Variable_10, shape: [1], exponents: [0], docString: b'layout ==> UNK', 
value: array([1, 0], dtype=int64)
%PPQ_Variable_11, shape: [1], exponents: [0], docString: b'layout ==> UNK', 
value: array([1, 0], dtype=int64)
%PPQ_Variable_12, shape: [1], exponents: [0], docString: b'layout ==> UNK', 
value: array([1, 0], dtype=int64)
%PPQ_Variable_13, shape: [1], exponents: [0], docString: b'layout ==> UNK', 
value: array([1, 0], dtype=int64)
%PPQ_Variable_14, shape: [1], exponents: [0], docString: b'layout ==> UNK', 
value: array([0., 0., 0., 0.], dtype=float32)
%PPQ_Variable_15, shape: [1], exponents: [0], docString: b'layout ==> UNK', 
value: array([0., 0., 0., 0.], dtype=float32)
%PPQ_Variable_16, shape: [1], exponents: [0], docString: b'layout ==> UNK', 
value: array([0., 0., 0., 0.], dtype=float32)
%PPQ_Variable_17, shape: [1], exponents: [0], docString: b'layout ==> UNK', 
value: array([0., 0., 0., 0.], dtype=float32)
%PPQ_Variable_18, shape: [1], exponents: [0], docString: b'layout ==> UNK', 
value: array([0., 0., 0., 0.], dtype=float32)
%PPQ_Variable_19, shape: [3], exponents: [0], docString: b'layout ==> UNK', 
value: array([2, 3, 1, 0], dtype=int64)
%PPQ_Variable_20, shape: [3], exponents: [0], docString: b'layout ==> UNK', 
value: array([1, 2, 3, 0], dtype=int64)
%PPQ_Variable_21, shape: [3], exponents: [0], docString: b'layout ==> UNK', 
value: array([1, 2, 3, 0], dtype=int64)


values info:
%digit_recognizer_v24_adaptive_1/conv1_20f_1/BiasAdd:0[FLOAT, 1x32x20x20], exponents: [0]
%digit_recognizer_v24_adaptive_1/relu6_2_1/Relu6:0[FLOAT, 1x16x10x36], exponents: [0]
%digit_recognizer_v24_adaptive_1/output_1/BiasAdd:0[FLOAT, 1x10], exponents: [0]
%digit_recognizer_v24_adaptive_1/relu6_dense_1/Relu6:0[FLOAT, 1x64], exponents: [0]
%digit_recognizer_v24_adaptive_1/luminance_grayscale_1/add:0[FLOAT, 1x1x32x20], exponents: [0]
%Transpose__75:0[FLOAT, 1x32x20x1], exponents: [0]
%digit_recognizer_v24_adaptive_1/luminance_grayscale_1/mul:0[FLOAT, 1x1x32x20], exponents: [0]
%digit_recognizer_v24_adaptive_1/adaptive_contrast_1/sub_3:0[FLOAT, 1x32x20x1], exponents: [0]
%digit_recognizer_v24_adaptive_1/pool2_1/MaxPool2d:0[FLOAT, 1x8x5x36], exponents: [0]
%digit_recognizer_v24_adaptive_1/relu6_3_1/Relu6:0[FLOAT, 1x8x5x48], exponents: [0]
%digit_recognizer_v24_adaptive_1/adaptive_contrast_1/Less:0[BOOL, 1x1x1x1], exponents: [0]
%digit_recognizer_v24_adaptive_1/global_avg_pool_1/Mean_Squeeze__93:0[FLOAT, 1x56], exponents: [0]
%digit_recognizer_v24_adaptive_1/relu6_4_1/Relu6:0[FLOAT, 1x8x5x56], exponents: [0]
%digit_recognizer_v24_adaptive_1/luminance_grayscale_1/strided_slice:0[FLOAT, 1x1x32x20], exponents: [0]
%digit_recognizer_v24_adaptive_1/adaptive_contrast_1/sub_2:0[FLOAT, 1x1x1x1], exponents: [0]
%digit_recognizer_v24_adaptive_1/output_1/MatMul:0[FLOAT, 1x10], exponents: [0]
%digit_recognizer_v24_adaptive_1/pool1_1/MaxPool2d:0[FLOAT, 1x16x10x20], exponents: [0]
%digit_recognizer_v24_adaptive_1/adaptive_contrast_1/Cast:0[FLOAT, 1x1x1x1], exponents: [0]
%digit_recognizer_v24_adaptive_1/adaptive_contrast_1/truediv:0[FLOAT, 1x32x20x1], exponents: [0]
%digit_recognizer_v24_adaptive_1/adaptive_contrast_1/Min:0[FLOAT, 1x1x1x1], exponents: [0]
%digit_recognizer_v24_adaptive_1/adaptive_contrast_1/add:0[FLOAT, 1x32x20x1], exponents: [0]
%digit_recognizer_v24_adaptive_1/luminance_grayscale_1/mul_1:0[FLOAT, 1x1x32x20], exponents: [0]
%digit_recognizer_v24_adaptive_1/relu6_1_1/Relu6:0[FLOAT, 1x32x20x20], exponents: [0]
%digit_recognizer_v24_adaptive_1/conv1_20f_1/BiasAdd__17:0[FLOAT, 1x1x32x20], exponents: [0]
%output[FLOAT, 1x10], exponents: [0]
%Transpose__83:0[FLOAT, 1x32x20x1], exponents: [0]
%digit_recognizer_v24_adaptive_1/adaptive_contrast_1/Maximum:0[FLOAT, 1x1x1x1], exponents: [0]
%digit_recognizer_v24_adaptive_1/luminance_grayscale_1/mul_2:0[FLOAT, 1x1x32x20], exponents: [0]
%digit_recognizer_v24_adaptive_1/conv2_36f_1/BiasAdd:0[FLOAT, 1x16x10x36], exponents: [0]
%digit_recognizer_v24_adaptive_1/conv3_48f_1/BiasAdd:0[FLOAT, 1x8x5x48], exponents: [0]
%digit_recognizer_v24_adaptive_1/feature_dense_1/MatMul:0[FLOAT, 1x64], exponents: [0]
%digit_recognizer_v24_adaptive_1/adaptive_contrast_1/sub:0[FLOAT, 1x1x32x20], exponents: [0]
%digit_recognizer_v24_adaptive_1/luminance_grayscale_1/strided_slice_1:0[FLOAT, 1x1x32x20], exponents: [0]
%digit_recognizer_v24_adaptive_1/global_avg_pool_1/Mean:0[FLOAT, 1x1x1x56], exponents: [0]
%digit_recognizer_v24_adaptive_1/luminance_grayscale_1/strided_slice_2:0[FLOAT, 1x1x32x20], exponents: [0]
%digit_recognizer_v24_adaptive_1/adaptive_contrast_1/mul:0[FLOAT, 1x32x20x1], exponents: [0]
%digit_recognizer_v24_adaptive_1/feature_dense_1/BiasAdd:0[FLOAT, 1x64], exponents: [0]
%digit_recognizer_v24_adaptive_1/adaptive_contrast_1/sub_1:0[FLOAT, 1x1x1x1], exponents: [0]
%digit_recognizer_v24_adaptive_1/conv4_56f_1/BiasAdd:0[FLOAT, 1x8x5x56], exponents: [0]
%digit_recognizer_v24_adaptive_1/adaptive_contrast_1/Max:0[FLOAT, 1x1x1x1], exponents: [0]
%input[FLOAT, 1x3x32x20], exponents: [0]
%digit_recognizer_v24_adaptive_1/adaptive_contrast_1/mul_1:0[FLOAT, 1x32x20x1], exponents: [0]
%digit_recognizer_v24_adaptive_1/adaptive_contrast_1/Mean:0[FLOAT, 1x1x1x1], exponents: [0]
%digit_recognizer_v24_adaptive_1/luminance_grayscale_1/add_1:0[FLOAT, 1x1x32x20], exponents: [0]
%PPQ_Variable_22[FLOAT, 1x32x20x1], exponents: [0]
%PPQ_Variable_23[FLOAT, 1x1x56x1], exponents: [0]


test inputs value:



test outputs value:
