…
  augmentation: True
  sources: ['Tenth-of-step-of-a-meter-digit', 'real_integra_bad_predictions', 'real_integra', 'static_augmentation']

QUANTIZATION:
  qat: False
  post_training: True
  esp_dl: False

==================================================


MODEL SUMMARY:
Model: "sequential"
+--------------------------------------------------------------------------------------+
| Layer (type)                         | Output Shape                |         Param # |
|--------------------------------------+-----------------------------+-----------------|
| conv1 (Conv2D)                       | (None, 32, 20, 32)          |             320 |
|--------------------------------------+-----------------------------+-----------------|
| relu6_1 (ReLU)                       | (None, 32, 20, 32)          |               0 |
|--------------------------------------+-----------------------------+-----------------|
| pool1 (MaxPooling2D)                 | (None, 16, 10, 32)          |               0 |
|--------------------------------------+-----------------------------+-----------------|
| conv2 (Conv2D)                       | (None, 16, 10, 64)          |          18,496 |
|--------------------------------------+-----------------------------+-----------------|
| relu6_2 (ReLU)                       | (None, 16, 10, 64)          |               0 |
|--------------------------------------+-----------------------------+-----------------|
| pool2 (MaxPooling2D)                 | (None, 8, 5, 64)            |               0 |
|--------------------------------------+-----------------------------+-----------------|
| conv3 (Conv2D)                       | (None, 8, 5, 64)            |          36,928 |
|--------------------------------------+-----------------------------+-----------------|
| relu6_3 (ReLU)                       | (None, 8, 5, 64)            |               0 |
|--------------------------------------+-----------------------------+-----------------|
| global_avg_pool                      | (None, 64)                  |               0 |
| (GlobalAveragePooling2D)             |                             |                 |
|--------------------------------------+-----------------------------+-----------------|
| output (Dense)                       | (None, 10)                  |             650 |
+--------------------------------------------------------------------------------------+
 Total params: 56,394 (220.29 KB)
 Trainable params: 56,394 (220.29 KB)
 Non-trainable params: 0 (0.00 B)



GENERATED: 2025-11-02 09:20:53
