…
  augmentation: True
  sources: ['Tenth-of-step-of-a-meter-digit', 'real_integra_bad_predictions', 'real_integra', 'static_augmentation']

QUANTIZATION:
  qat: False
  post_training: True
  esp_dl: False

==================================================


MODEL SUMMARY:
Model: "digit_recognizer_v3_grayscale"
+--------------------------------------------------------------------------------------+
| Layer (type)                         | Output Shape                |         Param # |
|--------------------------------------+-----------------------------+-----------------|
| input (InputLayer)                   | (None, 32, 20, 1)           |               0 |
|--------------------------------------+-----------------------------+-----------------|
| conv1_8f (Conv2D)                    | (None, 32, 20, 8)           |              80 |
|--------------------------------------+-----------------------------+-----------------|
| relu6_1 (Activation)                 | (None, 32, 20, 8)           |               0 |
|--------------------------------------+-----------------------------+-----------------|
| pool1 (MaxPooling2D)                 | (None, 16, 10, 8)           |               0 |
|--------------------------------------+-----------------------------+-----------------|
| conv2_16f (Conv2D)                   | (None, 16, 10, 16)          |           1,168 |
|--------------------------------------+-----------------------------+-----------------|
| relu6_2 (Activation)                 | (None, 16, 10, 16)          |               0 |
|--------------------------------------+-----------------------------+-----------------|
| pool2 (MaxPooling2D)                 | (None, 8, 5, 16)            |               0 |
|--------------------------------------+-----------------------------+-----------------|
| conv3_24f (Conv2D)                   | (None, 8, 5, 24)            |           3,480 |
|--------------------------------------+-----------------------------+-----------------|
| relu6_3 (Activation)                 | (None, 8, 5, 24)            |               0 |
|--------------------------------------+-----------------------------+-----------------|
| global_avg_pool                      | (None, 24)                  |               0 |
| (GlobalAveragePooling2D)             |                             |                 |
|--------------------------------------+-----------------------------+-----------------|
| feature_dense (Dense)                | (None, 32)                  |             800 |
|--------------------------------------+-----------------------------+-----------------|
| relu6_dense (Activation)             | (None, 32)                  |               0 |
|--------------------------------------+-----------------------------+-----------------|
| output (Dense)                       | (None, 100)                 |           3,300 |
+--------------------------------------------------------------------------------------+
 Total params: 8,828 (34.48 KB)
 Trainable params: 8,828 (34.48 KB)
 Non-trainable params: 0 (0.00 B)



GENERATED: 2025-11-02 14:28:32
