model properties:
metadata_props:


graph tf2onnx (
  %input[FLOAT, 1x32x20x3], exponents: [0]
) initializers (
  %const_fold_opt__585[FLOAT, 1x24x1x1]
  %digit_recognizer_v18_1/gb2_proj_bn_1/batchnorm/sub:0[FLOAT, 32]
  %digit_recognizer_v18_1/entry_bn_1/batchnorm/sub:0[FLOAT, 16]
  %digit_recognizer_v18_1/gb3_gm2_primary_bn_1/batchnorm/sub:0[FLOAT, 24]
  %digit_recognizer_v18_1/gb1_gm1_primary_conv_1/convolution/merged_input:0[FLOAT, 12x16x1x1]
  %const_fold_opt__565[FLOAT, 32x1x3x3]
  %digit_recognizer_v18_1/gb1_stride_bn_1/batchnorm/mul:0[FLOAT, 1x24x1x1]
  %digit_recognizer_v18_1/gb2_sc_dw_bn_1/batchnorm/mul:0[FLOAT, 1x24x1x1]
  %digit_recognizer_v18_1/gb4_proj_bn_1/batchnorm/sub:0[FLOAT, 48]
  %digit_recognizer_v18_1/gb1_gm2_ghost_bn_1/batchnorm/mul:0[FLOAT, 1x12x1x1]
  %digit_recognizer_v18_1/head_bn_1/batchnorm/sub:0[FLOAT, 112]
  %const_fold_opt__607[FLOAT, 1x24x1x1]
  %digit_recognizer_v18_1/gb3_gm2_primary_conv_1/convolution/merged_input:0[FLOAT, 24x48x1x1]
  %digit_recognizer_v18_1/gb2_gm2_ghost_bn_1/batchnorm/mul:0[FLOAT, 1x16x1x1]
  %digit_recognizer_v18_1/gb5_gm2_primary_conv_1/convolution/merged_input:0[FLOAT, 32x64x1x1]
  %digit_recognizer_v18_1/output_1/BiasAdd/ReadVariableOp:0[FLOAT, 10]
  %const_fold_opt__605[FLOAT, 1x48x1x1]
  %digit_recognizer_v18_1/gb5_sc_bn_1/batchnorm/sub:0[FLOAT, 64]
  %const_fold_opt__600[FLOAT, 1x16x1x1]
  %const_fold_opt__606[FLOAT, 48x1x3x3]
  %digit_recognizer_v18_1/gb3_sc_dw_bn_1/batchnorm/mul:0[FLOAT, 1x32x1x1]
  %digit_recognizer_v18_1/gb2_gm2_primary_bn_1/batchnorm/sub:0[FLOAT, 16]
  %digit_recognizer_v18_1/gb2_gm1_ghost_bn_1/batchnorm/mul:0[FLOAT, 1x16x1x1]
  %digit_recognizer_v18_1/gb4_gm2_primary_conv_1/convolution/merged_input:0[FLOAT, 24x48x1x1]
  %digit_recognizer_v18_1/gb5_gm1_primary_bn_1/batchnorm/sub:0[FLOAT, 32]
  %const_fold_opt__603[FLOAT, 24x1x3x3]
  %const_fold_opt__567[FLOAT, 48x1x3x3]
  %digit_recognizer_v18_1/gb5_sc_conv_1/convolution/merged_input:0[FLOAT, 64x48x1x1]
  %const_fold_opt__571[FLOAT, 16x1x3x3]
  %digit_recognizer_v18_1/gb4_proj_1/convolution/merged_input:0[FLOAT, 48x48x1x1]
  %digit_recognizer_v18_1/gb3_sc_conv_1/convolution/merged_input:0[FLOAT, 48x32x1x1]
  %digit_recognizer_v18_1/gb1_gm2_primary_conv_1/convolution/merged_input:0[FLOAT, 12x24x1x1]
  %const_fold_opt__602[FLOAT, 1x16x1x1]
  %const_fold_opt__594[FLOAT, 1x24x1x1]
  %digit_recognizer_v18_1/gb3_proj_1/convolution/merged_input:0[FLOAT, 48x48x1x1]
  %digit_recognizer_v18_1/gb1_sc_dw_bn_1/batchnorm/mul:0[FLOAT, 1x16x1x1]
  %digit_recognizer_v18_1/gb4_gm1_primary_conv_1/convolution/merged_input:0[FLOAT, 24x48x1x1]
  %const_fold_opt__586[FLOAT, 24x1x3x3]
  %digit_recognizer_v18_1/gb3_gm1_ghost_bn_1/batchnorm/mul:0[FLOAT, 1x24x1x1]
  %const_fold_opt__588[FLOAT, 32x1x3x3]
  %const_fold_opt__601[FLOAT, 1x16x1x1]
  %digit_recognizer_v18_1/output_1/Cast/ReadVariableOp:0[FLOAT, 112x10]
  %digit_recognizer_v18_1/gb1_gm1_ghost_bn_1/batchnorm/mul:0[FLOAT, 1x12x1x1]
  %const_fold_opt__576[FLOAT, 24x1x3x3]
  %digit_recognizer_v18_1/gb4_gm1_primary_bn_1/batchnorm/sub:0[FLOAT, 24]
  %const_fold_opt__597[FLOAT, 1x24x1x1]
  %digit_recognizer_v18_1/gb1_gm2_primary_bn_1/batchnorm/sub:0[FLOAT, 12]
  %digit_recognizer_v18_1/gb2_proj_1/convolution/merged_input:0[FLOAT, 32x32x1x1]
  %const_fold_opt__569[FLOAT, 24x1x3x3]
  %digit_recognizer_v18_1/gb3_sc_bn_1/batchnorm/sub:0[FLOAT, 48]
  %const_fold_opt__575[FLOAT, 16x1x3x3]
  %const_fold_opt__596[FLOAT, 1x12x1x1]
  %digit_recognizer_v18_1/gb2_gm1_primary_conv_1/convolution/merged_input:0[FLOAT, 16x24x1x1]
  %digit_recognizer_v18_1/entry_conv_1/convolution/merged_input:0[FLOAT, 16x3x3x3]
  %const_fold_opt__592[FLOAT, 1x32x1x1]
  %digit_recognizer_v18_1/gb1_sc_conv_1/convolution/merged_input:0[FLOAT, 24x16x1x1]
  %digit_recognizer_v18_1/gb5_sc_dw_bn_1/batchnorm/mul:0[FLOAT, 1x48x1x1]
  %digit_recognizer_v18_1/gb2_sc_bn_1/batchnorm/sub:0[FLOAT, 32]
  %digit_recognizer_v18_1/gb2_gm1_primary_bn_1/batchnorm/sub:0[FLOAT, 16]
  %const_fold_opt__581[FLOAT, 12x1x3x3]
  %const_fold_opt__593[FLOAT, 1x48x1x1]
  %digit_recognizer_v18_1/gb5_gm2_ghost_bn_1/batchnorm/mul:0[FLOAT, 1x32x1x1]
  %const_fold_opt__591[FLOAT, 1x32x1x1]
  %digit_recognizer_v18_1/gb5_gm2_primary_bn_1/batchnorm/sub:0[FLOAT, 32]
  %const_fold_opt__589[FLOAT, 16x1x3x3]
  %const_fold_opt__579[FLOAT, 24x1x3x3]
  %const_fold_opt__599[FLOAT, 1x24x1x1]
  %digit_recognizer_v18_1/gb4_gm1_ghost_bn_1/batchnorm/mul:0[FLOAT, 1x24x1x1]
  %digit_recognizer_v18_1/gb1_proj_1/convolution/merged_input:0[FLOAT, 24x24x1x1]
  %digit_recognizer_v18_1/gb3_stride_bn_1/batchnorm/mul:0[FLOAT, 1x48x1x1]
  %const_fold_opt__578[FLOAT, 12x1x3x3]
  %digit_recognizer_v18_1/gb3_gm1_primary_bn_1/batchnorm/sub:0[FLOAT, 24]
  %const_axes__608[INT64, 2]
  %digit_recognizer_v18_1/gb1_gm1_primary_bn_1/batchnorm/sub:0[FLOAT, 12]
  %digit_recognizer_v18_1/gb4_gm2_primary_bn_1/batchnorm/sub:0[FLOAT, 24]
  %digit_recognizer_v18_1/gb5_gm1_ghost_bn_1/batchnorm/mul:0[FLOAT, 1x32x1x1]
  %digit_recognizer_v18_1/gb3_gm2_ghost_bn_1/batchnorm/mul:0[FLOAT, 1x24x1x1]
  %const_fold_opt__584[FLOAT, 24x1x3x3]
  %digit_recognizer_v18_1/gb4_gm2_ghost_bn_1/batchnorm/mul:0[FLOAT, 1x24x1x1]
  %digit_recognizer_v18_1/gb5_proj_1/convolution/merged_input:0[FLOAT, 64x64x1x1]
  %const_fold_opt__564[FLOAT, 1x12x1x1]
  %const_fold_opt__566[FLOAT, 32x1x3x3]
  %digit_recognizer_v18_1/gb3_proj_bn_1/batchnorm/sub:0[FLOAT, 48]
  %digit_recognizer_v18_1/gb5_proj_bn_1/batchnorm/sub:0[FLOAT, 64]
  %digit_recognizer_v18_1/gb3_gm1_primary_conv_1/convolution/merged_input:0[FLOAT, 24x32x1x1]
  %digit_recognizer_v18_1/gb1_sc_bn_1/batchnorm/sub:0[FLOAT, 24]
  %digit_recognizer_v18_1/gb5_gm1_primary_conv_1/convolution/merged_input:0[FLOAT, 32x48x1x1]
  %digit_recognizer_v18_1/gb1_proj_bn_1/batchnorm/sub:0[FLOAT, 24]
  %digit_recognizer_v18_1/gb2_gm2_primary_conv_1/convolution/merged_input:0[FLOAT, 16x32x1x1]
  %digit_recognizer_v18_1/head_conv_1/convolution/merged_input:0[FLOAT, 112x64x1x1]
  %digit_recognizer_v18_1/gb2_sc_conv_1/convolution/merged_input:0[FLOAT, 32x24x1x1]
  %const_fold_opt__598[FLOAT, 1x24x1x1]
  %const_fold_opt__595[FLOAT, 1x32x1x1]
  %PPQ_Variable_0[FLOAT, 1]
  %PPQ_Variable_1[FLOAT, 1]
  %PPQ_Variable_2[FLOAT, 1]
  %PPQ_Variable_3[FLOAT, 1]
  %PPQ_Variable_4[FLOAT, 1]
  %PPQ_Variable_5[FLOAT, 1]
  %PPQ_Variable_6[FLOAT, 1]
  %PPQ_Variable_7[FLOAT, 1]
  %PPQ_Variable_8[FLOAT, 1]
  %PPQ_Variable_9[FLOAT, 1]
  %PPQ_Variable_10[FLOAT, 1]
  %PPQ_Variable_11[FLOAT, 1]
  %PPQ_Variable_12[FLOAT, 1]
  %PPQ_Variable_13[FLOAT, 1]
  %PPQ_Variable_14[FLOAT, 1]
  %PPQ_Variable_15[FLOAT, 1]
  %PPQ_Variable_16[FLOAT, 1]
  %PPQ_Variable_17[FLOAT, 1]
  %PPQ_Variable_18[FLOAT, 1]
  %PPQ_Variable_19[FLOAT, 1]
  %PPQ_Variable_20[FLOAT, 1]
  %PPQ_Variable_21[FLOAT, 1]
  %PPQ_Variable_22[FLOAT, 1]
  %PPQ_Variable_23[FLOAT, 1]
  %PPQ_Variable_24[FLOAT, 1]
  %PPQ_Variable_25[FLOAT, 1]
  %PPQ_Variable_26[FLOAT, 1]
  %PPQ_Variable_27[FLOAT, 1]
  %PPQ_Variable_28[FLOAT, 1]
  %PPQ_Variable_29[FLOAT, 1]
  %PPQ_Variable_30[FLOAT, 1]
  %PPQ_Variable_31[FLOAT, 1]
  %PPQ_Variable_32[FLOAT, 1]
  %PPQ_Variable_33[FLOAT, 1]
  %PPQ_Variable_34[FLOAT, 1]
  %PPQ_Variable_35[FLOAT, 1]
  %PPQ_Variable_36[FLOAT, 1]
  %PPQ_Variable_37[FLOAT, 1]
  %PPQ_Variable_38[FLOAT, 1]
  %PPQ_Variable_39[FLOAT, 1]
  %PPQ_Variable_40[FLOAT, 1]
  %PPQ_Variable_41[FLOAT, 1]
  %PPQ_Variable_42[FLOAT, 1]
  %PPQ_Variable_43[FLOAT, 1]
  %PPQ_Variable_44[FLOAT, 1]
  %PPQ_Variable_45[FLOAT, 1]
  %PPQ_Variable_46[FLOAT, 1]
  %PPQ_Variable_47[FLOAT, 1]
  %PPQ_Variable_48[FLOAT, 1]
  %PPQ_Variable_49[FLOAT, 1]
  %PPQ_Variable_50[FLOAT, 1]
  %PPQ_Variable_51[FLOAT, 1]
  %PPQ_Variable_52[FLOAT, 1]
  %PPQ_Variable_53[FLOAT, 1]
) {
  %Conv__258:0 = Conv[dilations = [1, 1], group = 1, kernel_shape = [3, 3], pads = [1, 1, 1, 1], quant_type = 'F32', strides = [1, 1]](%input, %digit_recognizer_v18_1/entry_conv_1/convolution/merged_input:0, %digit_recognizer_v18_1/entry_bn_1/batchnorm/sub:0)
  %digit_recognizer_v18_1/entry_relu6_1/Relu6:0 = Clip[quant_type = 'F32'](%Conv__258:0, %PPQ_Variable_27, %PPQ_Variable_0)
  %digit_recognizer_v18_1/gb1_sc_dw_1/depthwise:0 = Conv[dilations = [1, 1], group = 16, kernel_shape = [3, 3], pads = [0, 0, 1, 1], quant_type = 'F32', strides = [2, 2]](%digit_recognizer_v18_1/entry_relu6_1/Relu6:0, %const_fold_opt__571)
  %Conv__264:0 = Conv[dilations = [1, 1], group = 1, kernel_shape = [1, 1], pads = [0, 0, 0, 0], quant_type = 'F32', strides = [1, 1]](%digit_recognizer_v18_1/entry_relu6_1/Relu6:0, %digit_recognizer_v18_1/gb1_gm1_primary_conv_1/convolution/merged_input:0, %digit_recognizer_v18_1/gb1_gm1_primary_bn_1/batchnorm/sub:0)
  %PPQ_Variable_54 = Transpose[perm = [0, 3, 1, 2], quant_type = 'F32'](%digit_recognizer_v18_1/gb1_sc_dw_1/depthwise:0)
  %digit_recognizer_v18_1/gb1_gm1_primary_relu6_1/Relu6:0 = Clip[quant_type = 'F32'](%Conv__264:0, %PPQ_Variable_28, %PPQ_Variable_1)
  %digit_recognizer_v18_1/gb1_sc_dw_bn_1/batchnorm/mul_1:0 = Mul[quant_type = 'F32'](%PPQ_Variable_54, %digit_recognizer_v18_1/gb1_sc_dw_bn_1/batchnorm/mul:0)
  %digit_recognizer_v18_1/gb1_gm1_ghost_dw_1/depthwise:0 = Conv[dilations = [1, 1], group = 12, kernel_shape = [3, 3], pads = [1, 1, 1, 1], quant_type = 'F32', strides = [1, 1]](%digit_recognizer_v18_1/gb1_gm1_primary_relu6_1/Relu6:0, %const_fold_opt__581)
  %PPQ_Variable_57 = Transpose[perm = [0, 3, 1, 2], quant_type = 'F32'](%digit_recognizer_v18_1/gb1_gm1_primary_relu6_1/Relu6:0)
  %digit_recognizer_v18_1/gb1_sc_dw_bn_1/batchnorm/add_1:0 = Add[quant_type = 'F32'](%digit_recognizer_v18_1/gb1_sc_dw_bn_1/batchnorm/mul_1:0, %const_fold_opt__600)
  %PPQ_Variable_56 = Transpose[perm = [0, 3, 1, 2], quant_type = 'F32'](%digit_recognizer_v18_1/gb1_gm1_ghost_dw_1/depthwise:0)
  %PPQ_Variable_55 = Transpose[perm = [0, 2, 3, 1], quant_type = 'F32'](%digit_recognizer_v18_1/gb1_sc_dw_bn_1/batchnorm/add_1:0)
  %digit_recognizer_v18_1/gb1_gm1_ghost_bn_1/batchnorm/mul_1:0 = Mul[quant_type = 'F32'](%PPQ_Variable_56, %digit_recognizer_v18_1/gb1_gm1_ghost_bn_1/batchnorm/mul:0)
  %Conv__310:0 = Conv[dilations = [1, 1], group = 1, kernel_shape = [1, 1], pads = [0, 0, 0, 0], quant_type = 'F32', strides = [1, 1]](%PPQ_Variable_55, %digit_recognizer_v18_1/gb1_sc_conv_1/convolution/merged_input:0, %digit_recognizer_v18_1/gb1_sc_bn_1/batchnorm/sub:0)
  %digit_recognizer_v18_1/gb1_gm1_ghost_bn_1/batchnorm/add_1:0 = Add[quant_type = 'F32'](%digit_recognizer_v18_1/gb1_gm1_ghost_bn_1/batchnorm/mul_1:0, %const_fold_opt__596)
  %digit_recognizer_v18_1/gb1_gm1_ghost_relu6_1/Relu6:0 = Clip[quant_type = 'F32'](%digit_recognizer_v18_1/gb1_gm1_ghost_bn_1/batchnorm/add_1:0, %PPQ_Variable_29, %PPQ_Variable_2)
  %digit_recognizer_v18_1/gb1_gm1_concat_1/concat:0 = Concat[axis = 1, quant_type = 'F32'](%PPQ_Variable_57, %digit_recognizer_v18_1/gb1_gm1_ghost_relu6_1/Relu6:0)
  %PPQ_Variable_58 = Transpose[perm = [0, 2, 3, 1], quant_type = 'F32'](%digit_recognizer_v18_1/gb1_gm1_concat_1/concat:0)
  %digit_recognizer_v18_1/gb1_stride_dw_1/depthwise:0 = Conv[dilations = [1, 1], group = 24, kernel_shape = [3, 3], pads = [0, 0, 1, 1], quant_type = 'F32', strides = [2, 2]](%PPQ_Variable_58, %const_fold_opt__579)
  %PPQ_Variable_59 = Transpose[perm = [0, 3, 1, 2], quant_type = 'F32'](%digit_recognizer_v18_1/gb1_stride_dw_1/depthwise:0)
  %digit_recognizer_v18_1/gb1_stride_bn_1/batchnorm/mul_1:0 = Mul[quant_type = 'F32'](%PPQ_Variable_59, %digit_recognizer_v18_1/gb1_stride_bn_1/batchnorm/mul:0)
  %digit_recognizer_v18_1/gb1_stride_bn_1/batchnorm/add_1:0 = Add[quant_type = 'F32'](%digit_recognizer_v18_1/gb1_stride_bn_1/batchnorm/mul_1:0, %const_fold_opt__597)
  %PPQ_Variable_60 = Transpose[perm = [0, 2, 3, 1], quant_type = 'F32'](%digit_recognizer_v18_1/gb1_stride_bn_1/batchnorm/add_1:0)
  %Conv__282:0 = Conv[dilations = [1, 1], group = 1, kernel_shape = [1, 1], pads = [0, 0, 0, 0], quant_type = 'F32', strides = [1, 1]](%PPQ_Variable_60, %digit_recognizer_v18_1/gb1_gm2_primary_conv_1/convolution/merged_input:0, %digit_recognizer_v18_1/gb1_gm2_primary_bn_1/batchnorm/sub:0)
  %digit_recognizer_v18_1/gb1_gm2_primary_relu6_1/Relu6:0 = Clip[quant_type = 'F32'](%Conv__282:0, %PPQ_Variable_30, %PPQ_Variable_3)
  %digit_recognizer_v18_1/gb1_gm2_ghost_dw_1/depthwise:0 = Conv[dilations = [1, 1], group = 12, kernel_shape = [3, 3], pads = [1, 1, 1, 1], quant_type = 'F32', strides = [1, 1]](%digit_recognizer_v18_1/gb1_gm2_primary_relu6_1/Relu6:0, %const_fold_opt__578)
  %PPQ_Variable_62 = Transpose[perm = [0, 3, 1, 2], quant_type = 'F32'](%digit_recognizer_v18_1/gb1_gm2_primary_relu6_1/Relu6:0)
  %PPQ_Variable_61 = Transpose[perm = [0, 3, 1, 2], quant_type = 'F32'](%digit_recognizer_v18_1/gb1_gm2_ghost_dw_1/depthwise:0)
  %digit_recognizer_v18_1/gb1_gm2_ghost_bn_1/batchnorm/mul_1:0 = Mul[quant_type = 'F32'](%PPQ_Variable_61, %digit_recognizer_v18_1/gb1_gm2_ghost_bn_1/batchnorm/mul:0)
  %digit_recognizer_v18_1/gb1_gm2_ghost_bn_1/batchnorm/add_1:0 = Add[quant_type = 'F32'](%digit_recognizer_v18_1/gb1_gm2_ghost_bn_1/batchnorm/mul_1:0, %const_fold_opt__564)
  %digit_recognizer_v18_1/gb1_gm2_ghost_relu6_1/Relu6:0 = Clip[quant_type = 'F32'](%digit_recognizer_v18_1/gb1_gm2_ghost_bn_1/batchnorm/add_1:0, %PPQ_Variable_31, %PPQ_Variable_4)
  %digit_recognizer_v18_1/gb1_gm2_concat_1/concat:0 = Concat[axis = 1, quant_type = 'F32'](%PPQ_Variable_62, %digit_recognizer_v18_1/gb1_gm2_ghost_relu6_1/Relu6:0)
  %PPQ_Variable_63 = Transpose[perm = [0, 2, 3, 1], quant_type = 'F32'](%digit_recognizer_v18_1/gb1_gm2_concat_1/concat:0)
  %Conv__296:0 = Conv[dilations = [1, 1], group = 1, kernel_shape = [1, 1], pads = [0, 0, 0, 0], quant_type = 'F32', strides = [1, 1]](%PPQ_Variable_63, %digit_recognizer_v18_1/gb1_proj_1/convolution/merged_input:0, %digit_recognizer_v18_1/gb1_proj_bn_1/batchnorm/sub:0)
  %digit_recognizer_v18_1/gb1_add_1/Add:0 = Add[quant_type = 'F32'](%Conv__310:0, %Conv__296:0)
  %digit_recognizer_v18_1/gb1_relu6_1/Relu6:0 = Clip[quant_type = 'F32'](%digit_recognizer_v18_1/gb1_add_1/Add:0, %PPQ_Variable_32, %PPQ_Variable_5)
  %digit_recognizer_v18_1/gb2_sc_dw_1/depthwise:0 = Conv[dilations = [1, 1], group = 24, kernel_shape = [3, 3], pads = [1, 1, 1, 1], quant_type = 'F32', strides = [1, 1]](%digit_recognizer_v18_1/gb1_relu6_1/Relu6:0, %const_fold_opt__576)
  %Conv__326:0 = Conv[dilations = [1, 1], group = 1, kernel_shape = [1, 1], pads = [0, 0, 0, 0], quant_type = 'F32', strides = [1, 1]](%digit_recognizer_v18_1/gb1_relu6_1/Relu6:0, %digit_recognizer_v18_1/gb2_gm1_primary_conv_1/convolution/merged_input:0, %digit_recognizer_v18_1/gb2_gm1_primary_bn_1/batchnorm/sub:0)
  %PPQ_Variable_64 = Transpose[perm = [0, 3, 1, 2], quant_type = 'F32'](%digit_recognizer_v18_1/gb2_sc_dw_1/depthwise:0)
  %digit_recognizer_v18_1/gb2_gm1_primary_relu6_1/Relu6:0 = Clip[quant_type = 'F32'](%Conv__326:0, %PPQ_Variable_33, %PPQ_Variable_6)
  %digit_recognizer_v18_1/gb2_sc_dw_bn_1/batchnorm/mul_1:0 = Mul[quant_type = 'F32'](%PPQ_Variable_64, %digit_recognizer_v18_1/gb2_sc_dw_bn_1/batchnorm/mul:0)
  %digit_recognizer_v18_1/gb2_gm1_ghost_dw_1/depthwise:0 = Conv[dilations = [1, 1], group = 16, kernel_shape = [3, 3], pads = [1, 1, 1, 1], quant_type = 'F32', strides = [1, 1]](%digit_recognizer_v18_1/gb2_gm1_primary_relu6_1/Relu6:0, %const_fold_opt__575)
  %PPQ_Variable_67 = Transpose[perm = [0, 3, 1, 2], quant_type = 'F32'](%digit_recognizer_v18_1/gb2_gm1_primary_relu6_1/Relu6:0)
  %digit_recognizer_v18_1/gb2_sc_dw_bn_1/batchnorm/add_1:0 = Add[quant_type = 'F32'](%digit_recognizer_v18_1/gb2_sc_dw_bn_1/batchnorm/mul_1:0, %const_fold_opt__594)
  %PPQ_Variable_66 = Transpose[perm = [0, 3, 1, 2], quant_type = 'F32'](%digit_recognizer_v18_1/gb2_gm1_ghost_dw_1/depthwise:0)
  %PPQ_Variable_65 = Transpose[perm = [0, 2, 3, 1], quant_type = 'F32'](%digit_recognizer_v18_1/gb2_sc_dw_bn_1/batchnorm/add_1:0)
  %digit_recognizer_v18_1/gb2_gm1_ghost_bn_1/batchnorm/mul_1:0 = Mul[quant_type = 'F32'](%PPQ_Variable_66, %digit_recognizer_v18_1/gb2_gm1_ghost_bn_1/batchnorm/mul:0)
  %Conv__316:0 = Conv[dilations = [1, 1], group = 1, kernel_shape = [1, 1], pads = [0, 0, 0, 0], quant_type = 'F32', strides = [1, 1]](%PPQ_Variable_65, %digit_recognizer_v18_1/gb2_sc_conv_1/convolution/merged_input:0, %digit_recognizer_v18_1/gb2_sc_bn_1/batchnorm/sub:0)
  %digit_recognizer_v18_1/gb2_gm1_ghost_bn_1/batchnorm/add_1:0 = Add[quant_type = 'F32'](%digit_recognizer_v18_1/gb2_gm1_ghost_bn_1/batchnorm/mul_1:0, %const_fold_opt__601)
  %digit_recognizer_v18_1/gb2_gm1_ghost_relu6_1/Relu6:0 = Clip[quant_type = 'F32'](%digit_recognizer_v18_1/gb2_gm1_ghost_bn_1/batchnorm/add_1:0, %PPQ_Variable_34, %PPQ_Variable_7)
  %digit_recognizer_v18_1/gb2_gm1_concat_1/concat:0 = Concat[axis = 1, quant_type = 'F32'](%PPQ_Variable_67, %digit_recognizer_v18_1/gb2_gm1_ghost_relu6_1/Relu6:0)
  %PPQ_Variable_68 = Transpose[perm = [0, 2, 3, 1], quant_type = 'F32'](%digit_recognizer_v18_1/gb2_gm1_concat_1/concat:0)
  %Conv__340:0 = Conv[dilations = [1, 1], group = 1, kernel_shape = [1, 1], pads = [0, 0, 0, 0], quant_type = 'F32', strides = [1, 1]](%PPQ_Variable_68, %digit_recognizer_v18_1/gb2_gm2_primary_conv_1/convolution/merged_input:0, %digit_recognizer_v18_1/gb2_gm2_primary_bn_1/batchnorm/sub:0)
  %digit_recognizer_v18_1/gb2_gm2_primary_relu6_1/Relu6:0 = Clip[quant_type = 'F32'](%Conv__340:0, %PPQ_Variable_35, %PPQ_Variable_8)
  %digit_recognizer_v18_1/gb2_gm2_ghost_dw_1/depthwise:0 = Conv[dilations = [1, 1], group = 16, kernel_shape = [3, 3], pads = [1, 1, 1, 1], quant_type = 'F32', strides = [1, 1]](%digit_recognizer_v18_1/gb2_gm2_primary_relu6_1/Relu6:0, %const_fold_opt__589)
  %PPQ_Variable_70 = Transpose[perm = [0, 3, 1, 2], quant_type = 'F32'](%digit_recognizer_v18_1/gb2_gm2_primary_relu6_1/Relu6:0)
  %PPQ_Variable_69 = Transpose[perm = [0, 3, 1, 2], quant_type = 'F32'](%digit_recognizer_v18_1/gb2_gm2_ghost_dw_1/depthwise:0)
  %digit_recognizer_v18_1/gb2_gm2_ghost_bn_1/batchnorm/mul_1:0 = Mul[quant_type = 'F32'](%PPQ_Variable_69, %digit_recognizer_v18_1/gb2_gm2_ghost_bn_1/batchnorm/mul:0)
  %digit_recognizer_v18_1/gb2_gm2_ghost_bn_1/batchnorm/add_1:0 = Add[quant_type = 'F32'](%digit_recognizer_v18_1/gb2_gm2_ghost_bn_1/batchnorm/mul_1:0, %const_fold_opt__602)
  %digit_recognizer_v18_1/gb2_gm2_ghost_relu6_1/Relu6:0 = Clip[quant_type = 'F32'](%digit_recognizer_v18_1/gb2_gm2_ghost_bn_1/batchnorm/add_1:0, %PPQ_Variable_36, %PPQ_Variable_9)
  %digit_recognizer_v18_1/gb2_gm2_concat_1/concat:0 = Concat[axis = 1, quant_type = 'F32'](%PPQ_Variable_70, %digit_recognizer_v18_1/gb2_gm2_ghost_relu6_1/Relu6:0)
  %PPQ_Variable_71 = Transpose[perm = [0, 2, 3, 1], quant_type = 'F32'](%digit_recognizer_v18_1/gb2_gm2_concat_1/concat:0)
  %Conv__354:0 = Conv[dilations = [1, 1], group = 1, kernel_shape = [1, 1], pads = [0, 0, 0, 0], quant_type = 'F32', strides = [1, 1]](%PPQ_Variable_71, %digit_recognizer_v18_1/gb2_proj_1/convolution/merged_input:0, %digit_recognizer_v18_1/gb2_proj_bn_1/batchnorm/sub:0)
  %digit_recognizer_v18_1/gb2_add_1/Add:0 = Add[quant_type = 'F32'](%Conv__316:0, %Conv__354:0)
  %digit_recognizer_v18_1/gb2_relu6_1/Relu6:0 = Clip[quant_type = 'F32'](%digit_recognizer_v18_1/gb2_add_1/Add:0, %PPQ_Variable_37, %PPQ_Variable_10)
  %digit_recognizer_v18_1/gb3_sc_dw_1/depthwise:0 = Conv[dilations = [1, 1], group = 32, kernel_shape = [3, 3], pads = [0, 0, 1, 1], quant_type = 'F32', strides = [2, 2]](%digit_recognizer_v18_1/gb2_relu6_1/Relu6:0, %const_fold_opt__588)
  %Conv__370:0 = Conv[dilations = [1, 1], group = 1, kernel_shape = [1, 1], pads = [0, 0, 0, 0], quant_type = 'F32', strides = [1, 1]](%digit_recognizer_v18_1/gb2_relu6_1/Relu6:0, %digit_recognizer_v18_1/gb3_gm1_primary_conv_1/convolution/merged_input:0, %digit_recognizer_v18_1/gb3_gm1_primary_bn_1/batchnorm/sub:0)
  %PPQ_Variable_72 = Transpose[perm = [0, 3, 1, 2], quant_type = 'F32'](%digit_recognizer_v18_1/gb3_sc_dw_1/depthwise:0)
  %digit_recognizer_v18_1/gb3_gm1_primary_relu6_1/Relu6:0 = Clip[quant_type = 'F32'](%Conv__370:0, %PPQ_Variable_38, %PPQ_Variable_11)
  %digit_recognizer_v18_1/gb3_sc_dw_bn_1/batchnorm/mul_1:0 = Mul[quant_type = 'F32'](%PPQ_Variable_72, %digit_recognizer_v18_1/gb3_sc_dw_bn_1/batchnorm/mul:0)
  %digit_recognizer_v18_1/gb3_gm1_ghost_dw_1/depthwise:0 = Conv[dilations = [1, 1], group = 24, kernel_shape = [3, 3], pads = [1, 1, 1, 1], quant_type = 'F32', strides = [1, 1]](%digit_recognizer_v18_1/gb3_gm1_primary_relu6_1/Relu6:0, %const_fold_opt__586)
  %PPQ_Variable_75 = Transpose[perm = [0, 3, 1, 2], quant_type = 'F32'](%digit_recognizer_v18_1/gb3_gm1_primary_relu6_1/Relu6:0)
  %digit_recognizer_v18_1/gb3_sc_dw_bn_1/batchnorm/add_1:0 = Add[quant_type = 'F32'](%digit_recognizer_v18_1/gb3_sc_dw_bn_1/batchnorm/mul_1:0, %const_fold_opt__595)
  %PPQ_Variable_74 = Transpose[perm = [0, 3, 1, 2], quant_type = 'F32'](%digit_recognizer_v18_1/gb3_gm1_ghost_dw_1/depthwise:0)
  %PPQ_Variable_73 = Transpose[perm = [0, 2, 3, 1], quant_type = 'F32'](%digit_recognizer_v18_1/gb3_sc_dw_bn_1/batchnorm/add_1:0)
  %digit_recognizer_v18_1/gb3_gm1_ghost_bn_1/batchnorm/mul_1:0 = Mul[quant_type = 'F32'](%PPQ_Variable_74, %digit_recognizer_v18_1/gb3_gm1_ghost_bn_1/batchnorm/mul:0)
  %Conv__360:0 = Conv[dilations = [1, 1], group = 1, kernel_shape = [1, 1], pads = [0, 0, 0, 0], quant_type = 'F32', strides = [1, 1]](%PPQ_Variable_73, %digit_recognizer_v18_1/gb3_sc_conv_1/convolution/merged_input:0, %digit_recognizer_v18_1/gb3_sc_bn_1/batchnorm/sub:0)
  %digit_recognizer_v18_1/gb3_gm1_ghost_bn_1/batchnorm/add_1:0 = Add[quant_type = 'F32'](%digit_recognizer_v18_1/gb3_gm1_ghost_bn_1/batchnorm/mul_1:0, %const_fold_opt__598)
  %digit_recognizer_v18_1/gb3_gm1_ghost_relu6_1/Relu6:0 = Clip[quant_type = 'F32'](%digit_recognizer_v18_1/gb3_gm1_ghost_bn_1/batchnorm/add_1:0, %PPQ_Variable_39, %PPQ_Variable_12)
  %digit_recognizer_v18_1/gb3_gm1_concat_1/concat:0 = Concat[axis = 1, quant_type = 'F32'](%PPQ_Variable_75, %digit_recognizer_v18_1/gb3_gm1_ghost_relu6_1/Relu6:0)
  %PPQ_Variable_76 = Transpose[perm = [0, 2, 3, 1], quant_type = 'F32'](%digit_recognizer_v18_1/gb3_gm1_concat_1/concat:0)
  %digit_recognizer_v18_1/gb3_stride_dw_1/depthwise:0 = Conv[dilations = [1, 1], group = 48, kernel_shape = [3, 3], pads = [0, 0, 1, 1], quant_type = 'F32', strides = [2, 2]](%PPQ_Variable_76, %const_fold_opt__606)
  %PPQ_Variable_77 = Transpose[perm = [0, 3, 1, 2], quant_type = 'F32'](%digit_recognizer_v18_1/gb3_stride_dw_1/depthwise:0)
  %digit_recognizer_v18_1/gb3_stride_bn_1/batchnorm/mul_1:0 = Mul[quant_type = 'F32'](%PPQ_Variable_77, %digit_recognizer_v18_1/gb3_stride_bn_1/batchnorm/mul:0)
  %digit_recognizer_v18_1/gb3_stride_bn_1/batchnorm/add_1:0 = Add[quant_type = 'F32'](%digit_recognizer_v18_1/gb3_stride_bn_1/batchnorm/mul_1:0, %const_fold_opt__593)
  %PPQ_Variable_78 = Transpose[perm = [0, 2, 3, 1], quant_type = 'F32'](%digit_recognizer_v18_1/gb3_stride_bn_1/batchnorm/add_1:0)
  %Conv__388:0 = Conv[dilations = [1, 1], group = 1, kernel_shape = [1, 1], pads = [0, 0, 0, 0], quant_type = 'F32', strides = [1, 1]](%PPQ_Variable_78, %digit_recognizer_v18_1/gb3_gm2_primary_conv_1/convolution/merged_input:0, %digit_recognizer_v18_1/gb3_gm2_primary_bn_1/batchnorm/sub:0)
  %digit_recognizer_v18_1/gb3_gm2_primary_relu6_1/Relu6:0 = Clip[quant_type = 'F32'](%Conv__388:0, %PPQ_Variable_40, %PPQ_Variable_13)
  %digit_recognizer_v18_1/gb3_gm2_ghost_dw_1/depthwise:0 = Conv[dilations = [1, 1], group = 24, kernel_shape = [3, 3], pads = [1, 1, 1, 1], quant_type = 'F32', strides = [1, 1]](%digit_recognizer_v18_1/gb3_gm2_primary_relu6_1/Relu6:0, %const_fold_opt__584)
  %PPQ_Variable_80 = Transpose[perm = [0, 3, 1, 2], quant_type = 'F32'](%digit_recognizer_v18_1/gb3_gm2_primary_relu6_1/Relu6:0)
  %PPQ_Variable_79 = Transpose[perm = [0, 3, 1, 2], quant_type = 'F32'](%digit_recognizer_v18_1/gb3_gm2_ghost_dw_1/depthwise:0)
  %digit_recognizer_v18_1/gb3_gm2_ghost_bn_1/batchnorm/mul_1:0 = Mul[quant_type = 'F32'](%PPQ_Variable_79, %digit_recognizer_v18_1/gb3_gm2_ghost_bn_1/batchnorm/mul:0)
  %digit_recognizer_v18_1/gb3_gm2_ghost_bn_1/batchnorm/add_1:0 = Add[quant_type = 'F32'](%digit_recognizer_v18_1/gb3_gm2_ghost_bn_1/batchnorm/mul_1:0, %const_fold_opt__599)
  %digit_recognizer_v18_1/gb3_gm2_ghost_relu6_1/Relu6:0 = Clip[quant_type = 'F32'](%digit_recognizer_v18_1/gb3_gm2_ghost_bn_1/batchnorm/add_1:0, %PPQ_Variable_41, %PPQ_Variable_14)
  %digit_recognizer_v18_1/gb3_gm2_concat_1/concat:0 = Concat[axis = 1, quant_type = 'F32'](%PPQ_Variable_80, %digit_recognizer_v18_1/gb3_gm2_ghost_relu6_1/Relu6:0)
  %PPQ_Variable_81 = Transpose[perm = [0, 2, 3, 1], quant_type = 'F32'](%digit_recognizer_v18_1/gb3_gm2_concat_1/concat:0)
  %Conv__402:0 = Conv[dilations = [1, 1], group = 1, kernel_shape = [1, 1], pads = [0, 0, 0, 0], quant_type = 'F32', strides = [1, 1]](%PPQ_Variable_81, %digit_recognizer_v18_1/gb3_proj_1/convolution/merged_input:0, %digit_recognizer_v18_1/gb3_proj_bn_1/batchnorm/sub:0)
  %digit_recognizer_v18_1/gb3_add_1/Add:0 = Add[quant_type = 'F32'](%Conv__360:0, %Conv__402:0)
  %digit_recognizer_v18_1/gb3_relu6_1/Relu6:0 = Clip[quant_type = 'F32'](%digit_recognizer_v18_1/gb3_add_1/Add:0, %PPQ_Variable_42, %PPQ_Variable_15)
  %Conv__404:0 = Conv[dilations = [1, 1], group = 1, kernel_shape = [1, 1], pads = [0, 0, 0, 0], quant_type = 'F32', strides = [1, 1]](%digit_recognizer_v18_1/gb3_relu6_1/Relu6:0, %digit_recognizer_v18_1/gb4_gm1_primary_conv_1/convolution/merged_input:0, %digit_recognizer_v18_1/gb4_gm1_primary_bn_1/batchnorm/sub:0)
  %digit_recognizer_v18_1/gb4_gm1_primary_relu6_1/Relu6:0 = Clip[quant_type = 'F32'](%Conv__404:0, %PPQ_Variable_43, %PPQ_Variable_16)
  %digit_recognizer_v18_1/gb4_gm1_ghost_dw_1/depthwise:0 = Conv[dilations = [1, 1], group = 24, kernel_shape = [3, 3], pads = [1, 1, 1, 1], quant_type = 'F32', strides = [1, 1]](%digit_recognizer_v18_1/gb4_gm1_primary_relu6_1/Relu6:0, %const_fold_opt__603)
  %PPQ_Variable_83 = Transpose[perm = [0, 3, 1, 2], quant_type = 'F32'](%digit_recognizer_v18_1/gb4_gm1_primary_relu6_1/Relu6:0)
  %PPQ_Variable_82 = Transpose[perm = [0, 3, 1, 2], quant_type = 'F32'](%digit_recognizer_v18_1/gb4_gm1_ghost_dw_1/depthwise:0)
  %digit_recognizer_v18_1/gb4_gm1_ghost_bn_1/batchnorm/mul_1:0 = Mul[quant_type = 'F32'](%PPQ_Variable_82, %digit_recognizer_v18_1/gb4_gm1_ghost_bn_1/batchnorm/mul:0)
  %digit_recognizer_v18_1/gb4_gm1_ghost_bn_1/batchnorm/add_1:0 = Add[quant_type = 'F32'](%digit_recognizer_v18_1/gb4_gm1_ghost_bn_1/batchnorm/mul_1:0, %const_fold_opt__585)
  %digit_recognizer_v18_1/gb4_gm1_ghost_relu6_1/Relu6:0 = Clip[quant_type = 'F32'](%digit_recognizer_v18_1/gb4_gm1_ghost_bn_1/batchnorm/add_1:0, %PPQ_Variable_44, %PPQ_Variable_17)
  %digit_recognizer_v18_1/gb4_gm1_concat_1/concat:0 = Concat[axis = 1, quant_type = 'F32'](%PPQ_Variable_83, %digit_recognizer_v18_1/gb4_gm1_ghost_relu6_1/Relu6:0)
  %PPQ_Variable_84 = Transpose[perm = [0, 2, 3, 1], quant_type = 'F32'](%digit_recognizer_v18_1/gb4_gm1_concat_1/concat:0)
  %Conv__418:0 = Conv[dilations = [1, 1], group = 1, kernel_shape = [1, 1], pads = [0, 0, 0, 0], quant_type = 'F32', strides = [1, 1]](%PPQ_Variable_84, %digit_recognizer_v18_1/gb4_gm2_primary_conv_1/convolution/merged_input:0, %digit_recognizer_v18_1/gb4_gm2_primary_bn_1/batchnorm/sub:0)
  %digit_recognizer_v18_1/gb4_gm2_primary_relu6_1/Relu6:0 = Clip[quant_type = 'F32'](%Conv__418:0, %PPQ_Variable_45, %PPQ_Variable_18)
  %digit_recognizer_v18_1/gb4_gm2_ghost_dw_1/depthwise:0 = Conv[dilations = [1, 1], group = 24, kernel_shape = [3, 3], pads = [1, 1, 1, 1], quant_type = 'F32', strides = [1, 1]](%digit_recognizer_v18_1/gb4_gm2_primary_relu6_1/Relu6:0, %const_fold_opt__569)
  %PPQ_Variable_86 = Transpose[perm = [0, 3, 1, 2], quant_type = 'F32'](%digit_recognizer_v18_1/gb4_gm2_primary_relu6_1/Relu6:0)
  %PPQ_Variable_85 = Transpose[perm = [0, 3, 1, 2], quant_type = 'F32'](%digit_recognizer_v18_1/gb4_gm2_ghost_dw_1/depthwise:0)
  %digit_recognizer_v18_1/gb4_gm2_ghost_bn_1/batchnorm/mul_1:0 = Mul[quant_type = 'F32'](%PPQ_Variable_85, %digit_recognizer_v18_1/gb4_gm2_ghost_bn_1/batchnorm/mul:0)
  %digit_recognizer_v18_1/gb4_gm2_ghost_bn_1/batchnorm/add_1:0 = Add[quant_type = 'F32'](%digit_recognizer_v18_1/gb4_gm2_ghost_bn_1/batchnorm/mul_1:0, %const_fold_opt__607)
  %digit_recognizer_v18_1/gb4_gm2_ghost_relu6_1/Relu6:0 = Clip[quant_type = 'F32'](%digit_recognizer_v18_1/gb4_gm2_ghost_bn_1/batchnorm/add_1:0, %PPQ_Variable_46, %PPQ_Variable_19)
  %digit_recognizer_v18_1/gb4_gm2_concat_1/concat:0 = Concat[axis = 1, quant_type = 'F32'](%PPQ_Variable_86, %digit_recognizer_v18_1/gb4_gm2_ghost_relu6_1/Relu6:0)
  %PPQ_Variable_87 = Transpose[perm = [0, 2, 3, 1], quant_type = 'F32'](%digit_recognizer_v18_1/gb4_gm2_concat_1/concat:0)
  %Conv__432:0 = Conv[dilations = [1, 1], group = 1, kernel_shape = [1, 1], pads = [0, 0, 0, 0], quant_type = 'F32', strides = [1, 1]](%PPQ_Variable_87, %digit_recognizer_v18_1/gb4_proj_1/convolution/merged_input:0, %digit_recognizer_v18_1/gb4_proj_bn_1/batchnorm/sub:0)
  %digit_recognizer_v18_1/gb4_add_1/Add:0 = Add[quant_type = 'F32'](%digit_recognizer_v18_1/gb3_relu6_1/Relu6:0, %Conv__432:0)
  %digit_recognizer_v18_1/gb4_relu6_1/Relu6:0 = Clip[quant_type = 'F32'](%digit_recognizer_v18_1/gb4_add_1/Add:0, %PPQ_Variable_47, %PPQ_Variable_20)
  %digit_recognizer_v18_1/gb5_sc_dw_1/depthwise:0 = Conv[dilations = [1, 1], group = 48, kernel_shape = [3, 3], pads = [1, 1, 1, 1], quant_type = 'F32', strides = [1, 1]](%digit_recognizer_v18_1/gb4_relu6_1/Relu6:0, %const_fold_opt__567)
  %Conv__456:0 = Conv[dilations = [1, 1], group = 1, kernel_shape = [1, 1], pads = [0, 0, 0, 0], quant_type = 'F32', strides = [1, 1]](%digit_recognizer_v18_1/gb4_relu6_1/Relu6:0, %digit_recognizer_v18_1/gb5_gm1_primary_conv_1/convolution/merged_input:0, %digit_recognizer_v18_1/gb5_gm1_primary_bn_1/batchnorm/sub:0)
  %PPQ_Variable_88 = Transpose[perm = [0, 3, 1, 2], quant_type = 'F32'](%digit_recognizer_v18_1/gb5_sc_dw_1/depthwise:0)
  %digit_recognizer_v18_1/gb5_gm1_primary_relu6_1/Relu6:0 = Clip[quant_type = 'F32'](%Conv__456:0, %PPQ_Variable_48, %PPQ_Variable_21)
  %digit_recognizer_v18_1/gb5_sc_dw_bn_1/batchnorm/mul_1:0 = Mul[quant_type = 'F32'](%PPQ_Variable_88, %digit_recognizer_v18_1/gb5_sc_dw_bn_1/batchnorm/mul:0)
  %digit_recognizer_v18_1/gb5_gm1_ghost_dw_1/depthwise:0 = Conv[dilations = [1, 1], group = 32, kernel_shape = [3, 3], pads = [1, 1, 1, 1], quant_type = 'F32', strides = [1, 1]](%digit_recognizer_v18_1/gb5_gm1_primary_relu6_1/Relu6:0, %const_fold_opt__566)
  %PPQ_Variable_91 = Transpose[perm = [0, 3, 1, 2], quant_type = 'F32'](%digit_recognizer_v18_1/gb5_gm1_primary_relu6_1/Relu6:0)
  %digit_recognizer_v18_1/gb5_sc_dw_bn_1/batchnorm/add_1:0 = Add[quant_type = 'F32'](%digit_recognizer_v18_1/gb5_sc_dw_bn_1/batchnorm/mul_1:0, %const_fold_opt__605)
  %PPQ_Variable_90 = Transpose[perm = [0, 3, 1, 2], quant_type = 'F32'](%digit_recognizer_v18_1/gb5_gm1_ghost_dw_1/depthwise:0)
  %PPQ_Variable_89 = Transpose[perm = [0, 2, 3, 1], quant_type = 'F32'](%digit_recognizer_v18_1/gb5_sc_dw_bn_1/batchnorm/add_1:0)
  %digit_recognizer_v18_1/gb5_gm1_ghost_bn_1/batchnorm/mul_1:0 = Mul[quant_type = 'F32'](%PPQ_Variable_90, %digit_recognizer_v18_1/gb5_gm1_ghost_bn_1/batchnorm/mul:0)
  %Conv__446:0 = Conv[dilations = [1, 1], group = 1, kernel_shape = [1, 1], pads = [0, 0, 0, 0], quant_type = 'F32', strides = [1, 1]](%PPQ_Variable_89, %digit_recognizer_v18_1/gb5_sc_conv_1/convolution/merged_input:0, %digit_recognizer_v18_1/gb5_sc_bn_1/batchnorm/sub:0)
  %digit_recognizer_v18_1/gb5_gm1_ghost_bn_1/batchnorm/add_1:0 = Add[quant_type = 'F32'](%digit_recognizer_v18_1/gb5_gm1_ghost_bn_1/batchnorm/mul_1:0, %const_fold_opt__592)
  %digit_recognizer_v18_1/gb5_gm1_ghost_relu6_1/Relu6:0 = Clip[quant_type = 'F32'](%digit_recognizer_v18_1/gb5_gm1_ghost_bn_1/batchnorm/add_1:0, %PPQ_Variable_49, %PPQ_Variable_22)
  %digit_recognizer_v18_1/gb5_gm1_concat_1/concat:0 = Concat[axis = 1, quant_type = 'F32'](%PPQ_Variable_91, %digit_recognizer_v18_1/gb5_gm1_ghost_relu6_1/Relu6:0)
  %PPQ_Variable_92 = Transpose[perm = [0, 2, 3, 1], quant_type = 'F32'](%digit_recognizer_v18_1/gb5_gm1_concat_1/concat:0)
  %Conv__470:0 = Conv[dilations = [1, 1], group = 1, kernel_shape = [1, 1], pads = [0, 0, 0, 0], quant_type = 'F32', strides = [1, 1]](%PPQ_Variable_92, %digit_recognizer_v18_1/gb5_gm2_primary_conv_1/convolution/merged_input:0, %digit_recognizer_v18_1/gb5_gm2_primary_bn_1/batchnorm/sub:0)
  %digit_recognizer_v18_1/gb5_gm2_primary_relu6_1/Relu6:0 = Clip[quant_type = 'F32'](%Conv__470:0, %PPQ_Variable_50, %PPQ_Variable_23)
  %digit_recognizer_v18_1/gb5_gm2_ghost_dw_1/depthwise:0 = Conv[dilations = [1, 1], group = 32, kernel_shape = [3, 3], pads = [1, 1, 1, 1], quant_type = 'F32', strides = [1, 1]](%digit_recognizer_v18_1/gb5_gm2_primary_relu6_1/Relu6:0, %const_fold_opt__565)
  %PPQ_Variable_94 = Transpose[perm = [0, 3, 1, 2], quant_type = 'F32'](%digit_recognizer_v18_1/gb5_gm2_primary_relu6_1/Relu6:0)
  %PPQ_Variable_93 = Transpose[perm = [0, 3, 1, 2], quant_type = 'F32'](%digit_recognizer_v18_1/gb5_gm2_ghost_dw_1/depthwise:0)
  %digit_recognizer_v18_1/gb5_gm2_ghost_bn_1/batchnorm/mul_1:0 = Mul[quant_type = 'F32'](%PPQ_Variable_93, %digit_recognizer_v18_1/gb5_gm2_ghost_bn_1/batchnorm/mul:0)
  %digit_recognizer_v18_1/gb5_gm2_ghost_bn_1/batchnorm/add_1:0 = Add[quant_type = 'F32'](%digit_recognizer_v18_1/gb5_gm2_ghost_bn_1/batchnorm/mul_1:0, %const_fold_opt__591)
  %digit_recognizer_v18_1/gb5_gm2_ghost_relu6_1/Relu6:0 = Clip[quant_type = 'F32'](%digit_recognizer_v18_1/gb5_gm2_ghost_bn_1/batchnorm/add_1:0, %PPQ_Variable_51, %PPQ_Variable_24)
  %digit_recognizer_v18_1/gb5_gm2_concat_1/concat:0 = Concat[axis = 1, quant_type = 'F32'](%PPQ_Variable_94, %digit_recognizer_v18_1/gb5_gm2_ghost_relu6_1/Relu6:0)
  %PPQ_Variable_95 = Transpose[perm = [0, 2, 3, 1], quant_type = 'F32'](%digit_recognizer_v18_1/gb5_gm2_concat_1/concat:0)
  %Conv__484:0 = Conv[dilations = [1, 1], group = 1, kernel_shape = [1, 1], pads = [0, 0, 0, 0], quant_type = 'F32', strides = [1, 1]](%PPQ_Variable_95, %digit_recognizer_v18_1/gb5_proj_1/convolution/merged_input:0, %digit_recognizer_v18_1/gb5_proj_bn_1/batchnorm/sub:0)
  %digit_recognizer_v18_1/gb5_add_1/Add:0 = Add[quant_type = 'F32'](%Conv__446:0, %Conv__484:0)
  %digit_recognizer_v18_1/gb5_relu6_1/Relu6:0 = Clip[quant_type = 'F32'](%digit_recognizer_v18_1/gb5_add_1/Add:0, %PPQ_Variable_52, %PPQ_Variable_25)
  %Conv__486:0 = Conv[dilations = [1, 1], group = 1, kernel_shape = [1, 1], pads = [0, 0, 0, 0], quant_type = 'F32', strides = [1, 1]](%digit_recognizer_v18_1/gb5_relu6_1/Relu6:0, %digit_recognizer_v18_1/head_conv_1/convolution/merged_input:0, %digit_recognizer_v18_1/head_bn_1/batchnorm/sub:0)
  %digit_recognizer_v18_1/head_relu6_1/Relu6:0 = Clip[quant_type = 'F32'](%Conv__486:0, %PPQ_Variable_53, %PPQ_Variable_26)
  %digit_recognizer_v18_1/gap_1/Mean:0 = GlobalAveragePool[quant_type = 'F32'](%digit_recognizer_v18_1/head_relu6_1/Relu6:0)
  %PPQ_Variable_96 = Transpose[perm = [0, 3, 1, 2], quant_type = 'F32'](%digit_recognizer_v18_1/gap_1/Mean:0)
  %digit_recognizer_v18_1/gap_1/Mean_Squeeze__609:0 = Squeeze[quant_type = 'F32'](%PPQ_Variable_96, %const_axes__608)
  %digit_recognizer_v18_1/output_1/MatMul:0 = MatMul[quant_type = 'F32'](%digit_recognizer_v18_1/gap_1/Mean_Squeeze__609:0, %digit_recognizer_v18_1/output_1/Cast/ReadVariableOp:0)
  %digit_recognizer_v18_1/output_1/BiasAdd:0 = Add[quant_type = 'F32'](%digit_recognizer_v18_1/output_1/MatMul:0, %digit_recognizer_v18_1/output_1/BiasAdd/ReadVariableOp:0)
  %output = Softmax[quant_type = 'F32'](%digit_recognizer_v18_1/output_1/BiasAdd:0)
  return %output
}


initializers value:
%const_fold_opt__585, shape: [1, 24, 1, 1], exponents: [0], docString: b'layout ==> UNK', 
value: array([ … dtype=float32)
%digit_recognizer_v18_1/gb2_proj_bn_1/batchnorm/sub:0, shape: [32], exponents: [0], docString: b'layout ==> UNK', 
value: array([ … dtype=float32)
%digit_recognizer_v18_1/entry_bn_1/batchnorm/sub:0, shape: [16], exponents: [0], docString: b'layout ==> UNK', 
value: array([ … dtype=float32)
%digit_recognizer_v18_1/gb3_gm2_primary_bn_1/batchnorm/sub:0, shape: [24], exponents: [0], docString: b'layout ==> UNK', 
value: array([ … dtype=float32)
%digit_recognizer_v18_1/gb1_gm1_primary_conv_1/convolution/merged_input:0, shape: [12, 16, 1, 1], exponents: [0], docString: b'layout ==> UNK', 
value: array([ … dtype=float32)
%const_fold_opt__565, shape: [32, 1, 3, 3], exponents: [0], docString: b'layout ==> UNK', 
value: array([ … dtype=float32)
%digit_recognizer_v18_1/gb1_stride_bn_1/batchnorm/mul:0, shape: [1, 24, 1, 1], exponents: [0], docString: b'layout ==> UNK', 
value: array([… dtype=float32)
%digit_recognizer_v18_1/gb2_sc_dw_bn_1/batchnorm/mul:0, shape: [1, 24, 1, 1], exponents: [0], docString: b'layout ==> UNK', 
value: array([… dtype=float32)
%digit_recognizer_v18_1/gb4_proj_bn_1/batchnorm/sub:0, shape: [48], exponents: [0], docString: b'layout ==> UNK', 
value: array([ … dtype=float32)
%digit_recognizer_v18_1/gb1_gm2_ghost_bn_1/batchnorm/mul:0, shape: [1, 12, 1, 1], exponents: [0], docString: b'layout ==> UNK', 
value: array([1.0570431 , 1.2889843 , 0.63807   , 0.98669916, 1.509001  ,
       0.80283105, 1.2896422 , 0.65666604, 0.99908507, 0.90177876,
       0.77746487, 0.59939086], dtype=float32)
%digit_recognizer_v18_1/head_bn_1/batchnorm/sub:0, shape: [112], exponents: [0], docString: b'layout ==> UNK', 
value: array([ … dtype=float32)
%const_fold_opt__607, shape: [1, 24, 1, 1], exponents: [0], docString: b'layout ==> UNK', 
value: array([… dtype=float32)
%digit_recognizer_v18_1/gb3_gm2_primary_conv_1/convolution/merged_input:0, shape: [24, 48, 1, 1], exponents: [0], docString: b'layout ==> UNK', 
value: array([… dtype=float32)
%digit_recognizer_v18_1/gb2_gm2_ghost_bn_1/batchnorm/mul:0, shape: [1, 16, 1, 1], exponents: [0], docString: b'layout ==> UNK', 
value: array([… dtype=float32)
%digit_recognizer_v18_1/gb5_gm2_primary_conv_1/convolution/merged_input:0, shape: [32, 64, 1, 1], exponents: [0], docString: b'layout ==> UNK', 
value: array([… dtype=float32)
%digit_recognizer_v18_1/output_1/BiasAdd/ReadVariableOp:0, shape: [10], exponents: [0], docString: b'layout ==> UNK', 
value: array([ 0.24236877, -0.15162334,  0.00855236, -0.10298936,  0.03508884,
        0.00983785, -0.02639315,  0.09629864, -0.08161879, -0.1502167 ,
        0.        ,  0.        ], dtype=float32)
%const_fold_opt__605, shape: [1, 48, 1, 1], exponents: [0], docString: b'layout ==> UNK', 
value: array([… dtype=float32)
%digit_recognizer_v18_1/gb5_sc_bn_1/batchnorm/sub:0, shape: [64], exponents: [0], docString: b'layout ==> UNK', 
value: array([… dtype=float32)
%const_fold_opt__600, shape: [1, 16, 1, 1], exponents: [0], docString: b'layout ==> UNK', 
value: array([… dtype=float32)
%const_fold_opt__606, shape: [48, 1, 3, 3], exponents: [0], docString: b'layout ==> UNK', 
value: array([ … dtype=float32)
%digit_recognizer_v18_1/gb3_sc_dw_bn_1/batchnorm/mul:0, shape: [1, 32, 1, 1], exponents: [0], docString: b'layout ==> UNK', 
value: array([… dtype=float32)
%digit_recognizer_v18_1/gb2_gm2_primary_bn_1/batchnorm/sub:0, shape: [16], exponents: [0], docString: b'layout ==> UNK', 
value: array([ … dtype=float32)
%digit_recognizer_v18_1/gb2_gm1_ghost_bn_1/batchnorm/mul:0, shape: [1, 16, 1, 1], exponents: [0], docString: b'layout ==> UNK', 
value: array([… dtype=float32)
%digit_recognizer_v18_1/gb4_gm2_primary_conv_1/convolution/merged_input:0, shape: [24, 48, 1, 1], exponents: [0], docString: b'layout ==> UNK', 
value: array([… dtype=float32)
%digit_recognizer_v18_1/gb5_gm1_primary_bn_1/batchnorm/sub:0, shape: [32], exponents: [0], docString: b'layout ==> UNK', 
value: array([… dtype=float32)
%const_fold_opt__603, shape: [24, 1, 3, 3], exponents: [0], docString: b'layout ==> UNK', 
value: array([ … dtype=float32)
%const_fold_opt__567, shape: [48, 1, 3, 3], exponents: [0], docString: b'layout ==> UNK', 
value: array([ … dtype=float32)
%digit_recognizer_v18_1/gb5_sc_conv_1/convolution/merged_input:0, shape: [64, 48, 1, 1], exponents: [0], docString: b'layout ==> UNK', 
value: array([… dtype=float32)
%const_fold_opt__571, shape: [16, 1, 3, 3], exponents: [0], docString: b'layout ==> UNK', 
value: array([ … dtype=float32)
%digit_recognizer_v18_1/gb4_proj_1/convolution/merged_input:0, shape: [48, 48, 1, 1], exponents: [0], docString: b'layout ==> UNK', 
value: array([ … dtype=float32)
%digit_recognizer_v18_1/gb3_sc_conv_1/convolution/merged_input:0, shape: [48, 32, 1, 1], exponents: [0], docString: b'layout ==> UNK', 
value: array([… dtype=float32)
%digit_recognizer_v18_1/gb1_gm2_primary_conv_1/convolution/merged_input:0, shape: [12, 24, 1, 1], exponents: [0], docString: b'layout ==> UNK', 
value: array([ … dtype=float32)
%const_fold_opt__602, shape: [1, 16, 1, 1], exponents: [0], docString: b'layout ==> UNK', 
value: array([ … dtype=float32)
%const_fold_opt__594, shape: [1, 24, 1, 1], exponents: [0], docString: b'layout ==> UNK', 
value: array([ … dtype=float32)
%digit_recognizer_v18_1/gb3_proj_1/convolution/merged_input:0, shape: [48, 48, 1, 1], exponents: [0], docString: b'layout ==> UNK', 
value: array([ … dtype=float32)
%digit_recognizer_v18_1/gb1_sc_dw_bn_1/batchnorm/mul:0, shape: [1, 16, 1, 1], exponents: [0], docString: b'layout ==> UNK', 
value: array([… dtype=float32)
%digit_recognizer_v18_1/gb4_gm1_primary_conv_1/convolution/merged_input:0, shape: [24, 48, 1, 1], exponents: [0], docString: b'layout ==> UNK', 
value: array([… dtype=float32)
%const_fold_opt__586, shape: [24, 1, 3, 3], exponents: [0], docString: b'layout ==> UNK', 
value: array([ … dtype=float32)
%digit_recognizer_v18_1/gb3_gm1_ghost_bn_1/batchnorm/mul:0, shape: [1, 24, 1, 1], exponents: [0], docString: b'layout ==> UNK', 
value: array([… dtype=float32)
%const_fold_opt__588, shape: [32, 1, 3, 3], exponents: [0], docString: b'layout ==> UNK', 
value: array([… dtype=float32)
%const_fold_opt__601, shape: [1, 16, 1, 1], exponents: [0], docString: b'layout ==> UNK', 
value: array([… dtype=float32)
%digit_recognizer_v18_1/output_1/Cast/ReadVariableOp:0, shape: [112, 10], exponents: [0], docString: b'layout ==> UNK', 
value: array([… dtype=float32)
%digit_recognizer_v18_1/gb1_gm1_ghost_bn_1/batchnorm/mul:0, shape: [1, 12, 1, 1], exponents: [0], docString: b'layout ==> UNK', 
value: array([0.67707723, 1.7793101 , 1.1487579 , 0.94505054, 2.4169354 ,
       3.1998096 , 0.5865492 , 2.0969248 , 0.37470168, 3.1272194 ,
       1.7164104 , 2.1329389 ], dtype=float32)
%const_fold_opt__576, shape: [24, 1, 3, 3], exponents: [0], docString: b'layout ==> UNK', 
value: array([… dtype=float32)
%digit_recognizer_v18_1/gb4_gm1_primary_bn_1/batchnorm/sub:0, shape: [24], exponents: [0], docString: b'layout ==> UNK', 
value: array([ … dtype=float32)
%const_fold_opt__597, shape: [1, 24, 1, 1], exponents: [0], docString: b'layout ==> UNK', 
value: array([ … dtype=float32)
%digit_recognizer_v18_1/gb1_gm2_primary_bn_1/batchnorm/sub:0, shape: [12], exponents: [0], docString: b'layout ==> UNK', 
value: array([ 0.20367011, -0.01126328, -0.04134509, -0.0036672 , -0.02658359,
        0.7609919 ,  0.43352437,  0.6990877 ,  0.44508788,  0.25173026,
        0.33846962,  0.31877002], dtype=float32)
%digit_recognizer_v18_1/gb2_proj_1/convolution/merged_input:0, shape: [32, 32, 1, 1], exponents: [0], docString: b'layout ==> UNK', 
value: array([ … dtype=float32)
%const_fold_opt__569, shape: [24, 1, 3, 3], exponents: [0], docString: b'layout ==> UNK', 
value: array([ … dtype=float32)
%digit_recognizer_v18_1/gb3_sc_bn_1/batchnorm/sub:0, shape: [48], exponents: [0], docString: b'layout ==> UNK', 
value: array([ … dtype=float32)
%const_fold_opt__575, shape: [16, 1, 3, 3], exponents: [0], docString: b'layout ==> UNK', 
value: array([ … dtype=float32)
%const_fold_opt__596, shape: [1, 12, 1, 1], exponents: [0], docString: b'layout ==> UNK', 
value: array([ 0.68434554,  0.08195274, -1.413066  , -1.1959738 , -0.3591564 ,
        0.63491726,  0.8619571 ,  0.23992303,  0.94913554, -0.91014344,
        0.4945555 ,  1.4882925 ], dtype=float32)
%digit_recognizer_v18_1/gb2_gm1_primary_conv_1/convolution/merged_input:0, shape: [16, 24, 1, 1], exponents: [0], docString: b'layout ==> UNK', 
value: array([ … dtype=float32)
%digit_recognizer_v18_1/entry_conv_1/convolution/merged_input:0, shape: [16, 3, 3, 3], exponents: [0], docString: b'layout ==> UNK', 
value: array([… dtype=float32)
%const_fold_opt__592, shape: [1, 32, 1, 1], exponents: [0], docString: b'layout ==> UNK', 
value: array([… dtype=float32)
%digit_recognizer_v18_1/gb1_sc_conv_1/convolution/merged_input:0, shape: [24, 16, 1, 1], exponents: [0], docString: b'layout ==> UNK', 
value: array([ … dtype=float32)
%digit_recognizer_v18_1/gb5_sc_dw_bn_1/batchnorm/mul:0, shape: [1, 48, 1, 1], exponents: [0], docString: b'layout ==> UNK', 
value: array([… dtype=float32)
%digit_recognizer_v18_1/gb2_sc_bn_1/batchnorm/sub:0, shape: [32], exponents: [0], docString: b'layout ==> UNK', 
value: array([… dtype=float32)
%digit_recognizer_v18_1/gb2_gm1_primary_bn_1/batchnorm/sub:0, shape: [16], exponents: [0], docString: b'layout ==> UNK', 
value: array([… dtype=float32)
%const_fold_opt__581, shape: [12, 1, 3, 3], exponents: [0], docString: b'layout ==> UNK', 
value: array([… dtype=float32)
%const_fold_opt__593, shape: [1, 48, 1, 1], exponents: [0], docString: b'layout ==> UNK', 
value: array([ … dtype=float32)
%digit_recognizer_v18_1/gb5_gm2_ghost_bn_1/batchnorm/mul:0, shape: [1, 32, 1, 1], exponents: [0], docString: b'layout ==> UNK', 
value: array([… dtype=float32)
%const_fold_opt__591, shape: [1, 32, 1, 1], exponents: [0], docString: b'layout ==> UNK', 
value: array([… dtype=float32)
%digit_recognizer_v18_1/gb5_gm2_primary_bn_1/batchnorm/sub:0, shape: [32], exponents: [0], docString: b'layout ==> UNK', 
value: array([ … dtype=float32)
%const_fold_opt__589, shape: [16, 1, 3, 3], exponents: [0], docString: b'layout ==> UNK', 
value: array([… dtype=float32)
%const_fold_opt__579, shape: [24, 1, 3, 3], exponents: [0], docString: b'layout ==> UNK', 
value: array([… dtype=float32)
%const_fold_opt__599, shape: [1, 24, 1, 1], exponents: [0], docString: b'layout ==> UNK', 
value: array([ … dtype=float32)
%digit_recognizer_v18_1/gb4_gm1_ghost_bn_1/batchnorm/mul:0, shape: [1, 24, 1, 1], exponents: [0], docString: b'layout ==> UNK', 
value: array([… dtype=float32)
%digit_recognizer_v18_1/gb1_proj_1/convolution/merged_input:0, shape: [24, 24, 1, 1], exponents: [0], docString: b'layout ==> UNK', 
value: array([ … dtype=float32)
%digit_recognizer_v18_1/gb3_stride_bn_1/batchnorm/mul:0, shape: [1, 48, 1, 1], exponents: [0], docString: b'layout ==> UNK', 
value: array([… dtype=float32)
%const_fold_opt__578, shape: [12, 1, 3, 3], exponents: [0], docString: b'layout ==> UNK', 
value: array([ … dtype=float32)
%digit_recognizer_v18_1/gb3_gm1_primary_bn_1/batchnorm/sub:0, shape: [24], exponents: [0], docString: b'layout ==> UNK', 
value: array([ … dtype=float32)
%const_axes__608, shape: [2], exponents: [0], docString: b'layout ==> UNK', 
value: array([2, 3], dtype=int64)
%digit_recognizer_v18_1/gb1_gm1_primary_bn_1/batchnorm/sub:0, shape: [12], exponents: [0], docString: b'layout ==> UNK', 
value: array([ 0.91887695,  1.3058097 ,  0.80605125,  4.7913694 ,  0.726588  ,
       -0.53973603, -1.8122281 ,  0.29832864, -0.13723908,  1.1835281 ,
        0.84169805,  0.7001637 ], dtype=float32)
%digit_recognizer_v18_1/gb4_gm2_primary_bn_1/batchnorm/sub:0, shape: [24], exponents: [0], docString: b'layout ==> UNK', 
value: array([ … dtype=float32)
%digit_recognizer_v18_1/gb5_gm1_ghost_bn_1/batchnorm/mul:0, shape: [1, 32, 1, 1], exponents: [0], docString: b'layout ==> UNK', 
value: array([… dtype=float32)
%digit_recognizer_v18_1/gb3_gm2_ghost_bn_1/batchnorm/mul:0, shape: [1, 24, 1, 1], exponents: [0], docString: b'layout ==> UNK', 
value: array([… dtype=float32)
%const_fold_opt__584, shape: [24, 1, 3, 3], exponents: [0], docString: b'layout ==> UNK', 
value: array([… dtype=float32)
%digit_recognizer_v18_1/gb4_gm2_ghost_bn_1/batchnorm/mul:0, shape: [1, 24, 1, 1], exponents: [0], docString: b'layout ==> UNK', 
value: array([… dtype=float32)
%digit_recognizer_v18_1/gb5_proj_1/convolution/merged_input:0, shape: [64, 64, 1, 1], exponents: [0], docString: b'layout ==> UNK', 
value: array([ … dtype=float32)
%const_fold_opt__564, shape: [1, 12, 1, 1], exponents: [0], docString: b'layout ==> UNK', 
value: array([ 0.34239367,  0.49373823,  0.32339713,  0.76926005,  0.01276092,
        0.2418689 ,  0.20942432, -0.08538869, -1.280835  , -0.10472423,
        0.356888  ,  1.1864867 ], dtype=float32)
%const_fold_opt__566, shape: [32, 1, 3, 3], exponents: [0], docString: b'layout ==> UNK', 
value: array([… dtype=float32)
%digit_recognizer_v18_1/gb3_proj_bn_1/batchnorm/sub:0, shape: [48], exponents: [0], docString: b'layout ==> UNK', 
value: array([… dtype=float32)
%digit_recognizer_v18_1/gb5_proj_bn_1/batchnorm/sub:0, shape: [64], exponents: [0], docString: b'layout ==> UNK', 
value: array([ … dtype=float32)
%digit_recognizer_v18_1/gb3_gm1_primary_conv_1/convolution/merged_input:0, shape: [24, 32, 1, 1], exponents: [0], docString: b'layout ==> UNK', 
value: array([… dtype=float32)
%digit_recognizer_v18_1/gb1_sc_bn_1/batchnorm/sub:0, shape: [24], exponents: [0], docString: b'layout ==> UNK', 
value: array([… dtype=float32)
%digit_recognizer_v18_1/gb5_gm1_primary_conv_1/convolution/merged_input:0, shape: [32, 48, 1, 1], exponents: [0], docString: b'layout ==> UNK', 
value: array([… dtype=float32)
%digit_recognizer_v18_1/gb1_proj_bn_1/batchnorm/sub:0, shape: [24], exponents: [0], docString: b'layout ==> UNK', 
value: array([… dtype=float32)
%digit_recognizer_v18_1/gb2_gm2_primary_conv_1/convolution/merged_input:0, shape: [16, 32, 1, 1], exponents: [0], docString: b'layout ==> UNK', 
value: array([… dtype=float32)
%digit_recognizer_v18_1/head_conv_1/convolution/merged_input:0, shape: [112, 64, 1, 1], exponents: [0], docString: b'layout ==> UNK', 
value: array([ … dtype=float32)
%digit_recognizer_v18_1/gb2_sc_conv_1/convolution/merged_input:0, shape: [32, 24, 1, 1], exponents: [0], docString: b'layout ==> UNK', 
value: array([… dtype=float32)
%const_fold_opt__598, shape: [1, 24, 1, 1], exponents: [0], docString: b'layout ==> UNK', 
value: array([… dtype=float32)
%const_fold_opt__595, shape: [1, 32, 1, 1], exponents: [0], docString: b'layout ==> UNK', 
value: array([… dtype=float32)
%PPQ_Variable_0, shape: [1], exponents: [0], docString: b'layout ==> UNK', 
value: array([6., 0., 0., 0.], dtype=float32)
%PPQ_Variable_1, shape: [1], exponents: [0], docString: b'layout ==> UNK', 
value: array([6., 0., 0., 0.], dtype=float32)
%PPQ_Variable_2, shape: [1], exponents: [0], docString: b'layout ==> UNK', 
value: array([6., 0., 0., 0.], dtype=float32)
%PPQ_Variable_3, shape: [1], exponents: [0], docString: b'layout ==> UNK', 
value: array([6., 0., 0., 0.], dtype=float32)
%PPQ_Variable_4, shape: [1], exponents: [0], docString: b'layout ==> UNK', 
value: array([6., 0., 0., 0.], dtype=float32)
%PPQ_Variable_5, shape: [1], exponents: [0], docString: b'layout ==> UNK', 
value: array([6., 0., 0., 0.], dtype=float32)
%PPQ_Variable_6, shape: [1], exponents: [0], docString: b'layout ==> UNK', 
value: array([6., 0., 0., 0.], dtype=float32)
%PPQ_Variable_7, shape: [1], exponents: [0], docString: b'layout ==> UNK', 
value: array([6., 0., 0., 0.], dtype=float32)
%PPQ_Variable_8, shape: [1], exponents: [0], docString: b'layout ==> UNK', 
value: array([6., 0., 0., 0.], dtype=float32)
%PPQ_Variable_9, shape: [1], exponents: [0], docString: b'layout ==> UNK', 
value: array([6., 0., 0., 0.], dtype=float32)
%PPQ_Variable_10, shape: [1], exponents: [0], docString: b'layout ==> UNK', 
value: array([6., 0., 0., 0.], dtype=float32)
%PPQ_Variable_11, shape: [1], exponents: [0], docString: b'layout ==> UNK', 
value: array([6., 0., 0., 0.], dtype=float32)
%PPQ_Variable_12, shape: [1], exponents: [0], docString: b'layout ==> UNK', 
value: array([6., 0., 0., 0.], dtype=float32)
%PPQ_Variable_13, shape: [1], exponents: [0], docString: b'layout ==> UNK', 
value: array([6., 0., 0., 0.], dtype=float32)
%PPQ_Variable_14, shape: [1], exponents: [0], docString: b'layout ==> UNK', 
value: array([6., 0., 0., 0.], dtype=float32)
%PPQ_Variable_15, shape: [1], exponents: [0], docString: b'layout ==> UNK', 
value: array([6., 0., 0., 0.], dtype=float32)
%PPQ_Variable_16, shape: [1], exponents: [0], docString: b'layout ==> UNK', 
value: array([6., 0., 0., 0.], dtype=float32)
%PPQ_Variable_17, shape: [1], exponents: [0], docString: b'layout ==> UNK', 
value: array([6., 0., 0., 0.], dtype=float32)
%PPQ_Variable_18, shape: [1], exponents: [0], docString: b'layout ==> UNK', 
value: array([6., 0., 0., 0.], dtype=float32)
%PPQ_Variable_19, shape: [1], exponents: [0], docString: b'layout ==> UNK', 
value: array([6., 0., 0., 0.], dtype=float32)
%PPQ_Variable_20, shape: [1], exponents: [0], docString: b'layout ==> UNK', 
value: array([6., 0., 0., 0.], dtype=float32)
%PPQ_Variable_21, shape: [1], exponents: [0], docString: b'layout ==> UNK', 
value: array([6., 0., 0., 0.], dtype=float32)
%PPQ_Variable_22, shape: [1], exponents: [0], docString: b'layout ==> UNK', 
value: array([6., 0., 0., 0.], dtype=float32)
%PPQ_Variable_23, shape: [1], exponents: [0], docString: b'layout ==> UNK', 
value: array([6., 0., 0., 0.], dtype=float32)
%PPQ_Variable_24, shape: [1], exponents: [0], docString: b'layout ==> UNK', 
value: array([6., 0., 0., 0.], dtype=float32)
%PPQ_Variable_25, shape: [1], exponents: [0], docString: b'layout ==> UNK', 
value: array([6., 0., 0., 0.], dtype=float32)
%PPQ_Variable_26, shape: [1], exponents: [0], docString: b'layout ==> UNK', 
value: array([6., 0., 0., 0.], dtype=float32)
%PPQ_Variable_27, shape: [1], exponents: [0], docString: b'layout ==> UNK', 
value: array([0., 0., 0., 0.], dtype=float32)
%PPQ_Variable_28, shape: [1], exponents: [0], docString: b'layout ==> UNK', 
value: array([0., 0., 0., 0.], dtype=float32)
%PPQ_Variable_29, shape: [1], exponents: [0], docString: b'layout ==> UNK', 
value: array([0., 0., 0., 0.], dtype=float32)
%PPQ_Variable_30, shape: [1], exponents: [0], docString: b'layout ==> UNK', 
value: array([0., 0., 0., 0.], dtype=float32)
%PPQ_Variable_31, shape: [1], exponents: [0], docString: b'layout ==> UNK', 
value: array([0., 0., 0., 0.], dtype=float32)
%PPQ_Variable_32, shape: [1], exponents: [0], docString: b'layout ==> UNK', 
value: array([0., 0., 0., 0.], dtype=float32)
%PPQ_Variable_33, shape: [1], exponents: [0], docString: b'layout ==> UNK', 
value: array([0., 0., 0., 0.], dtype=float32)
%PPQ_Variable_34, shape: [1], exponents: [0], docString: b'layout ==> UNK', 
value: array([0., 0., 0., 0.], dtype=float32)
%PPQ_Variable_35, shape: [1], exponents: [0], docString: b'layout ==> UNK', 
value: array([0., 0., 0., 0.], dtype=float32)
%PPQ_Variable_36, shape: [1], exponents: [0], docString: b'layout ==> UNK', 
value: array([0., 0., 0., 0.], dtype=float32)
%PPQ_Variable_37, shape: [1], exponents: [0], docString: b'layout ==> UNK', 
value: array([0., 0., 0., 0.], dtype=float32)
%PPQ_Variable_38, shape: [1], exponents: [0], docString: b'layout ==> UNK', 
value: array([0., 0., 0., 0.], dtype=float32)
%PPQ_Variable_39, shape: [1], exponents: [0], docString: b'layout ==> UNK', 
value: array([0., 0., 0., 0.], dtype=float32)
%PPQ_Variable_40, shape: [1], exponents: [0], docString: b'layout ==> UNK', 
value: array([0., 0., 0., 0.], dtype=float32)
%PPQ_Variable_41, shape: [1], exponents: [0], docString: b'layout ==> UNK', 
value: array([0., 0., 0., 0.], dtype=float32)
%PPQ_Variable_42, shape: [1], exponents: [0], docString: b'layout ==> UNK', 
value: array([0., 0., 0., 0.], dtype=float32)
%PPQ_Variable_43, shape: [1], exponents: [0], docString: b'layout ==> UNK', 
value: array([0., 0., 0., 0.], dtype=float32)
%PPQ_Variable_44, shape: [1], exponents: [0], docString: b'layout ==> UNK', 
value: array([0., 0., 0., 0.], dtype=float32)
%PPQ_Variable_45, shape: [1], exponents: [0], docString: b'layout ==> UNK', 
value: array([0., 0., 0., 0.], dtype=float32)
%PPQ_Variable_46, shape: [1], exponents: [0], docString: b'layout ==> UNK', 
value: array([0., 0., 0., 0.], dtype=float32)
%PPQ_Variable_47, shape: [1], exponents: [0], docString: b'layout ==> UNK', 
value: array([0., 0., 0., 0.], dtype=float32)
%PPQ_Variable_48, shape: [1], exponents: [0], docString: b'layout ==> UNK', 
value: array([0., 0., 0., 0.], dtype=float32)
%PPQ_Variable_49, shape: [1], exponents: [0], docString: b'layout ==> UNK', 
value: array([0., 0., 0., 0.], dtype=float32)
%PPQ_Variable_50, shape: [1], exponents: [0], docString: b'layout ==> UNK', 
value: array([0., 0., 0., 0.], dtype=float32)
%PPQ_Variable_51, shape: [1], exponents: [0], docString: b'layout ==> UNK', 
value: array([0., 0., 0., 0.], dtype=float32)
%PPQ_Variable_52, shape: [1], exponents: [0], docString: b'layout ==> UNK', 
value: array([0., 0., 0., 0.], dtype=float32)
%PPQ_Variable_53, shape: [1], exponents: [0], docString: b'layout ==> UNK', 
value: array([0., 0., 0., 0.], dtype=float32)


values info:
%digit_recognizer_v18_1/gb4_gm2_concat_1/concat:0[FLOAT, 1x48x8x5], exponents: [0]
%digit_recognizer_v18_1/gb2_gm1_ghost_relu6_1/Relu6:0[FLOAT, 1x16x16x10], exponents: [0]
%digit_recognizer_v18_1/gb3_gm2_primary_relu6_1/Relu6:0[FLOAT, 1x8x5x24], exponents: [0]
%digit_recognizer_v18_1/gb1_gm2_concat_1/concat:0[FLOAT, 1x24x16x10], exponents: [0]
%digit_recognizer_v18_1/gb4_gm1_ghost_bn_1/batchnorm/add_1:0[FLOAT, 1x24x8x5], exponents: [0]
%Conv__258:0[FLOAT, 1x32x20x16], exponents: [0]
%digit_recognizer_v18_1/gb3_sc_dw_bn_1/batchnorm/add_1:0[FLOAT, 1x32x8x5], exponents: [0]
%digit_recognizer_v18_1/head_relu6_1/Relu6:0[FLOAT, 1x8x5x112], exponents: [0]
%digit_recognizer_v18_1/gb1_sc_dw_bn_1/batchnorm/mul_1:0[FLOAT, 1x16x16x10], exponents: [0]
%digit_recognizer_v18_1/gb2_gm1_primary_relu6_1/Relu6:0[FLOAT, 1x16x10x16], exponents: [0]
%digit_recognizer_v18_1/gb1_gm1_ghost_bn_1/batchnorm/add_1:0[FLOAT, 1x12x32x20], exponents: [0]
%digit_recognizer_v18_1/gb4_gm2_ghost_bn_1/batchnorm/add_1:0[FLOAT, 1x24x8x5], exponents: [0]
%digit_recognizer_v18_1/gb4_add_1/Add:0[FLOAT, 1x8x5x48], exponents: [0]
%digit_recognizer_v18_1/gb1_stride_dw_1/depthwise:0[FLOAT, 1x16x10x24], exponents: [0]
%digit_recognizer_v18_1/gb2_gm2_ghost_bn_1/batchnorm/mul_1:0[FLOAT, 1x16x16x10], exponents: [0]
%digit_recognizer_v18_1/gb3_stride_bn_1/batchnorm/add_1:0[FLOAT, 1x48x8x5], exponents: [0]
%digit_recognizer_v18_1/gb1_add_1/Add:0[FLOAT, 1x16x10x24], exponents: [0]
%digit_recognizer_v18_1/gb5_sc_dw_bn_1/batchnorm/mul_1:0[FLOAT, 1x48x8x5], exponents: [0]
%digit_recognizer_v18_1/gb1_gm2_ghost_bn_1/batchnorm/add_1:0[FLOAT, 1x12x16x10], exponents: [0]
%digit_recognizer_v18_1/gb2_sc_dw_1/depthwise:0[FLOAT, 1x16x10x24], exponents: [0]
%digit_recognizer_v18_1/gb1_gm1_primary_relu6_1/Relu6:0[FLOAT, 1x32x20x12], exponents: [0]
%digit_recognizer_v18_1/gb5_gm1_ghost_dw_1/depthwise:0[FLOAT, 1x8x5x32], exponents: [0]
%digit_recognizer_v18_1/gb2_gm1_concat_1/concat:0[FLOAT, 1x32x16x10], exponents: [0]
%Conv__296:0[FLOAT, 1x16x10x24], exponents: [0]
%digit_recognizer_v18_1/gb1_gm2_ghost_bn_1/batchnorm/mul_1:0[FLOAT, 1x12x16x10], exponents: [0]
%digit_recognizer_v18_1/gb5_gm1_primary_relu6_1/Relu6:0[FLOAT, 1x8x5x32], exponents: [0]
%digit_recognizer_v18_1/gb1_gm1_ghost_relu6_1/Relu6:0[FLOAT, 1x12x32x20], exponents: [0]
%digit_recognizer_v18_1/gb3_gm1_ghost_dw_1/depthwise:0[FLOAT, 1x16x10x24], exponents: [0]
%digit_recognizer_v18_1/gb4_relu6_1/Relu6:0[FLOAT, 1x8x5x48], exponents: [0]
%Conv__484:0[FLOAT, 1x8x5x64], exponents: [0]
%Conv__404:0[FLOAT, 1x8x5x24], exponents: [0]
%Conv__316:0[FLOAT, 1x16x10x32], exponents: [0]
%Conv__340:0[FLOAT, 1x16x10x16], exponents: [0]
%digit_recognizer_v18_1/gb4_gm1_ghost_bn_1/batchnorm/mul_1:0[FLOAT, 1x24x8x5], exponents: [0]
%digit_recognizer_v18_1/gb2_gm1_ghost_bn_1/batchnorm/mul_1:0[FLOAT, 1x16x16x10], exponents: [0]
%digit_recognizer_v18_1/gb3_stride_bn_1/batchnorm/mul_1:0[FLOAT, 1x48x8x5], exponents: [0]
%digit_recognizer_v18_1/gb3_stride_dw_1/depthwise:0[FLOAT, 1x8x5x48], exponents: [0]
%digit_recognizer_v18_1/gb4_gm2_ghost_relu6_1/Relu6:0[FLOAT, 1x24x8x5], exponents: [0]
%output[FLOAT, 1x10], exponents: [0]
%Conv__402:0[FLOAT, 1x8x5x48], exponents: [0]
%digit_recognizer_v18_1/gb4_gm1_concat_1/concat:0[FLOAT, 1x48x8x5], exponents: [0]
%Conv__360:0[FLOAT, 1x8x5x48], exponents: [0]
%digit_recognizer_v18_1/output_1/MatMul:0[FLOAT, 1x10], exponents: [0]
%digit_recognizer_v18_1/gb1_gm2_primary_relu6_1/Relu6:0[FLOAT, 1x16x10x12], exponents: [0]
%Conv__370:0[FLOAT, 1x16x10x24], exponents: [0]
%digit_recognizer_v18_1/gb5_gm2_primary_relu6_1/Relu6:0[FLOAT, 1x8x5x32], exponents: [0]
%digit_recognizer_v18_1/gb1_sc_dw_1/depthwise:0[FLOAT, 1x16x10x16], exponents: [0]
%digit_recognizer_v18_1/gb5_sc_dw_1/depthwise:0[FLOAT, 1x8x5x48], exponents: [0]
%Conv__446:0[FLOAT, 1x8x5x64], exponents: [0]
%digit_recognizer_v18_1/gb2_add_1/Add:0[FLOAT, 1x16x10x32], exponents: [0]
%digit_recognizer_v18_1/gb1_gm1_ghost_dw_1/depthwise:0[FLOAT, 1x32x20x12], exponents: [0]
%digit_recognizer_v18_1/gb5_gm2_concat_1/concat:0[FLOAT, 1x64x8x5], exponents: [0]
%Conv__388:0[FLOAT, 1x8x5x24], exponents: [0]
%digit_recognizer_v18_1/entry_relu6_1/Relu6:0[FLOAT, 1x32x20x16], exponents: [0]
%digit_recognizer_v18_1/gb5_sc_dw_bn_1/batchnorm/add_1:0[FLOAT, 1x48x8x5], exponents: [0]
%Conv__354:0[FLOAT, 1x16x10x32], exponents: [0]
%digit_recognizer_v18_1/gb3_sc_dw_bn_1/batchnorm/mul_1:0[FLOAT, 1x32x8x5], exponents: [0]
%input[FLOAT, 1x32x20x3], exponents: [0]
%digit_recognizer_v18_1/gb4_gm1_ghost_dw_1/depthwise:0[FLOAT, 1x8x5x24], exponents: [0]
%digit_recognizer_v18_1/gb3_gm1_concat_1/concat:0[FLOAT, 1x48x16x10], exponents: [0]
%digit_recognizer_v18_1/gb5_gm1_ghost_relu6_1/Relu6:0[FLOAT, 1x32x8x5], exponents: [0]
%Conv__470:0[FLOAT, 1x8x5x32], exponents: [0]
%Conv__456:0[FLOAT, 1x8x5x32], exponents: [0]
%digit_recognizer_v18_1/gb3_gm1_ghost_relu6_1/Relu6:0[FLOAT, 1x24x16x10], exponents: [0]
%digit_recognizer_v18_1/gb1_gm1_ghost_bn_1/batchnorm/mul_1:0[FLOAT, 1x12x32x20], exponents: [0]
%digit_recognizer_v18_1/gb1_gm2_ghost_dw_1/depthwise:0[FLOAT, 1x16x10x12], exponents: [0]
%digit_recognizer_v18_1/gb2_gm1_ghost_bn_1/batchnorm/add_1:0[FLOAT, 1x16x16x10], exponents: [0]
%digit_recognizer_v18_1/gb2_sc_dw_bn_1/batchnorm/add_1:0[FLOAT, 1x24x16x10], exponents: [0]
%digit_recognizer_v18_1/gb3_gm1_ghost_bn_1/batchnorm/mul_1:0[FLOAT, 1x24x16x10], exponents: [0]
%digit_recognizer_v18_1/gb5_gm2_ghost_dw_1/depthwise:0[FLOAT, 1x8x5x32], exponents: [0]
%digit_recognizer_v18_1/gb4_gm2_primary_relu6_1/Relu6:0[FLOAT, 1x8x5x24], exponents: [0]
%digit_recognizer_v18_1/gb5_gm1_ghost_bn_1/batchnorm/mul_1:0[FLOAT, 1x32x8x5], exponents: [0]
%digit_recognizer_v18_1/gb3_gm2_ghost_bn_1/batchnorm/mul_1:0[FLOAT, 1x24x8x5], exponents: [0]
%digit_recognizer_v18_1/gb1_gm2_ghost_relu6_1/Relu6:0[FLOAT, 1x12x16x10], exponents: [0]
%Conv__264:0[FLOAT, 1x32x20x12], exponents: [0]
%Conv__326:0[FLOAT, 1x16x10x16], exponents: [0]
%digit_recognizer_v18_1/gb3_relu6_1/Relu6:0[FLOAT, 1x8x5x48], exponents: [0]
%digit_recognizer_v18_1/gb5_gm2_ghost_bn_1/batchnorm/mul_1:0[FLOAT, 1x32x8x5], exponents: [0]
%digit_recognizer_v18_1/gb3_add_1/Add:0[FLOAT, 1x8x5x48], exponents: [0]
%digit_recognizer_v18_1/gb3_gm2_concat_1/concat:0[FLOAT, 1x48x8x5], exponents: [0]
%digit_recognizer_v18_1/gb4_gm2_ghost_dw_1/depthwise:0[FLOAT, 1x8x5x24], exponents: [0]
%digit_recognizer_v18_1/output_1/BiasAdd:0[FLOAT, 1x10], exponents: [0]
%Conv__486:0[FLOAT, 1x8x5x112], exponents: [0]
%Conv__282:0[FLOAT, 1x16x10x12], exponents: [0]
%digit_recognizer_v18_1/gb3_gm2_ghost_relu6_1/Relu6:0[FLOAT, 1x24x8x5], exponents: [0]
%digit_recognizer_v18_1/gb2_gm1_ghost_dw_1/depthwise:0[FLOAT, 1x16x10x16], exponents: [0]
%Conv__418:0[FLOAT, 1x8x5x24], exponents: [0]
%digit_recognizer_v18_1/gb5_add_1/Add:0[FLOAT, 1x8x5x64], exponents: [0]
%digit_recognizer_v18_1/gb5_gm2_ghost_relu6_1/Relu6:0[FLOAT, 1x32x8x5], exponents: [0]
%digit_recognizer_v18_1/gb1_relu6_1/Relu6:0[FLOAT, 1x16x10x24], exponents: [0]
%Conv__432:0[FLOAT, 1x8x5x48], exponents: [0]
%Conv__310:0[FLOAT, 1x16x10x24], exponents: [0]
%digit_recognizer_v18_1/gb3_gm1_ghost_bn_1/batchnorm/add_1:0[FLOAT, 1x24x16x10], exponents: [0]
%digit_recognizer_v18_1/gb3_sc_dw_1/depthwise:0[FLOAT, 1x8x5x32], exponents: [0]
%digit_recognizer_v18_1/gb3_gm2_ghost_dw_1/depthwise:0[FLOAT, 1x8x5x24], exponents: [0]
%digit_recognizer_v18_1/gb5_gm1_ghost_bn_1/batchnorm/add_1:0[FLOAT, 1x32x8x5], exponents: [0]
%digit_recognizer_v18_1/gb3_gm2_ghost_bn_1/batchnorm/add_1:0[FLOAT, 1x24x8x5], exponents: [0]
%digit_recognizer_v18_1/gb4_gm1_primary_relu6_1/Relu6:0[FLOAT, 1x8x5x24], exponents: [0]
%digit_recognizer_v18_1/gb3_gm1_primary_relu6_1/Relu6:0[FLOAT, 1x16x10x24], exponents: [0]
%digit_recognizer_v18_1/gb2_gm2_primary_relu6_1/Relu6:0[FLOAT, 1x16x10x16], exponents: [0]
%digit_recognizer_v18_1/gb5_relu6_1/Relu6:0[FLOAT, 1x8x5x64], exponents: [0]
%digit_recognizer_v18_1/gb2_gm2_ghost_dw_1/depthwise:0[FLOAT, 1x16x10x16], exponents: [0]
%digit_recognizer_v18_1/gap_1/Mean:0[FLOAT, 1x1x1x112], exponents: [0]
%digit_recognizer_v18_1/gb2_gm2_concat_1/concat:0[FLOAT, 1x32x16x10], exponents: [0]
%digit_recognizer_v18_1/gb1_stride_bn_1/batchnorm/add_1:0[FLOAT, 1x24x16x10], exponents: [0]
%digit_recognizer_v18_1/gb2_sc_dw_bn_1/batchnorm/mul_1:0[FLOAT, 1x24x16x10], exponents: [0]
%digit_recognizer_v18_1/gb1_gm1_concat_1/concat:0[FLOAT, 1x24x32x20], exponents: [0]
%digit_recognizer_v18_1/gb5_gm1_concat_1/concat:0[FLOAT, 1x64x8x5], exponents: [0]
%digit_recognizer_v18_1/gb2_gm2_ghost_bn_1/batchnorm/add_1:0[FLOAT, 1x16x16x10], exponents: [0]
%digit_recognizer_v18_1/gb4_gm2_ghost_bn_1/batchnorm/mul_1:0[FLOAT, 1x24x8x5], exponents: [0]
%digit_recognizer_v18_1/gap_1/Mean_Squeeze__609:0[FLOAT, 1x112], exponents: [0]
%digit_recognizer_v18_1/gb4_gm1_ghost_relu6_1/Relu6:0[FLOAT, 1x24x8x5], exponents: [0]
%digit_recognizer_v18_1/gb5_gm2_ghost_bn_1/batchnorm/add_1:0[FLOAT, 1x32x8x5], exponents: [0]
%digit_recognizer_v18_1/gb1_sc_dw_bn_1/batchnorm/add_1:0[FLOAT, 1x16x16x10], exponents: [0]
%digit_recognizer_v18_1/gb2_relu6_1/Relu6:0[FLOAT, 1x16x10x32], exponents: [0]
%digit_recognizer_v18_1/gb1_stride_bn_1/batchnorm/mul_1:0[FLOAT, 1x24x16x10], exponents: [0]
%digit_recognizer_v18_1/gb2_gm2_ghost_relu6_1/Relu6:0[FLOAT, 1x16x16x10], exponents: [0]
%PPQ_Variable_54[FLOAT, 1x10x16x16], exponents: [0]
%PPQ_Variable_55[FLOAT, 1x16x10x16], exponents: [0]
%PPQ_Variable_56[FLOAT, 1x20x12x32], exponents: [0]
%PPQ_Variable_57[FLOAT, 1x20x12x32], exponents: [0]
%PPQ_Variable_58[FLOAT, 1x32x20x24], exponents: [0]
%PPQ_Variable_59[FLOAT, 1x10x24x16], exponents: [0]
%PPQ_Variable_60[FLOAT, 1x16x10x24], exponents: [0]
%PPQ_Variable_61[FLOAT, 1x10x12x16], exponents: [0]
%PPQ_Variable_62[FLOAT, 1x10x12x16], exponents: [0]
%PPQ_Variable_63[FLOAT, 1x16x10x24], exponents: [0]
%PPQ_Variable_64[FLOAT, 1x10x24x16], exponents: [0]
%PPQ_Variable_65[FLOAT, 1x16x10x24], exponents: [0]
%PPQ_Variable_66[FLOAT, 1x10x16x16], exponents: [0]
%PPQ_Variable_67[FLOAT, 1x10x16x16], exponents: [0]
%PPQ_Variable_68[FLOAT, 1x16x10x32], exponents: [0]
%PPQ_Variable_69[FLOAT, 1x10x16x16], exponents: [0]
%PPQ_Variable_70[FLOAT, 1x10x16x16], exponents: [0]
%PPQ_Variable_71[FLOAT, 1x16x10x32], exponents: [0]
%PPQ_Variable_72[FLOAT, 1x5x32x8], exponents: [0]
%PPQ_Variable_73[FLOAT, 1x8x5x32], exponents: [0]
%PPQ_Variable_74[FLOAT, 1x10x24x16], exponents: [0]
%PPQ_Variable_75[FLOAT, 1x10x24x16], exponents: [0]
%PPQ_Variable_76[FLOAT, 1x16x10x48], exponents: [0]
%PPQ_Variable_77[FLOAT, 1x5x48x8], exponents: [0]
%PPQ_Variable_78[FLOAT, 1x8x5x48], exponents: [0]
%PPQ_Variable_79[FLOAT, 1x5x24x8], exponents: [0]
%PPQ_Variable_80[FLOAT, 1x5x24x8], exponents: [0]
%PPQ_Variable_81[FLOAT, 1x8x5x48], exponents: [0]
%PPQ_Variable_82[FLOAT, 1x5x24x8], exponents: [0]
%PPQ_Variable_83[FLOAT, 1x5x24x8], exponents: [0]
%PPQ_Variable_84[FLOAT, 1x8x5x48], exponents: [0]
%PPQ_Variable_85[FLOAT, 1x5x24x8], exponents: [0]
%PPQ_Variable_86[FLOAT, 1x5x24x8], exponents: [0]
%PPQ_Variable_87[FLOAT, 1x8x5x48], exponents: [0]
%PPQ_Variable_88[FLOAT, 1x5x48x8], exponents: [0]
%PPQ_Variable_89[FLOAT, 1x8x5x48], exponents: [0]
%PPQ_Variable_90[FLOAT, 1x5x32x8], exponents: [0]
%PPQ_Variable_91[FLOAT, 1x5x32x8], exponents: [0]
%PPQ_Variable_92[FLOAT, 1x8x5x64], exponents: [0]
%PPQ_Variable_93[FLOAT, 1x5x32x8], exponents: [0]
%PPQ_Variable_94[FLOAT, 1x5x32x8], exponents: [0]
%PPQ_Variable_95[FLOAT, 1x8x5x64], exponents: [0]
%PPQ_Variable_96[FLOAT, 1x1x112x1], exponents: [0]


test inputs value:



test outputs value:
