Model: "functional"
+--------------------------------------------------------------------------------------+
| Layer (type)                         | Output Shape                |         Param # |
|--------------------------------------+-----------------------------+-----------------|
| input_layer (InputLayer)             | (None, 32, 20, 1)           |               0 |
|--------------------------------------+-----------------------------+-----------------|
| batch_normalization                  | (None, 32, 20, 1)           |               4 |
| (BatchNormalization)                 |                             |                 |
|--------------------------------------+-----------------------------+-----------------|
| conv2d (Conv2D)                      | (None, 32, 20, 32)          |             320 |
|--------------------------------------+-----------------------------+-----------------|
| batch_normalization_1                | (None, 32, 20, 32)          |             128 |
| (BatchNormalization)                 |                             |                 |
|--------------------------------------+-----------------------------+-----------------|
| activation (Activation)              | (None, 32, 20, 32)          |               0 |
|--------------------------------------+-----------------------------+-----------------|
| max_pooling2d (MaxPooling2D)         | (None, 16, 10, 32)          |               0 |
|--------------------------------------+-----------------------------+-----------------|
| dropout (Dropout)                    | (None, 16, 10, 32)          |               0 |
|--------------------------------------+-----------------------------+-----------------|
| conv2d_1 (Conv2D)                    | (None, 16, 10, 64)          |          18,496 |
|--------------------------------------+-----------------------------+-----------------|
| batch_normalization_2                | (None, 16, 10, 64)          |             256 |
| (BatchNormalization)                 |                             |                 |
|--------------------------------------+-----------------------------+-----------------|
| activation_1 (Activation)            | (None, 16, 10, 64)          |               0 |
|--------------------------------------+-----------------------------+-----------------|
| max_pooling2d_1 (MaxPooling2D)       | (None, 8, 5, 64)            |               0 |
|--------------------------------------+-----------------------------+-----------------|
| dropout_1 (Dropout)                  | (None, 8, 5, 64)            |               0 |
|--------------------------------------+-----------------------------+-----------------|
| conv2d_2 (Conv2D)                    | (None, 8, 5, 64)            |          36,928 |
|--------------------------------------+-----------------------------+-----------------|
| batch_normalization_3                | (None, 8, 5, 64)            |             256 |
| (BatchNormalization)                 |                             |                 |
|--------------------------------------+-----------------------------+-----------------|
| activation_2 (Activation)            | (None, 8, 5, 64)            |               0 |
|--------------------------------------+-----------------------------+-----------------|
| max_pooling2d_2 (MaxPooling2D)       | (None, 4, 2, 64)            |               0 |
|--------------------------------------+-----------------------------+-----------------|
| flatten (Flatten)                    | (None, 512)                 |               0 |
|--------------------------------------+-----------------------------+-----------------|
| dropout_2 (Dropout)                  | (None, 512)                 |               0 |
|--------------------------------------+-----------------------------+-----------------|
| dense (Dense)                        | (None, 256)                 |         131,328 |
|--------------------------------------+-----------------------------+-----------------|
| dropout_3 (Dropout)                  | (None, 256)                 |               0 |
|--------------------------------------+-----------------------------+-----------------|
| dense_1 (Dense)                      | (None, 10)                  |           2,570 |
+--------------------------------------------------------------------------------------+
 Total params: 190,286 (743.30 KB)
 Trainable params: 189,964 (742.05 KB)
 Non-trainable params: 322 (1.26 KB)

