…
│ (BatchNormalizatio… │ 48)               │            │                   │
├─────────────────────┼───────────────────┼────────────┼───────────────────┤
│ add_1 (Add)         │ (None, 16, 10,    │          0 │ re_lu_2[0][0],    │
│                     │ 48)               │            │ batch_normalizat… │
├─────────────────────┼───────────────────┼────────────┼───────────────────┤
│ re_lu_4 (ReLU)      │ (None, 16, 10,    │          0 │ add_1[0][0]       │
│                     │ 48)               │            │                   │
├─────────────────────┼───────────────────┼────────────┼───────────────────┤
│ max_pooling2d_1     │ (None, 8, 5, 48)  │          0 │ re_lu_4[0][0]     │
│ (MaxPooling2D)      │                   │            │                   │
├─────────────────────┼───────────────────┼────────────┼───────────────────┤
│ conv2d_6 (Conv2D)   │ (None, 8, 5, 96)  │     41,568 │ max_pooling2d_1[… │
├─────────────────────┼───────────────────┼────────────┼───────────────────┤
│ batch_normalizatio… │ (None, 8, 5, 96)  │        384 │ conv2d_6[0][0]    │
│ (BatchNormalizatio… │                   │            │                   │
├─────────────────────┼───────────────────┼────────────┼───────────────────┤
│ re_lu_5 (ReLU)      │ (None, 8, 5, 96)  │          0 │ batch_normalizat… │
├─────────────────────┼───────────────────┼────────────┼───────────────────┤
│ conv2d_8 (Conv2D)   │ (None, 8, 5, 96)  │      4,704 │ max_pooling2d_1[… │
├─────────────────────┼───────────────────┼────────────┼───────────────────┤
│ conv2d_7 (Conv2D)   │ (None, 8, 5, 96)  │     83,040 │ re_lu_5[0][0]     │
├─────────────────────┼───────────────────┼────────────┼───────────────────┤
│ batch_normalizatio… │ (None, 8, 5, 96)  │        384 │ conv2d_8[0][0]    │
│ (BatchNormalizatio… │                   │            │                   │
├─────────────────────┼───────────────────┼────────────┼───────────────────┤
│ batch_normalizatio… │ (None, 8, 5, 96)  │        384 │ conv2d_7[0][0]    │
│ (BatchNormalizatio… │                   │            │                   │
├─────────────────────┼───────────────────┼────────────┼───────────────────┤
│ add_2 (Add)         │ (None, 8, 5, 96)  │          0 │ batch_normalizat… │
│                     │                   │            │ batch_normalizat… │
├─────────────────────┼───────────────────┼────────────┼───────────────────┤
│ re_lu_6 (ReLU)      │ (None, 8, 5, 96)  │          0 │ add_2[0][0]       │
├─────────────────────┼───────────────────┼────────────┼───────────────────┤
│ conv2d_9 (Conv2D)   │ (None, 8, 5, 96)  │     83,040 │ re_lu_6[0][0]     │
├─────────────────────┼───────────────────┼────────────┼───────────────────┤
│ batch_normalizatio… │ (None, 8, 5, 96)  │        384 │ conv2d_9[0][0]    │
│ (BatchNormalizatio… │                   │            │                   │
├─────────────────────┼───────────────────┼────────────┼───────────────────┤
│ re_lu_7 (ReLU)      │ (None, 8, 5, 96)  │          0 │ batch_normalizat… │
├─────────────────────┼───────────────────┼────────────┼───────────────────┤
│ conv2d_10 (Conv2D)  │ (None, 8, 5, 96)  │     83,040 │ re_lu_7[0][0]     │
├─────────────────────┼───────────────────┼────────────┼───────────────────┤
│ batch_normalizatio… │ (None, 8, 5, 96)  │        384 │ conv2d_10[0][0]   │
│ (BatchNormalizatio… │                   │            │                   │
├─────────────────────┼───────────────────┼────────────┼───────────────────┤
│ add_3 (Add)         │ (None, 8, 5, 96)  │          0 │ re_lu_6[0][0],    │
│                     │                   │            │ batch_normalizat… │
├─────────────────────┼───────────────────┼────────────┼───────────────────┤
│ re_lu_8 (ReLU)      │ (None, 8, 5, 96)  │          0 │ add_3[0][0]       │
├─────────────────────┼───────────────────┼────────────┼───────────────────┤
│ global_avg_pool     │ (None, 96)        │          0 │ re_lu_8[0][0]     │
│ (GlobalAveragePool… │                   │            │                   │
├─────────────────────┼───────────────────┼────────────┼───────────────────┤
│ dropout (Dropout)   │ (None, 96)        │          0 │ global_avg_pool[… │
├─────────────────────┼───────────────────┼────────────┼───────────────────┤
│ feature_dense       │ (None, 64)        │      6,208 │ dropout[0][0]     │
│ (Dense)             │                   │            │                   │
├─────────────────────┼───────────────────┼────────────┼───────────────────┤
│ dropout_1 (Dropout) │ (None, 64)        │          0 │ feature_dense[0]… │
├─────────────────────┼───────────────────┼────────────┼───────────────────┤
│ output (Dense)      │ (None, 10)        │        650 │ dropout_1[0][0]   │
└─────────────────────┴───────────────────┴────────────┴───────────────────┘
 Total params: 383,930 (1.46 MB)
 Trainable params: 382,426 (1.46 MB)
 Non-trainable params: 1,504 (5.88 KB)

