model properties:
metadata_props:


graph tf2onnx (
  %input[FLOAT, 1x32x20x3], exponents: [0]
) initializers (
  %digit_recognizer_v19_1/gb3_sc_dw_bn_1/batchnorm/mul:0[FLOAT, 1x40x1x1]
  %const_fold_opt__585[FLOAT, 28x1x3x3]
  %digit_recognizer_v19_1/gb4_sc_bn_1/batchnorm/sub:0[FLOAT, 64]
  %digit_recognizer_v19_1/entry_bn_1/batchnorm/sub:0[FLOAT, 20]
  %const_fold_opt__616[FLOAT, 1x56x1x1]
  %digit_recognizer_v19_1/gb3_gm2_primary_bn_1/batchnorm/sub:0[FLOAT, 28]
  %digit_recognizer_v19_1/gb3_gm1_primary_conv_1/convolution/merged_input:0[FLOAT, 28x40x1x1]
  %digit_recognizer_v19_1/gb2_sc_conv_1/convolution/merged_input:0[FLOAT, 40x32x1x1]
  %const_fold_opt__612[FLOAT, 1x40x1x1]
  %digit_recognizer_v19_1/gb1_gm2_primary_conv_1/convolution/merged_input:0[FLOAT, 16x32x1x1]
  %digit_recognizer_v19_1/gb3_gm2_primary_conv_1/convolution/merged_input:0[FLOAT, 28x56x1x1]
  %const_fold_opt__627[FLOAT, 1x56x1x1]
  %digit_recognizer_v19_1/head_bn_1/batchnorm/sub:0[FLOAT, 128]
  %digit_recognizer_v19_1/gb5_gm1_primary_bn_1/batchnorm/sub:0[FLOAT, 40]
  %digit_recognizer_v19_1/gb5_sc_bn_1/batchnorm/sub:0[FLOAT, 80]
  %digit_recognizer_v19_1/gb5_gm2_ghost_bn_1/batchnorm/mul:0[FLOAT, 1x40x1x1]
  %const_fold_opt__583[FLOAT, 64x1x3x3]
  %digit_recognizer_v19_1/gb5_proj_1/convolution/merged_input:0[FLOAT, 80x80x1x1]
  %digit_recognizer_v19_1/gb4_proj_1/convolution/merged_input:0[FLOAT, 64x64x1x1]
  %const_fold_opt__600[FLOAT, 20x1x3x3]
  %digit_recognizer_v19_1/gb1_proj_1/convolution/merged_input:0[FLOAT, 32x32x1x1]
  %const_fold_opt__614[FLOAT, 1x40x1x1]
  %digit_recognizer_v19_1/gb3_sc_bn_1/batchnorm/sub:0[FLOAT, 56]
  %digit_recognizer_v19_1/gb2_gm2_ghost_bn_1/batchnorm/mul:0[FLOAT, 1x20x1x1]
  %const_fold_opt__623[FLOAT, 16x1x3x3]
  %digit_recognizer_v19_1/gb2_sc_dw_bn_1/batchnorm/mul:0[FLOAT, 1x32x1x1]
  %digit_recognizer_v19_1/gb4_proj_bn_1/batchnorm/sub:0[FLOAT, 64]
  %const_fold_opt__617[FLOAT, 1x32x1x1]
  %const_fold_opt__628[FLOAT, 56x1x3x3]
  %digit_recognizer_v19_1/gb4_gm1_primary_conv_1/convolution/merged_input:0[FLOAT, 32x56x1x1]
  %digit_recognizer_v19_1/gb1_sc_conv_1/convolution/merged_input:0[FLOAT, 32x20x1x1]
  %digit_recognizer_v19_1/gb4_sc_dw_bn_1/batchnorm/mul:0[FLOAT, 1x56x1x1]
  %digit_recognizer_v19_1/gb4_gm1_primary_bn_1/batchnorm/sub:0[FLOAT, 32]
  %digit_recognizer_v19_1/gb2_gm1_primary_bn_1/batchnorm/sub:0[FLOAT, 20]
  %digit_recognizer_v19_1/gb2_sc_bn_1/batchnorm/sub:0[FLOAT, 40]
  %const_fold_opt__602[FLOAT, 40x1x3x3]
  %const_fold_opt__625[FLOAT, 20x1x3x3]
  %const_fold_opt__594[FLOAT, 32x1x3x3]
  %const_fold_opt__613[FLOAT, 1x32x1x1]
  %digit_recognizer_v19_1/gb5_gm1_primary_conv_1/convolution/merged_input:0[FLOAT, 40x64x1x1]
  %const_fold_opt__586[FLOAT, 20x1x3x3]
  %digit_recognizer_v19_1/gb1_gm2_ghost_bn_1/batchnorm/mul:0[FLOAT, 1x16x1x1]
  %digit_recognizer_v19_1/gb5_sc_dw_bn_1/batchnorm/mul:0[FLOAT, 1x64x1x1]
  %digit_recognizer_v19_1/gb3_gm1_primary_bn_1/batchnorm/sub:0[FLOAT, 28]
  %const_fold_opt__601[FLOAT, 32x1x3x3]
  %const_fold_opt__622[FLOAT, 1x16x1x1]
  %const_fold_opt__624[FLOAT, 1x20x1x1]
  %digit_recognizer_v19_1/gb3_stride_bn_1/batchnorm/mul:0[FLOAT, 1x56x1x1]
  %const_fold_opt__597[FLOAT, 32x1x3x3]
  %const_fold_opt__618[FLOAT, 1x64x1x1]
  %digit_recognizer_v19_1/gb1_gm1_primary_conv_1/convolution/merged_input:0[FLOAT, 16x20x1x1]
  %digit_recognizer_v19_1/gb1_gm1_primary_bn_1/batchnorm/sub:0[FLOAT, 16]
  %digit_recognizer_v19_1/gb1_stride_bn_1/batchnorm/mul:0[FLOAT, 1x32x1x1]
  %digit_recognizer_v19_1/gb2_proj_1/convolution/merged_input:0[FLOAT, 40x40x1x1]
  %digit_recognizer_v19_1/gb3_proj_bn_1/batchnorm/sub:0[FLOAT, 56]
  %digit_recognizer_v19_1/gb3_gm2_ghost_bn_1/batchnorm/mul:0[FLOAT, 1x28x1x1]
  %const_fold_opt__610[FLOAT, 32x1x3x3]
  %digit_recognizer_v19_1/gb4_sc_conv_1/convolution/merged_input:0[FLOAT, 64x56x1x1]
  %const_fold_opt__619[FLOAT, 1x32x1x1]
  %const_axes__629[INT64, 2]
  %digit_recognizer_v19_1/gb5_gm1_ghost_bn_1/batchnorm/mul:0[FLOAT, 1x40x1x1]
  %const_fold_opt__591[FLOAT, 40x1x3x3]
  %const_fold_opt__593[FLOAT, 1x16x1x1]
  %digit_recognizer_v19_1/gb2_gm1_ghost_bn_1/batchnorm/mul:0[FLOAT, 1x20x1x1]
  %const_fold_opt__626[FLOAT, 56x1x3x3]
  %digit_recognizer_v19_1/output_1/BiasAdd/ReadVariableOp:0[FLOAT, 10]
  %const_fold_opt__589[FLOAT, 1x32x1x1]
  %digit_recognizer_v19_1/gb5_sc_conv_1/convolution/merged_input:0[FLOAT, 80x64x1x1]
  %digit_recognizer_v19_1/gb1_sc_dw_bn_1/batchnorm/mul:0[FLOAT, 1x20x1x1]
  %digit_recognizer_v19_1/gb1_sc_bn_1/batchnorm/sub:0[FLOAT, 32]
  %const_fold_opt__599[FLOAT, 40x1x3x3]
  %const_fold_opt__580[FLOAT, 28x1x3x3]
  %digit_recognizer_v19_1/gb4_gm2_primary_conv_1/convolution/merged_input:0[FLOAT, 32x64x1x1]
  %digit_recognizer_v19_1/gb2_proj_bn_1/batchnorm/sub:0[FLOAT, 40]
  %digit_recognizer_v19_1/gb2_gm2_primary_bn_1/batchnorm/sub:0[FLOAT, 20]
  %const_fold_opt__578[FLOAT, 16x1x3x3]
  %digit_recognizer_v19_1/gb4_gm2_ghost_bn_1/batchnorm/mul:0[FLOAT, 1x32x1x1]
  %digit_recognizer_v19_1/gb2_gm2_primary_conv_1/convolution/merged_input:0[FLOAT, 20x40x1x1]
  %const_fold_opt__615[FLOAT, 1x40x1x1]
  %digit_recognizer_v19_1/gb3_sc_conv_1/convolution/merged_input:0[FLOAT, 56x40x1x1]
  %digit_recognizer_v19_1/gb1_proj_bn_1/batchnorm/sub:0[FLOAT, 32]
  %digit_recognizer_v19_1/gb5_gm2_primary_conv_1/convolution/merged_input:0[FLOAT, 40x80x1x1]
  %digit_recognizer_v19_1/gb1_gm1_ghost_bn_1/batchnorm/mul:0[FLOAT, 1x16x1x1]
  %digit_recognizer_v19_1/gb2_gm1_primary_conv_1/convolution/merged_input:0[FLOAT, 20x32x1x1]
  %digit_recognizer_v19_1/gb5_proj_bn_1/batchnorm/sub:0[FLOAT, 80]
  %digit_recognizer_v19_1/gb4_gm1_ghost_bn_1/batchnorm/mul:0[FLOAT, 1x32x1x1]
  %const_fold_opt__609[FLOAT, 1x28x1x1]
  %digit_recognizer_v19_1/gb4_gm2_primary_bn_1/batchnorm/sub:0[FLOAT, 32]
  %digit_recognizer_v19_1/gb1_gm2_primary_bn_1/batchnorm/sub:0[FLOAT, 16]
  %digit_recognizer_v19_1/gb3_gm1_ghost_bn_1/batchnorm/mul:0[FLOAT, 1x28x1x1]
  %digit_recognizer_v19_1/head_conv_1/convolution/merged_input:0[FLOAT, 128x80x1x1]
  %digit_recognizer_v19_1/output_1/Cast/ReadVariableOp:0[FLOAT, 128x10]
  %const_fold_opt__604[FLOAT, 1x20x1x1]
  %digit_recognizer_v19_1/gb5_gm2_primary_bn_1/batchnorm/sub:0[FLOAT, 40]
  %digit_recognizer_v19_1/gb3_proj_1/convolution/merged_input:0[FLOAT, 56x56x1x1]
  %const_fold_opt__598[FLOAT, 1x28x1x1]
  %const_fold_opt__620[FLOAT, 1x20x1x1]
  %digit_recognizer_v19_1/entry_conv_1/convolution/merged_input:0[FLOAT, 20x3x3x3]
  %PPQ_Variable_0[FLOAT, 1]
  %PPQ_Variable_1[FLOAT, 1]
  %PPQ_Variable_2[FLOAT, 1]
  %PPQ_Variable_3[FLOAT, 1]
  %PPQ_Variable_4[FLOAT, 1]
  %PPQ_Variable_5[FLOAT, 1]
  %PPQ_Variable_6[FLOAT, 1]
  %PPQ_Variable_7[FLOAT, 1]
  %PPQ_Variable_8[FLOAT, 1]
  %PPQ_Variable_9[FLOAT, 1]
  %PPQ_Variable_10[FLOAT, 1]
  %PPQ_Variable_11[FLOAT, 1]
  %PPQ_Variable_12[FLOAT, 1]
  %PPQ_Variable_13[FLOAT, 1]
  %PPQ_Variable_14[FLOAT, 1]
  %PPQ_Variable_15[FLOAT, 1]
  %PPQ_Variable_16[FLOAT, 1]
  %PPQ_Variable_17[FLOAT, 1]
  %PPQ_Variable_18[FLOAT, 1]
  %PPQ_Variable_19[FLOAT, 1]
  %PPQ_Variable_20[FLOAT, 1]
  %PPQ_Variable_21[FLOAT, 1]
  %PPQ_Variable_22[FLOAT, 1]
  %PPQ_Variable_23[FLOAT, 1]
  %PPQ_Variable_24[FLOAT, 1]
  %PPQ_Variable_25[FLOAT, 1]
  %PPQ_Variable_26[FLOAT, 1]
  %PPQ_Variable_27[FLOAT, 1]
  %PPQ_Variable_28[FLOAT, 1]
  %PPQ_Variable_29[FLOAT, 1]
  %PPQ_Variable_30[FLOAT, 1]
  %PPQ_Variable_31[FLOAT, 1]
  %PPQ_Variable_32[FLOAT, 1]
  %PPQ_Variable_33[FLOAT, 1]
  %PPQ_Variable_34[FLOAT, 1]
  %PPQ_Variable_35[FLOAT, 1]
  %PPQ_Variable_36[FLOAT, 1]
  %PPQ_Variable_37[FLOAT, 1]
  %PPQ_Variable_38[FLOAT, 1]
  %PPQ_Variable_39[FLOAT, 1]
  %PPQ_Variable_40[FLOAT, 1]
  %PPQ_Variable_41[FLOAT, 1]
  %PPQ_Variable_42[FLOAT, 1]
  %PPQ_Variable_43[FLOAT, 1]
  %PPQ_Variable_44[FLOAT, 1]
  %PPQ_Variable_45[FLOAT, 1]
  %PPQ_Variable_46[FLOAT, 1]
  %PPQ_Variable_47[FLOAT, 1]
  %PPQ_Variable_48[FLOAT, 1]
  %PPQ_Variable_49[FLOAT, 1]
  %PPQ_Variable_50[FLOAT, 1]
  %PPQ_Variable_51[FLOAT, 1]
  %PPQ_Variable_52[FLOAT, 1]
  %PPQ_Variable_53[FLOAT, 1]
) {
  %Conv__269:0 = Conv[dilations = [1, 1], group = 1, kernel_shape = [3, 3], pads = [1, 1, 1, 1], quant_type = 'F32', strides = [1, 1]](%input, %digit_recognizer_v19_1/entry_conv_1/convolution/merged_input:0, %digit_recognizer_v19_1/entry_bn_1/batchnorm/sub:0)
  %digit_recognizer_v19_1/entry_relu6_1/Relu6:0 = Clip[quant_type = 'F32'](%Conv__269:0, %PPQ_Variable_0, %PPQ_Variable_27)
  %digit_recognizer_v19_1/gb1_sc_dw_1/depthwise:0 = Conv[dilations = [1, 1], group = 20, kernel_shape = [3, 3], pads = [0, 0, 1, 1], quant_type = 'F32', strides = [2, 2]](%digit_recognizer_v19_1/entry_relu6_1/Relu6:0, %const_fold_opt__586)
  %Conv__275:0 = Conv[dilations = [1, 1], group = 1, kernel_shape = [1, 1], pads = [0, 0, 0, 0], quant_type = 'F32', strides = [1, 1]](%digit_recognizer_v19_1/entry_relu6_1/Relu6:0, %digit_recognizer_v19_1/gb1_gm1_primary_conv_1/convolution/merged_input:0, %digit_recognizer_v19_1/gb1_gm1_primary_bn_1/batchnorm/sub:0)
  %PPQ_Variable_54 = Transpose[perm = [0, 3, 1, 2], quant_type = 'F32'](%digit_recognizer_v19_1/gb1_sc_dw_1/depthwise:0)
  %digit_recognizer_v19_1/gb1_gm1_primary_relu6_1/Relu6:0 = Clip[quant_type = 'F32'](%Conv__275:0, %PPQ_Variable_1, %PPQ_Variable_28)
  %digit_recognizer_v19_1/gb1_sc_dw_bn_1/batchnorm/mul_1:0 = Mul[quant_type = 'F32'](%PPQ_Variable_54, %digit_recognizer_v19_1/gb1_sc_dw_bn_1/batchnorm/mul:0)
  %digit_recognizer_v19_1/gb1_gm1_ghost_dw_1/depthwise:0 = Conv[dilations = [1, 1], group = 16, kernel_shape = [3, 3], pads = [1, 1, 1, 1], quant_type = 'F32', strides = [1, 1]](%digit_recognizer_v19_1/gb1_gm1_primary_relu6_1/Relu6:0, %const_fold_opt__623)
  %PPQ_Variable_57 = Transpose[perm = [0, 3, 1, 2], quant_type = 'F32'](%digit_recognizer_v19_1/gb1_gm1_primary_relu6_1/Relu6:0)
  %digit_recognizer_v19_1/gb1_sc_dw_bn_1/batchnorm/add_1:0 = Add[quant_type = 'F32'](%digit_recognizer_v19_1/gb1_sc_dw_bn_1/batchnorm/mul_1:0, %const_fold_opt__604)
  %PPQ_Variable_56 = Transpose[perm = [0, 3, 1, 2], quant_type = 'F32'](%digit_recognizer_v19_1/gb1_gm1_ghost_dw_1/depthwise:0)
  %PPQ_Variable_55 = Transpose[perm = [0, 2, 3, 1], quant_type = 'F32'](%digit_recognizer_v19_1/gb1_sc_dw_bn_1/batchnorm/add_1:0)
  %digit_recognizer_v19_1/gb1_gm1_ghost_bn_1/batchnorm/mul_1:0 = Mul[quant_type = 'F32'](%PPQ_Variable_56, %digit_recognizer_v19_1/gb1_gm1_ghost_bn_1/batchnorm/mul:0)
  %Conv__321:0 = Conv[dilations = [1, 1], group = 1, kernel_shape = [1, 1], pads = [0, 0, 0, 0], quant_type = 'F32', strides = [1, 1]](%PPQ_Variable_55, %digit_recognizer_v19_1/gb1_sc_conv_1/convolution/merged_input:0, %digit_recognizer_v19_1/gb1_sc_bn_1/batchnorm/sub:0)
  %digit_recognizer_v19_1/gb1_gm1_ghost_bn_1/batchnorm/add_1:0 = Add[quant_type = 'F32'](%digit_recognizer_v19_1/gb1_gm1_ghost_bn_1/batchnorm/mul_1:0, %const_fold_opt__622)
  %digit_recognizer_v19_1/gb1_gm1_ghost_relu6_1/Relu6:0 = Clip[quant_type = 'F32'](%digit_recognizer_v19_1/gb1_gm1_ghost_bn_1/batchnorm/add_1:0, %PPQ_Variable_2, %PPQ_Variable_29)
  %digit_recognizer_v19_1/gb1_gm1_concat_1/concat:0 = Concat[axis = 1, quant_type = 'F32'](%PPQ_Variable_57, %digit_recognizer_v19_1/gb1_gm1_ghost_relu6_1/Relu6:0)
  %PPQ_Variable_58 = Transpose[perm = [0, 2, 3, 1], quant_type = 'F32'](%digit_recognizer_v19_1/gb1_gm1_concat_1/concat:0)
  %digit_recognizer_v19_1/gb1_stride_dw_1/depthwise:0 = Conv[dilations = [1, 1], group = 32, kernel_shape = [3, 3], pads = [0, 0, 1, 1], quant_type = 'F32', strides = [2, 2]](%PPQ_Variable_58, %const_fold_opt__597)
  %PPQ_Variable_59 = Transpose[perm = [0, 3, 1, 2], quant_type = 'F32'](%digit_recognizer_v19_1/gb1_stride_dw_1/depthwise:0)
  %digit_recognizer_v19_1/gb1_stride_bn_1/batchnorm/mul_1:0 = Mul[quant_type = 'F32'](%PPQ_Variable_59, %digit_recognizer_v19_1/gb1_stride_bn_1/batchnorm/mul:0)
  %digit_recognizer_v19_1/gb1_stride_bn_1/batchnorm/add_1:0 = Add[quant_type = 'F32'](%digit_recognizer_v19_1/gb1_stride_bn_1/batchnorm/mul_1:0, %const_fold_opt__613)
  %PPQ_Variable_60 = Transpose[perm = [0, 2, 3, 1], quant_type = 'F32'](%digit_recognizer_v19_1/gb1_stride_bn_1/batchnorm/add_1:0)
  %Conv__293:0 = Conv[dilations = [1, 1], group = 1, kernel_shape = [1, 1], pads = [0, 0, 0, 0], quant_type = 'F32', strides = [1, 1]](%PPQ_Variable_60, %digit_recognizer_v19_1/gb1_gm2_primary_conv_1/convolution/merged_input:0, %digit_recognizer_v19_1/gb1_gm2_primary_bn_1/batchnorm/sub:0)
  %digit_recognizer_v19_1/gb1_gm2_primary_relu6_1/Relu6:0 = Clip[quant_type = 'F32'](%Conv__293:0, %PPQ_Variable_3, %PPQ_Variable_30)
  %digit_recognizer_v19_1/gb1_gm2_ghost_dw_1/depthwise:0 = Conv[dilations = [1, 1], group = 16, kernel_shape = [3, 3], pads = [1, 1, 1, 1], quant_type = 'F32', strides = [1, 1]](%digit_recognizer_v19_1/gb1_gm2_primary_relu6_1/Relu6:0, %const_fold_opt__578)
  %PPQ_Variable_62 = Transpose[perm = [0, 3, 1, 2], quant_type = 'F32'](%digit_recognizer_v19_1/gb1_gm2_primary_relu6_1/Relu6:0)
  %PPQ_Variable_61 = Transpose[perm = [0, 3, 1, 2], quant_type = 'F32'](%digit_recognizer_v19_1/gb1_gm2_ghost_dw_1/depthwise:0)
  %digit_recognizer_v19_1/gb1_gm2_ghost_bn_1/batchnorm/mul_1:0 = Mul[quant_type = 'F32'](%PPQ_Variable_61, %digit_recognizer_v19_1/gb1_gm2_ghost_bn_1/batchnorm/mul:0)
  %digit_recognizer_v19_1/gb1_gm2_ghost_bn_1/batchnorm/add_1:0 = Add[quant_type = 'F32'](%digit_recognizer_v19_1/gb1_gm2_ghost_bn_1/batchnorm/mul_1:0, %const_fold_opt__593)
  %digit_recognizer_v19_1/gb1_gm2_ghost_relu6_1/Relu6:0 = Clip[quant_type = 'F32'](%digit_recognizer_v19_1/gb1_gm2_ghost_bn_1/batchnorm/add_1:0, %PPQ_Variable_4, %PPQ_Variable_31)
  %digit_recognizer_v19_1/gb1_gm2_concat_1/concat:0 = Concat[axis = 1, quant_type = 'F32'](%PPQ_Variable_62, %digit_recognizer_v19_1/gb1_gm2_ghost_relu6_1/Relu6:0)
  %PPQ_Variable_63 = Transpose[perm = [0, 2, 3, 1], quant_type = 'F32'](%digit_recognizer_v19_1/gb1_gm2_concat_1/concat:0)
  %Conv__307:0 = Conv[dilations = [1, 1], group = 1, kernel_shape = [1, 1], pads = [0, 0, 0, 0], quant_type = 'F32', strides = [1, 1]](%PPQ_Variable_63, %digit_recognizer_v19_1/gb1_proj_1/convolution/merged_input:0, %digit_recognizer_v19_1/gb1_proj_bn_1/batchnorm/sub:0)
  %digit_recognizer_v19_1/gb1_add_1/Add:0 = Add[quant_type = 'F32'](%Conv__321:0, %Conv__307:0)
  %digit_recognizer_v19_1/gb1_relu6_1/Relu6:0 = Clip[quant_type = 'F32'](%digit_recognizer_v19_1/gb1_add_1/Add:0, %PPQ_Variable_5, %PPQ_Variable_32)
  %digit_recognizer_v19_1/gb2_sc_dw_1/depthwise:0 = Conv[dilations = [1, 1], group = 32, kernel_shape = [3, 3], pads = [1, 1, 1, 1], quant_type = 'F32', strides = [1, 1]](%digit_recognizer_v19_1/gb1_relu6_1/Relu6:0, %const_fold_opt__594)
  %Conv__337:0 = Conv[dilations = [1, 1], group = 1, kernel_shape = [1, 1], pads = [0, 0, 0, 0], quant_type = 'F32', strides = [1, 1]](%digit_recognizer_v19_1/gb1_relu6_1/Relu6:0, %digit_recognizer_v19_1/gb2_gm1_primary_conv_1/convolution/merged_input:0, %digit_recognizer_v19_1/gb2_gm1_primary_bn_1/batchnorm/sub:0)
  %PPQ_Variable_64 = Transpose[perm = [0, 3, 1, 2], quant_type = 'F32'](%digit_recognizer_v19_1/gb2_sc_dw_1/depthwise:0)
  %digit_recognizer_v19_1/gb2_gm1_primary_relu6_1/Relu6:0 = Clip[quant_type = 'F32'](%Conv__337:0, %PPQ_Variable_6, %PPQ_Variable_33)
  %digit_recognizer_v19_1/gb2_sc_dw_bn_1/batchnorm/mul_1:0 = Mul[quant_type = 'F32'](%PPQ_Variable_64, %digit_recognizer_v19_1/gb2_sc_dw_bn_1/batchnorm/mul:0)
  %digit_recognizer_v19_1/gb2_gm1_ghost_dw_1/depthwise:0 = Conv[dilations = [1, 1], group = 20, kernel_shape = [3, 3], pads = [1, 1, 1, 1], quant_type = 'F32', strides = [1, 1]](%digit_recognizer_v19_1/gb2_gm1_primary_relu6_1/Relu6:0, %const_fold_opt__625)
  %PPQ_Variable_67 = Transpose[perm = [0, 3, 1, 2], quant_type = 'F32'](%digit_recognizer_v19_1/gb2_gm1_primary_relu6_1/Relu6:0)
  %digit_recognizer_v19_1/gb2_sc_dw_bn_1/batchnorm/add_1:0 = Add[quant_type = 'F32'](%digit_recognizer_v19_1/gb2_sc_dw_bn_1/batchnorm/mul_1:0, %const_fold_opt__617)
  %PPQ_Variable_66 = Transpose[perm = [0, 3, 1, 2], quant_type = 'F32'](%digit_recognizer_v19_1/gb2_gm1_ghost_dw_1/depthwise:0)
  %PPQ_Variable_65 = Transpose[perm = [0, 2, 3, 1], quant_type = 'F32'](%digit_recognizer_v19_1/gb2_sc_dw_bn_1/batchnorm/add_1:0)
  %digit_recognizer_v19_1/gb2_gm1_ghost_bn_1/batchnorm/mul_1:0 = Mul[quant_type = 'F32'](%PPQ_Variable_66, %digit_recognizer_v19_1/gb2_gm1_ghost_bn_1/batchnorm/mul:0)
  %Conv__327:0 = Conv[dilations = [1, 1], group = 1, kernel_shape = [1, 1], pads = [0, 0, 0, 0], quant_type = 'F32', strides = [1, 1]](%PPQ_Variable_65, %digit_recognizer_v19_1/gb2_sc_conv_1/convolution/merged_input:0, %digit_recognizer_v19_1/gb2_sc_bn_1/batchnorm/sub:0)
  %digit_recognizer_v19_1/gb2_gm1_ghost_bn_1/batchnorm/add_1:0 = Add[quant_type = 'F32'](%digit_recognizer_v19_1/gb2_gm1_ghost_bn_1/batchnorm/mul_1:0, %const_fold_opt__624)
  %digit_recognizer_v19_1/gb2_gm1_ghost_relu6_1/Relu6:0 = Clip[quant_type = 'F32'](%digit_recognizer_v19_1/gb2_gm1_ghost_bn_1/batchnorm/add_1:0, %PPQ_Variable_7, %PPQ_Variable_34)
  %digit_recognizer_v19_1/gb2_gm1_concat_1/concat:0 = Concat[axis = 1, quant_type = 'F32'](%PPQ_Variable_67, %digit_recognizer_v19_1/gb2_gm1_ghost_relu6_1/Relu6:0)
  %PPQ_Variable_68 = Transpose[perm = [0, 2, 3, 1], quant_type = 'F32'](%digit_recognizer_v19_1/gb2_gm1_concat_1/concat:0)
  %Conv__351:0 = Conv[dilations = [1, 1], group = 1, kernel_shape = [1, 1], pads = [0, 0, 0, 0], quant_type = 'F32', strides = [1, 1]](%PPQ_Variable_68, %digit_recognizer_v19_1/gb2_gm2_primary_conv_1/convolution/merged_input:0, %digit_recognizer_v19_1/gb2_gm2_primary_bn_1/batchnorm/sub:0)
  %digit_recognizer_v19_1/gb2_gm2_primary_relu6_1/Relu6:0 = Clip[quant_type = 'F32'](%Conv__351:0, %PPQ_Variable_8, %PPQ_Variable_35)
  %digit_recognizer_v19_1/gb2_gm2_ghost_dw_1/depthwise:0 = Conv[dilations = [1, 1], group = 20, kernel_shape = [3, 3], pads = [1, 1, 1, 1], quant_type = 'F32', strides = [1, 1]](%digit_recognizer_v19_1/gb2_gm2_primary_relu6_1/Relu6:0, %const_fold_opt__600)
  %PPQ_Variable_70 = Transpose[perm = [0, 3, 1, 2], quant_type = 'F32'](%digit_recognizer_v19_1/gb2_gm2_primary_relu6_1/Relu6:0)
  %PPQ_Variable_69 = Transpose[perm = [0, 3, 1, 2], quant_type = 'F32'](%digit_recognizer_v19_1/gb2_gm2_ghost_dw_1/depthwise:0)
  %digit_recognizer_v19_1/gb2_gm2_ghost_bn_1/batchnorm/mul_1:0 = Mul[quant_type = 'F32'](%PPQ_Variable_69, %digit_recognizer_v19_1/gb2_gm2_ghost_bn_1/batchnorm/mul:0)
  %digit_recognizer_v19_1/gb2_gm2_ghost_bn_1/batchnorm/add_1:0 = Add[quant_type = 'F32'](%digit_recognizer_v19_1/gb2_gm2_ghost_bn_1/batchnorm/mul_1:0, %const_fold_opt__620)
  %digit_recognizer_v19_1/gb2_gm2_ghost_relu6_1/Relu6:0 = Clip[quant_type = 'F32'](%digit_recognizer_v19_1/gb2_gm2_ghost_bn_1/batchnorm/add_1:0, %PPQ_Variable_9, %PPQ_Variable_36)
  %digit_recognizer_v19_1/gb2_gm2_concat_1/concat:0 = Concat[axis = 1, quant_type = 'F32'](%PPQ_Variable_70, %digit_recognizer_v19_1/gb2_gm2_ghost_relu6_1/Relu6:0)
  %PPQ_Variable_71 = Transpose[perm = [0, 2, 3, 1], quant_type = 'F32'](%digit_recognizer_v19_1/gb2_gm2_concat_1/concat:0)
  %Conv__365:0 = Conv[dilations = [1, 1], group = 1, kernel_shape = [1, 1], pads = [0, 0, 0, 0], quant_type = 'F32', strides = [1, 1]](%PPQ_Variable_71, %digit_recognizer_v19_1/gb2_proj_1/convolution/merged_input:0, %digit_recognizer_v19_1/gb2_proj_bn_1/batchnorm/sub:0)
  %digit_recognizer_v19_1/gb2_add_1/Add:0 = Add[quant_type = 'F32'](%Conv__327:0, %Conv__365:0)
  %digit_recognizer_v19_1/gb2_relu6_1/Relu6:0 = Clip[quant_type = 'F32'](%digit_recognizer_v19_1/gb2_add_1/Add:0, %PPQ_Variable_10, %PPQ_Variable_37)
  %digit_recognizer_v19_1/gb3_sc_dw_1/depthwise:0 = Conv[dilations = [1, 1], group = 40, kernel_shape = [3, 3], pads = [0, 0, 1, 1], quant_type = 'F32', strides = [2, 2]](%digit_recognizer_v19_1/gb2_relu6_1/Relu6:0, %const_fold_opt__602)
  %Conv__381:0 = Conv[dilations = [1, 1], group = 1, kernel_shape = [1, 1], pads = [0, 0, 0, 0], quant_type = 'F32', strides = [1, 1]](%digit_recognizer_v19_1/gb2_relu6_1/Relu6:0, %digit_recognizer_v19_1/gb3_gm1_primary_conv_1/convolution/merged_input:0, %digit_recognizer_v19_1/gb3_gm1_primary_bn_1/batchnorm/sub:0)
  %PPQ_Variable_72 = Transpose[perm = [0, 3, 1, 2], quant_type = 'F32'](%digit_recognizer_v19_1/gb3_sc_dw_1/depthwise:0)
  %digit_recognizer_v19_1/gb3_gm1_primary_relu6_1/Relu6:0 = Clip[quant_type = 'F32'](%Conv__381:0, %PPQ_Variable_11, %PPQ_Variable_38)
  %digit_recognizer_v19_1/gb3_sc_dw_bn_1/batchnorm/mul_1:0 = Mul[quant_type = 'F32'](%PPQ_Variable_72, %digit_recognizer_v19_1/gb3_sc_dw_bn_1/batchnorm/mul:0)
  %digit_recognizer_v19_1/gb3_gm1_ghost_dw_1/depthwise:0 = Conv[dilations = [1, 1], group = 28, kernel_shape = [3, 3], pads = [1, 1, 1, 1], quant_type = 'F32', strides = [1, 1]](%digit_recognizer_v19_1/gb3_gm1_primary_relu6_1/Relu6:0, %const_fold_opt__580)
  %PPQ_Variable_75 = Transpose[perm = [0, 3, 1, 2], quant_type = 'F32'](%digit_recognizer_v19_1/gb3_gm1_primary_relu6_1/Relu6:0)
  %digit_recognizer_v19_1/gb3_sc_dw_bn_1/batchnorm/add_1:0 = Add[quant_type = 'F32'](%digit_recognizer_v19_1/gb3_sc_dw_bn_1/batchnorm/mul_1:0, %const_fold_opt__614)
  %PPQ_Variable_74 = Transpose[perm = [0, 3, 1, 2], quant_type = 'F32'](%digit_recognizer_v19_1/gb3_gm1_ghost_dw_1/depthwise:0)
  %PPQ_Variable_73 = Transpose[perm = [0, 2, 3, 1], quant_type = 'F32'](%digit_recognizer_v19_1/gb3_sc_dw_bn_1/batchnorm/add_1:0)
  %digit_recognizer_v19_1/gb3_gm1_ghost_bn_1/batchnorm/mul_1:0 = Mul[quant_type = 'F32'](%PPQ_Variable_74, %digit_recognizer_v19_1/gb3_gm1_ghost_bn_1/batchnorm/mul:0)
  %Conv__371:0 = Conv[dilations = [1, 1], group = 1, kernel_shape = [1, 1], pads = [0, 0, 0, 0], quant_type = 'F32', strides = [1, 1]](%PPQ_Variable_73, %digit_recognizer_v19_1/gb3_sc_conv_1/convolution/merged_input:0, %digit_recognizer_v19_1/gb3_sc_bn_1/batchnorm/sub:0)
  %digit_recognizer_v19_1/gb3_gm1_ghost_bn_1/batchnorm/add_1:0 = Add[quant_type = 'F32'](%digit_recognizer_v19_1/gb3_gm1_ghost_bn_1/batchnorm/mul_1:0, %const_fold_opt__598)
  %digit_recognizer_v19_1/gb3_gm1_ghost_relu6_1/Relu6:0 = Clip[quant_type = 'F32'](%digit_recognizer_v19_1/gb3_gm1_ghost_bn_1/batchnorm/add_1:0, %PPQ_Variable_12, %PPQ_Variable_39)
  %digit_recognizer_v19_1/gb3_gm1_concat_1/concat:0 = Concat[axis = 1, quant_type = 'F32'](%PPQ_Variable_75, %digit_recognizer_v19_1/gb3_gm1_ghost_relu6_1/Relu6:0)
  %PPQ_Variable_76 = Transpose[perm = [0, 2, 3, 1], quant_type = 'F32'](%digit_recognizer_v19_1/gb3_gm1_concat_1/concat:0)
  %digit_recognizer_v19_1/gb3_stride_dw_1/depthwise:0 = Conv[dilations = [1, 1], group = 56, kernel_shape = [3, 3], pads = [0, 0, 1, 1], quant_type = 'F32', strides = [2, 2]](%PPQ_Variable_76, %const_fold_opt__628)
  %PPQ_Variable_77 = Transpose[perm = [0, 3, 1, 2], quant_type = 'F32'](%digit_recognizer_v19_1/gb3_stride_dw_1/depthwise:0)
  %digit_recognizer_v19_1/gb3_stride_bn_1/batchnorm/mul_1:0 = Mul[quant_type = 'F32'](%PPQ_Variable_77, %digit_recognizer_v19_1/gb3_stride_bn_1/batchnorm/mul:0)
  %digit_recognizer_v19_1/gb3_stride_bn_1/batchnorm/add_1:0 = Add[quant_type = 'F32'](%digit_recognizer_v19_1/gb3_stride_bn_1/batchnorm/mul_1:0, %const_fold_opt__616)
  %PPQ_Variable_78 = Transpose[perm = [0, 2, 3, 1], quant_type = 'F32'](%digit_recognizer_v19_1/gb3_stride_bn_1/batchnorm/add_1:0)
  %Conv__399:0 = Conv[dilations = [1, 1], group = 1, kernel_shape = [1, 1], pads = [0, 0, 0, 0], quant_type = 'F32', strides = [1, 1]](%PPQ_Variable_78, %digit_recognizer_v19_1/gb3_gm2_primary_conv_1/convolution/merged_input:0, %digit_recognizer_v19_1/gb3_gm2_primary_bn_1/batchnorm/sub:0)
  %digit_recognizer_v19_1/gb3_gm2_primary_relu6_1/Relu6:0 = Clip[quant_type = 'F32'](%Conv__399:0, %PPQ_Variable_13, %PPQ_Variable_40)
  %digit_recognizer_v19_1/gb3_gm2_ghost_dw_1/depthwise:0 = Conv[dilations = [1, 1], group = 28, kernel_shape = [3, 3], pads = [1, 1, 1, 1], quant_type = 'F32', strides = [1, 1]](%digit_recognizer_v19_1/gb3_gm2_primary_relu6_1/Relu6:0, %const_fold_opt__585)
  %PPQ_Variable_80 = Transpose[perm = [0, 3, 1, 2], quant_type = 'F32'](%digit_recognizer_v19_1/gb3_gm2_primary_relu6_1/Relu6:0)
  %PPQ_Variable_79 = Transpose[perm = [0, 3, 1, 2], quant_type = 'F32'](%digit_recognizer_v19_1/gb3_gm2_ghost_dw_1/depthwise:0)
  %digit_recognizer_v19_1/gb3_gm2_ghost_bn_1/batchnorm/mul_1:0 = Mul[quant_type = 'F32'](%PPQ_Variable_79, %digit_recognizer_v19_1/gb3_gm2_ghost_bn_1/batchnorm/mul:0)
  %digit_recognizer_v19_1/gb3_gm2_ghost_bn_1/batchnorm/add_1:0 = Add[quant_type = 'F32'](%digit_recognizer_v19_1/gb3_gm2_ghost_bn_1/batchnorm/mul_1:0, %const_fold_opt__609)
  %digit_recognizer_v19_1/gb3_gm2_ghost_relu6_1/Relu6:0 = Clip[quant_type = 'F32'](%digit_recognizer_v19_1/gb3_gm2_ghost_bn_1/batchnorm/add_1:0, %PPQ_Variable_14, %PPQ_Variable_41)
  %digit_recognizer_v19_1/gb3_gm2_concat_1/concat:0 = Concat[axis = 1, quant_type = 'F32'](%PPQ_Variable_80, %digit_recognizer_v19_1/gb3_gm2_ghost_relu6_1/Relu6:0)
  %PPQ_Variable_81 = Transpose[perm = [0, 2, 3, 1], quant_type = 'F32'](%digit_recognizer_v19_1/gb3_gm2_concat_1/concat:0)
  %Conv__413:0 = Conv[dilations = [1, 1], group = 1, kernel_shape = [1, 1], pads = [0, 0, 0, 0], quant_type = 'F32', strides = [1, 1]](%PPQ_Variable_81, %digit_recognizer_v19_1/gb3_proj_1/convolution/merged_input:0, %digit_recognizer_v19_1/gb3_proj_bn_1/batchnorm/sub:0)
  %digit_recognizer_v19_1/gb3_add_1/Add:0 = Add[quant_type = 'F32'](%Conv__371:0, %Conv__413:0)
  %digit_recognizer_v19_1/gb3_relu6_1/Relu6:0 = Clip[quant_type = 'F32'](%digit_recognizer_v19_1/gb3_add_1/Add:0, %PPQ_Variable_15, %PPQ_Variable_42)
  %digit_recognizer_v19_1/gb4_sc_dw_1/depthwise:0 = Conv[dilations = [1, 1], group = 56, kernel_shape = [3, 3], pads = [1, 1, 1, 1], quant_type = 'F32', strides = [1, 1]](%digit_recognizer_v19_1/gb3_relu6_1/Relu6:0, %const_fold_opt__626)
  %Conv__429:0 = Conv[dilations = [1, 1], group = 1, kernel_shape = [1, 1], pads = [0, 0, 0, 0], quant_type = 'F32', strides = [1, 1]](%digit_recognizer_v19_1/gb3_relu6_1/Relu6:0, %digit_recognizer_v19_1/gb4_gm1_primary_conv_1/convolution/merged_input:0, %digit_recognizer_v19_1/gb4_gm1_primary_bn_1/batchnorm/sub:0)
  %PPQ_Variable_82 = Transpose[perm = [0, 3, 1, 2], quant_type = 'F32'](%digit_recognizer_v19_1/gb4_sc_dw_1/depthwise:0)
  %digit_recognizer_v19_1/gb4_gm1_primary_relu6_1/Relu6:0 = Clip[quant_type = 'F32'](%Conv__429:0, %PPQ_Variable_16, %PPQ_Variable_43)
  %digit_recognizer_v19_1/gb4_sc_dw_bn_1/batchnorm/mul_1:0 = Mul[quant_type = 'F32'](%PPQ_Variable_82, %digit_recognizer_v19_1/gb4_sc_dw_bn_1/batchnorm/mul:0)
  %digit_recognizer_v19_1/gb4_gm1_ghost_dw_1/depthwise:0 = Conv[dilations = [1, 1], group = 32, kernel_shape = [3, 3], pads = [1, 1, 1, 1], quant_type = 'F32', strides = [1, 1]](%digit_recognizer_v19_1/gb4_gm1_primary_relu6_1/Relu6:0, %const_fold_opt__601)
  %PPQ_Variable_85 = Transpose[perm = [0, 3, 1, 2], quant_type = 'F32'](%digit_recognizer_v19_1/gb4_gm1_primary_relu6_1/Relu6:0)
  %digit_recognizer_v19_1/gb4_sc_dw_bn_1/batchnorm/add_1:0 = Add[quant_type = 'F32'](%digit_recognizer_v19_1/gb4_sc_dw_bn_1/batchnorm/mul_1:0, %const_fold_opt__627)
  %PPQ_Variable_84 = Transpose[perm = [0, 3, 1, 2], quant_type = 'F32'](%digit_recognizer_v19_1/gb4_gm1_ghost_dw_1/depthwise:0)
  %PPQ_Variable_83 = Transpose[perm = [0, 2, 3, 1], quant_type = 'F32'](%digit_recognizer_v19_1/gb4_sc_dw_bn_1/batchnorm/add_1:0)
  %digit_recognizer_v19_1/gb4_gm1_ghost_bn_1/batchnorm/mul_1:0 = Mul[quant_type = 'F32'](%PPQ_Variable_84, %digit_recognizer_v19_1/gb4_gm1_ghost_bn_1/batchnorm/mul:0)
  %Conv__419:0 = Conv[dilations = [1, 1], group = 1, kernel_shape = [1, 1], pads = [0, 0, 0, 0], quant_type = 'F32', strides = [1, 1]](%PPQ_Variable_83, %digit_recognizer_v19_1/gb4_sc_conv_1/convolution/merged_input:0, %digit_recognizer_v19_1/gb4_sc_bn_1/batchnorm/sub:0)
  %digit_recognizer_v19_1/gb4_gm1_ghost_bn_1/batchnorm/add_1:0 = Add[quant_type = 'F32'](%digit_recognizer_v19_1/gb4_gm1_ghost_bn_1/batchnorm/mul_1:0, %const_fold_opt__589)
  %digit_recognizer_v19_1/gb4_gm1_ghost_relu6_1/Relu6:0 = Clip[quant_type = 'F32'](%digit_recognizer_v19_1/gb4_gm1_ghost_bn_1/batchnorm/add_1:0, %PPQ_Variable_17, %PPQ_Variable_44)
  %digit_recognizer_v19_1/gb4_gm1_concat_1/concat:0 = Concat[axis = 1, quant_type = 'F32'](%PPQ_Variable_85, %digit_recognizer_v19_1/gb4_gm1_ghost_relu6_1/Relu6:0)
  %PPQ_Variable_86 = Transpose[perm = [0, 2, 3, 1], quant_type = 'F32'](%digit_recognizer_v19_1/gb4_gm1_concat_1/concat:0)
  %Conv__443:0 = Conv[dilations = [1, 1], group = 1, kernel_shape = [1, 1], pads = [0, 0, 0, 0], quant_type = 'F32', strides = [1, 1]](%PPQ_Variable_86, %digit_recognizer_v19_1/gb4_gm2_primary_conv_1/convolution/merged_input:0, %digit_recognizer_v19_1/gb4_gm2_primary_bn_1/batchnorm/sub:0)
  %digit_recognizer_v19_1/gb4_gm2_primary_relu6_1/Relu6:0 = Clip[quant_type = 'F32'](%Conv__443:0, %PPQ_Variable_18, %PPQ_Variable_45)
  %digit_recognizer_v19_1/gb4_gm2_ghost_dw_1/depthwise:0 = Conv[dilations = [1, 1], group = 32, kernel_shape = [3, 3], pads = [1, 1, 1, 1], quant_type = 'F32', strides = [1, 1]](%digit_recognizer_v19_1/gb4_gm2_primary_relu6_1/Relu6:0, %const_fold_opt__610)
  %PPQ_Variable_88 = Transpose[perm = [0, 3, 1, 2], quant_type = 'F32'](%digit_recognizer_v19_1/gb4_gm2_primary_relu6_1/Relu6:0)
  %PPQ_Variable_87 = Transpose[perm = [0, 3, 1, 2], quant_type = 'F32'](%digit_recognizer_v19_1/gb4_gm2_ghost_dw_1/depthwise:0)
  %digit_recognizer_v19_1/gb4_gm2_ghost_bn_1/batchnorm/mul_1:0 = Mul[quant_type = 'F32'](%PPQ_Variable_87, %digit_recognizer_v19_1/gb4_gm2_ghost_bn_1/batchnorm/mul:0)
  %digit_recognizer_v19_1/gb4_gm2_ghost_bn_1/batchnorm/add_1:0 = Add[quant_type = 'F32'](%digit_recognizer_v19_1/gb4_gm2_ghost_bn_1/batchnorm/mul_1:0, %const_fold_opt__619)
  %digit_recognizer_v19_1/gb4_gm2_ghost_relu6_1/Relu6:0 = Clip[quant_type = 'F32'](%digit_recognizer_v19_1/gb4_gm2_ghost_bn_1/batchnorm/add_1:0, %PPQ_Variable_19, %PPQ_Variable_46)
  %digit_recognizer_v19_1/gb4_gm2_concat_1/concat:0 = Concat[axis = 1, quant_type = 'F32'](%PPQ_Variable_88, %digit_recognizer_v19_1/gb4_gm2_ghost_relu6_1/Relu6:0)
  %PPQ_Variable_89 = Transpose[perm = [0, 2, 3, 1], quant_type = 'F32'](%digit_recognizer_v19_1/gb4_gm2_concat_1/concat:0)
  %Conv__457:0 = Conv[dilations = [1, 1], group = 1, kernel_shape = [1, 1], pads = [0, 0, 0, 0], quant_type = 'F32', strides = [1, 1]](%PPQ_Variable_89, %digit_recognizer_v19_1/gb4_proj_1/convolution/merged_input:0, %digit_recognizer_v19_1/gb4_proj_bn_1/batchnorm/sub:0)
  %digit_recognizer_v19_1/gb4_add_1/Add:0 = Add[quant_type = 'F32'](%Conv__419:0, %Conv__457:0)
  %digit_recognizer_v19_1/gb4_relu6_1/Relu6:0 = Clip[quant_type = 'F32'](%digit_recognizer_v19_1/gb4_add_1/Add:0, %PPQ_Variable_20, %PPQ_Variable_47)
  %digit_recognizer_v19_1/gb5_sc_dw_1/depthwise:0 = Conv[dilations = [1, 1], group = 64, kernel_shape = [3, 3], pads = [1, 1, 1, 1], quant_type = 'F32', strides = [1, 1]](%digit_recognizer_v19_1/gb4_relu6_1/Relu6:0, %const_fold_opt__583)
  %Conv__473:0 = Conv[dilations = [1, 1], group = 1, kernel_shape = [1, 1], pads = [0, 0, 0, 0], quant_type = 'F32', strides = [1, 1]](%digit_recognizer_v19_1/gb4_relu6_1/Relu6:0, %digit_recognizer_v19_1/gb5_gm1_primary_conv_1/convolution/merged_input:0, %digit_recognizer_v19_1/gb5_gm1_primary_bn_1/batchnorm/sub:0)
  %PPQ_Variable_90 = Transpose[perm = [0, 3, 1, 2], quant_type = 'F32'](%digit_recognizer_v19_1/gb5_sc_dw_1/depthwise:0)
  %digit_recognizer_v19_1/gb5_gm1_primary_relu6_1/Relu6:0 = Clip[quant_type = 'F32'](%Conv__473:0, %PPQ_Variable_21, %PPQ_Variable_48)
  %digit_recognizer_v19_1/gb5_sc_dw_bn_1/batchnorm/mul_1:0 = Mul[quant_type = 'F32'](%PPQ_Variable_90, %digit_recognizer_v19_1/gb5_sc_dw_bn_1/batchnorm/mul:0)
  %digit_recognizer_v19_1/gb5_gm1_ghost_dw_1/depthwise:0 = Conv[dilations = [1, 1], group = 40, kernel_shape = [3, 3], pads = [1, 1, 1, 1], quant_type = 'F32', strides = [1, 1]](%digit_recognizer_v19_1/gb5_gm1_primary_relu6_1/Relu6:0, %const_fold_opt__599)
  %PPQ_Variable_93 = Transpose[perm = [0, 3, 1, 2], quant_type = 'F32'](%digit_recognizer_v19_1/gb5_gm1_primary_relu6_1/Relu6:0)
  %digit_recognizer_v19_1/gb5_sc_dw_bn_1/batchnorm/add_1:0 = Add[quant_type = 'F32'](%digit_recognizer_v19_1/gb5_sc_dw_bn_1/batchnorm/mul_1:0, %const_fold_opt__618)
  %PPQ_Variable_92 = Transpose[perm = [0, 3, 1, 2], quant_type = 'F32'](%digit_recognizer_v19_1/gb5_gm1_ghost_dw_1/depthwise:0)
  %PPQ_Variable_91 = Transpose[perm = [0, 2, 3, 1], quant_type = 'F32'](%digit_recognizer_v19_1/gb5_sc_dw_bn_1/batchnorm/add_1:0)
  %digit_recognizer_v19_1/gb5_gm1_ghost_bn_1/batchnorm/mul_1:0 = Mul[quant_type = 'F32'](%PPQ_Variable_92, %digit_recognizer_v19_1/gb5_gm1_ghost_bn_1/batchnorm/mul:0)
  %Conv__463:0 = Conv[dilations = [1, 1], group = 1, kernel_shape = [1, 1], pads = [0, 0, 0, 0], quant_type = 'F32', strides = [1, 1]](%PPQ_Variable_91, %digit_recognizer_v19_1/gb5_sc_conv_1/convolution/merged_input:0, %digit_recognizer_v19_1/gb5_sc_bn_1/batchnorm/sub:0)
  %digit_recognizer_v19_1/gb5_gm1_ghost_bn_1/batchnorm/add_1:0 = Add[quant_type = 'F32'](%digit_recognizer_v19_1/gb5_gm1_ghost_bn_1/batchnorm/mul_1:0, %const_fold_opt__612)
  %digit_recognizer_v19_1/gb5_gm1_ghost_relu6_1/Relu6:0 = Clip[quant_type = 'F32'](%digit_recognizer_v19_1/gb5_gm1_ghost_bn_1/batchnorm/add_1:0, %PPQ_Variable_22, %PPQ_Variable_49)
  %digit_recognizer_v19_1/gb5_gm1_concat_1/concat:0 = Concat[axis = 1, quant_type = 'F32'](%PPQ_Variable_93, %digit_recognizer_v19_1/gb5_gm1_ghost_relu6_1/Relu6:0)
  %PPQ_Variable_94 = Transpose[perm = [0, 2, 3, 1], quant_type = 'F32'](%digit_recognizer_v19_1/gb5_gm1_concat_1/concat:0)
  %Conv__487:0 = Conv[dilations = [1, 1], group = 1, kernel_shape = [1, 1], pads = [0, 0, 0, 0], quant_type = 'F32', strides = [1, 1]](%PPQ_Variable_94, %digit_recognizer_v19_1/gb5_gm2_primary_conv_1/convolution/merged_input:0, %digit_recognizer_v19_1/gb5_gm2_primary_bn_1/batchnorm/sub:0)
  %digit_recognizer_v19_1/gb5_gm2_primary_relu6_1/Relu6:0 = Clip[quant_type = 'F32'](%Conv__487:0, %PPQ_Variable_23, %PPQ_Variable_50)
  %digit_recognizer_v19_1/gb5_gm2_ghost_dw_1/depthwise:0 = Conv[dilations = [1, 1], group = 40, kernel_shape = [3, 3], pads = [1, 1, 1, 1], quant_type = 'F32', strides = [1, 1]](%digit_recognizer_v19_1/gb5_gm2_primary_relu6_1/Relu6:0, %const_fold_opt__591)
  %PPQ_Variable_96 = Transpose[perm = [0, 3, 1, 2], quant_type = 'F32'](%digit_recognizer_v19_1/gb5_gm2_primary_relu6_1/Relu6:0)
  %PPQ_Variable_95 = Transpose[perm = [0, 3, 1, 2], quant_type = 'F32'](%digit_recognizer_v19_1/gb5_gm2_ghost_dw_1/depthwise:0)
  %digit_recognizer_v19_1/gb5_gm2_ghost_bn_1/batchnorm/mul_1:0 = Mul[quant_type = 'F32'](%PPQ_Variable_95, %digit_recognizer_v19_1/gb5_gm2_ghost_bn_1/batchnorm/mul:0)
  %digit_recognizer_v19_1/gb5_gm2_ghost_bn_1/batchnorm/add_1:0 = Add[quant_type = 'F32'](%digit_recognizer_v19_1/gb5_gm2_ghost_bn_1/batchnorm/mul_1:0, %const_fold_opt__615)
  %digit_recognizer_v19_1/gb5_gm2_ghost_relu6_1/Relu6:0 = Clip[quant_type = 'F32'](%digit_recognizer_v19_1/gb5_gm2_ghost_bn_1/batchnorm/add_1:0, %PPQ_Variable_24, %PPQ_Variable_51)
  %digit_recognizer_v19_1/gb5_gm2_concat_1/concat:0 = Concat[axis = 1, quant_type = 'F32'](%PPQ_Variable_96, %digit_recognizer_v19_1/gb5_gm2_ghost_relu6_1/Relu6:0)
  %PPQ_Variable_97 = Transpose[perm = [0, 2, 3, 1], quant_type = 'F32'](%digit_recognizer_v19_1/gb5_gm2_concat_1/concat:0)
  %Conv__501:0 = Conv[dilations = [1, 1], group = 1, kernel_shape = [1, 1], pads = [0, 0, 0, 0], quant_type = 'F32', strides = [1, 1]](%PPQ_Variable_97, %digit_recognizer_v19_1/gb5_proj_1/convolution/merged_input:0, %digit_recognizer_v19_1/gb5_proj_bn_1/batchnorm/sub:0)
  %digit_recognizer_v19_1/gb5_add_1/Add:0 = Add[quant_type = 'F32'](%Conv__463:0, %Conv__501:0)
  %digit_recognizer_v19_1/gb5_relu6_1/Relu6:0 = Clip[quant_type = 'F32'](%digit_recognizer_v19_1/gb5_add_1/Add:0, %PPQ_Variable_25, %PPQ_Variable_52)
  %Conv__503:0 = Conv[dilations = [1, 1], group = 1, kernel_shape = [1, 1], pads = [0, 0, 0, 0], quant_type = 'F32', strides = [1, 1]](%digit_recognizer_v19_1/gb5_relu6_1/Relu6:0, %digit_recognizer_v19_1/head_conv_1/convolution/merged_input:0, %digit_recognizer_v19_1/head_bn_1/batchnorm/sub:0)
  %digit_recognizer_v19_1/head_relu6_1/Relu6:0 = Clip[quant_type = 'F32'](%Conv__503:0, %PPQ_Variable_26, %PPQ_Variable_53)
  %digit_recognizer_v19_1/gap_1/Mean:0 = GlobalAveragePool[quant_type = 'F32'](%digit_recognizer_v19_1/head_relu6_1/Relu6:0)
  %PPQ_Variable_98 = Transpose[perm = [0, 3, 1, 2], quant_type = 'F32'](%digit_recognizer_v19_1/gap_1/Mean:0)
  %digit_recognizer_v19_1/gap_1/Mean_Squeeze__630:0 = Squeeze[quant_type = 'F32'](%PPQ_Variable_98, %const_axes__629)
  %digit_recognizer_v19_1/output_1/MatMul:0 = MatMul[quant_type = 'F32'](%digit_recognizer_v19_1/gap_1/Mean_Squeeze__630:0, %digit_recognizer_v19_1/output_1/Cast/ReadVariableOp:0)
  %digit_recognizer_v19_1/output_1/BiasAdd:0 = Add[quant_type = 'F32'](%digit_recognizer_v19_1/output_1/MatMul:0, %digit_recognizer_v19_1/output_1/BiasAdd/ReadVariableOp:0)
  %output = Softmax[quant_type = 'F32'](%digit_recognizer_v19_1/output_1/BiasAdd:0)
  return %output
}


initializers value:
%digit_recognizer_v19_1/gb3_sc_dw_bn_1/batchnorm/mul:0, shape: [1, 40, 1, 1], exponents: [0], docString: b'layout ==> UNK', 
value: array([… dtype=float32)
%const_fold_opt__585, shape: [28, 1, 3, 3], exponents: [0], docString: b'layout ==> UNK', 
value: array([… dtype=float32)
%digit_recognizer_v19_1/gb4_sc_bn_1/batchnorm/sub:0, shape: [64], exponents: [0], docString: b'layout ==> UNK', 
value: array([… dtype=float32)
%digit_recognizer_v19_1/entry_bn_1/batchnorm/sub:0, shape: [20], exponents: [0], docString: b'layout ==> UNK', 
value: array([ … dtype=float32)
%const_fold_opt__616, shape: [1, 56, 1, 1], exponents: [0], docString: b'layout ==> UNK', 
value: array([… dtype=float32)
%digit_recognizer_v19_1/gb3_gm2_primary_bn_1/batchnorm/sub:0, shape: [28], exponents: [0], docString: b'layout ==> UNK', 
value: array([ … dtype=float32)
%digit_recognizer_v19_1/gb3_gm1_primary_conv_1/convolution/merged_input:0, shape: [28, 40, 1, 1], exponents: [0], docString: b'layout ==> UNK', 
value: array([… dtype=float32)
%digit_recognizer_v19_1/gb2_sc_conv_1/convolution/merged_input:0, shape: [40, 32, 1, 1], exponents: [0], docString: b'layout ==> UNK', 
value: array([… dtype=float32)
%const_fold_opt__612, shape: [1, 40, 1, 1], exponents: [0], docString: b'layout ==> UNK', 
value: array([… dtype=float32)
%digit_recognizer_v19_1/gb1_gm2_primary_conv_1/convolution/merged_input:0, shape: [16, 32, 1, 1], exponents: [0], docString: b'layout ==> UNK', 
value: array([… dtype=float32)
%digit_recognizer_v19_1/gb3_gm2_primary_conv_1/convolution/merged_input:0, shape: [28, 56, 1, 1], exponents: [0], docString: b'layout ==> UNK', 
value: array([ … dtype=float32)
%const_fold_opt__627, shape: [1, 56, 1, 1], exponents: [0], docString: b'layout ==> UNK', 
value: array([ … dtype=float32)
%digit_recognizer_v19_1/head_bn_1/batchnorm/sub:0, shape: [128], exponents: [0], docString: b'layout ==> UNK', 
value: array([ … dtype=float32)
%digit_recognizer_v19_1/gb5_gm1_primary_bn_1/batchnorm/sub:0, shape: [40], exponents: [0], docString: b'layout ==> UNK', 
value: array([… dtype=float32)
%digit_recognizer_v19_1/gb5_sc_bn_1/batchnorm/sub:0, shape: [80], exponents: [0], docString: b'layout ==> UNK', 
value: array([… dtype=float32)
%digit_recognizer_v19_1/gb5_gm2_ghost_bn_1/batchnorm/mul:0, shape: [1, 40, 1, 1], exponents: [0], docString: b'layout ==> UNK', 
value: array([… dtype=float32)
%const_fold_opt__583, shape: [64, 1, 3, 3], exponents: [0], docString: b'layout ==> UNK', 
value: array([… dtype=float32)
%digit_recognizer_v19_1/gb5_proj_1/convolution/merged_input:0, shape: [80, 80, 1, 1], exponents: [0], docString: b'layout ==> UNK', 
value: array([… dtype=float32)
%digit_recognizer_v19_1/gb4_proj_1/convolution/merged_input:0, shape: [64, 64, 1, 1], exponents: [0], docString: b'layout ==> UNK', 
value: array([ … dtype=float32)
%const_fold_opt__600, shape: [20, 1, 3, 3], exponents: [0], docString: b'layout ==> UNK', 
value: array([… dtype=float32)
%digit_recognizer_v19_1/gb1_proj_1/convolution/merged_input:0, shape: [32, 32, 1, 1], exponents: [0], docString: b'layout ==> UNK', 
value: array([ … dtype=float32)
%const_fold_opt__614, shape: [1, 40, 1, 1], exponents: [0], docString: b'layout ==> UNK', 
value: array([… dtype=float32)
%digit_recognizer_v19_1/gb3_sc_bn_1/batchnorm/sub:0, shape: [56], exponents: [0], docString: b'layout ==> UNK', 
value: array([… dtype=float32)
%digit_recognizer_v19_1/gb2_gm2_ghost_bn_1/batchnorm/mul:0, shape: [1, 20, 1, 1], exponents: [0], docString: b'layout ==> UNK', 
value: array([… dtype=float32)
%const_fold_opt__623, shape: [16, 1, 3, 3], exponents: [0], docString: b'layout ==> UNK', 
value: array([ … dtype=float32)
%digit_recognizer_v19_1/gb2_sc_dw_bn_1/batchnorm/mul:0, shape: [1, 32, 1, 1], exponents: [0], docString: b'layout ==> UNK', 
value: array([… dtype=float32)
%digit_recognizer_v19_1/gb4_proj_bn_1/batchnorm/sub:0, shape: [64], exponents: [0], docString: b'layout ==> UNK', 
value: array([… dtype=float32)
%const_fold_opt__617, shape: [1, 32, 1, 1], exponents: [0], docString: b'layout ==> UNK', 
value: array([ … dtype=float32)
%const_fold_opt__628, shape: [56, 1, 3, 3], exponents: [0], docString: b'layout ==> UNK', 
value: array([… dtype=float32)
%digit_recognizer_v19_1/gb4_gm1_primary_conv_1/convolution/merged_input:0, shape: [32, 56, 1, 1], exponents: [0], docString: b'layout ==> UNK', 
value: array([… dtype=float32)
%digit_recognizer_v19_1/gb1_sc_conv_1/convolution/merged_input:0, shape: [32, 20, 1, 1], exponents: [0], docString: b'layout ==> UNK', 
value: array([ … dtype=float32)
%digit_recognizer_v19_1/gb4_sc_dw_bn_1/batchnorm/mul:0, shape: [1, 56, 1, 1], exponents: [0], docString: b'layout ==> UNK', 
value: array([… dtype=float32)
%digit_recognizer_v19_1/gb4_gm1_primary_bn_1/batchnorm/sub:0, shape: [32], exponents: [0], docString: b'layout ==> UNK', 
value: array([ … dtype=float32)
%digit_recognizer_v19_1/gb2_gm1_primary_bn_1/batchnorm/sub:0, shape: [20], exponents: [0], docString: b'layout ==> UNK', 
value: array([ … dtype=float32)
%digit_recognizer_v19_1/gb2_sc_bn_1/batchnorm/sub:0, shape: [40], exponents: [0], docString: b'layout ==> UNK', 
value: array([… dtype=float32)
%const_fold_opt__602, shape: [40, 1, 3, 3], exponents: [0], docString: b'layout ==> UNK', 
value: array([ … dtype=float32)
%const_fold_opt__625, shape: [20, 1, 3, 3], exponents: [0], docString: b'layout ==> UNK', 
value: array([ … dtype=float32)
%const_fold_opt__594, shape: [32, 1, 3, 3], exponents: [0], docString: b'layout ==> UNK', 
value: array([… dtype=float32)
%const_fold_opt__613, shape: [1, 32, 1, 1], exponents: [0], docString: b'layout ==> UNK', 
value: array([ … dtype=float32)
%digit_recognizer_v19_1/gb5_gm1_primary_conv_1/convolution/merged_input:0, shape: [40, 64, 1, 1], exponents: [0], docString: b'layout ==> UNK', 
value: array([ … dtype=float32)
%const_fold_opt__586, shape: [20, 1, 3, 3], exponents: [0], docString: b'layout ==> UNK', 
value: array([ … dtype=float32)
%digit_recognizer_v19_1/gb1_gm2_ghost_bn_1/batchnorm/mul:0, shape: [1, 16, 1, 1], exponents: [0], docString: b'layout ==> UNK', 
value: array([… dtype=float32)
%digit_recognizer_v19_1/gb5_sc_dw_bn_1/batchnorm/mul:0, shape: [1, 64, 1, 1], exponents: [0], docString: b'layout ==> UNK', 
value: array([… dtype=float32)
%digit_recognizer_v19_1/gb3_gm1_primary_bn_1/batchnorm/sub:0, shape: [28], exponents: [0], docString: b'layout ==> UNK', 
value: array([ … dtype=float32)
%const_fold_opt__601, shape: [32, 1, 3, 3], exponents: [0], docString: b'layout ==> UNK', 
value: array([… dtype=float32)
%const_fold_opt__622, shape: [1, 16, 1, 1], exponents: [0], docString: b'layout ==> UNK', 
value: array([… dtype=float32)
%const_fold_opt__624, shape: [1, 20, 1, 1], exponents: [0], docString: b'layout ==> UNK', 
value: array([ … dtype=float32)
%digit_recognizer_v19_1/gb3_stride_bn_1/batchnorm/mul:0, shape: [1, 56, 1, 1], exponents: [0], docString: b'layout ==> UNK', 
value: array([… dtype=float32)
%const_fold_opt__597, shape: [32, 1, 3, 3], exponents: [0], docString: b'layout ==> UNK', 
value: array([… dtype=float32)
%const_fold_opt__618, shape: [1, 64, 1, 1], exponents: [0], docString: b'layout ==> UNK', 
value: array([… dtype=float32)
%digit_recognizer_v19_1/gb1_gm1_primary_conv_1/convolution/merged_input:0, shape: [16, 20, 1, 1], exponents: [0], docString: b'layout ==> UNK', 
value: array([… dtype=float32)
%digit_recognizer_v19_1/gb1_gm1_primary_bn_1/batchnorm/sub:0, shape: [16], exponents: [0], docString: b'layout ==> UNK', 
value: array([ … dtype=float32)
%digit_recognizer_v19_1/gb1_stride_bn_1/batchnorm/mul:0, shape: [1, 32, 1, 1], exponents: [0], docString: b'layout ==> UNK', 
value: array([… dtype=float32)
%digit_recognizer_v19_1/gb2_proj_1/convolution/merged_input:0, shape: [40, 40, 1, 1], exponents: [0], docString: b'layout ==> UNK', 
value: array([ … dtype=float32)
%digit_recognizer_v19_1/gb3_proj_bn_1/batchnorm/sub:0, shape: [56], exponents: [0], docString: b'layout ==> UNK', 
value: array([… dtype=float32)
%digit_recognizer_v19_1/gb3_gm2_ghost_bn_1/batchnorm/mul:0, shape: [1, 28, 1, 1], exponents: [0], docString: b'layout ==> UNK', 
value: array([… dtype=float32)
%const_fold_opt__610, shape: [32, 1, 3, 3], exponents: [0], docString: b'layout ==> UNK', 
value: array([ … dtype=float32)
%digit_recognizer_v19_1/gb4_sc_conv_1/convolution/merged_input:0, shape: [64, 56, 1, 1], exponents: [0], docString: b'layout ==> UNK', 
value: array([… dtype=float32)
%const_fold_opt__619, shape: [1, 32, 1, 1], exponents: [0], docString: b'layout ==> UNK', 
value: array([ … dtype=float32)
%const_axes__629, shape: [2], exponents: [0], docString: b'layout ==> UNK', 
value: array([2, 3], dtype=int64)
%digit_recognizer_v19_1/gb5_gm1_ghost_bn_1/batchnorm/mul:0, shape: [1, 40, 1, 1], exponents: [0], docString: b'layout ==> UNK', 
value: array([… dtype=float32)
%const_fold_opt__591, shape: [40, 1, 3, 3], exponents: [0], docString: b'layout ==> UNK', 
value: array([… dtype=float32)
%const_fold_opt__593, shape: [1, 16, 1, 1], exponents: [0], docString: b'layout ==> UNK', 
value: array([ … dtype=float32)
%digit_recognizer_v19_1/gb2_gm1_ghost_bn_1/batchnorm/mul:0, shape: [1, 20, 1, 1], exponents: [0], docString: b'layout ==> UNK', 
value: array([… dtype=float32)
%const_fold_opt__626, shape: [56, 1, 3, 3], exponents: [0], docString: b'layout ==> UNK', 
value: array([… dtype=float32)
%digit_recognizer_v19_1/output_1/BiasAdd/ReadVariableOp:0, shape: [10], exponents: [0], docString: b'layout ==> UNK', 
value: array([ 0.01668314, -0.01905578,  0.03572448,  0.00071614, -0.0326506 ,
        0.05505058, -0.04003191, -0.03094946, -0.07390382,  0.03933325,
        0.        ,  0.        ], dtype=float32)
%const_fold_opt__589, shape: [1, 32, 1, 1], exponents: [0], docString: b'layout ==> UNK', 
value: array([ … dtype=float32)
%digit_recognizer_v19_1/gb5_sc_conv_1/convolution/merged_input:0, shape: [80, 64, 1, 1], exponents: [0], docString: b'layout ==> UNK', 
value: array([… dtype=float32)
%digit_recognizer_v19_1/gb1_sc_dw_bn_1/batchnorm/mul:0, shape: [1, 20, 1, 1], exponents: [0], docString: b'layout ==> UNK', 
value: array([… dtype=float32)
%digit_recognizer_v19_1/gb1_sc_bn_1/batchnorm/sub:0, shape: [32], exponents: [0], docString: b'layout ==> UNK', 
value: array([ … dtype=float32)
%const_fold_opt__599, shape: [40, 1, 3, 3], exponents: [0], docString: b'layout ==> UNK', 
value: array([ … dtype=float32)
%const_fold_opt__580, shape: [28, 1, 3, 3], exponents: [0], docString: b'layout ==> UNK', 
value: array([ … dtype=float32)
%digit_recognizer_v19_1/gb4_gm2_primary_conv_1/convolution/merged_input:0, shape: [32, 64, 1, 1], exponents: [0], docString: b'layout ==> UNK', 
value: array([… dtype=float32)
%digit_recognizer_v19_1/gb2_proj_bn_1/batchnorm/sub:0, shape: [40], exponents: [0], docString: b'layout ==> UNK', 
value: array([… dtype=float32)
%digit_recognizer_v19_1/gb2_gm2_primary_bn_1/batchnorm/sub:0, shape: [20], exponents: [0], docString: b'layout ==> UNK', 
value: array([… dtype=float32)
%const_fold_opt__578, shape: [16, 1, 3, 3], exponents: [0], docString: b'layout ==> UNK', 
value: array([ … dtype=float32)
%digit_recognizer_v19_1/gb4_gm2_ghost_bn_1/batchnorm/mul:0, shape: [1, 32, 1, 1], exponents: [0], docString: b'layout ==> UNK', 
value: array([… dtype=float32)
%digit_recognizer_v19_1/gb2_gm2_primary_conv_1/convolution/merged_input:0, shape: [20, 40, 1, 1], exponents: [0], docString: b'layout ==> UNK', 
value: array([ … dtype=float32)
%const_fold_opt__615, shape: [1, 40, 1, 1], exponents: [0], docString: b'layout ==> UNK', 
value: array([ … dtype=float32)
%digit_recognizer_v19_1/gb3_sc_conv_1/convolution/merged_input:0, shape: [56, 40, 1, 1], exponents: [0], docString: b'layout ==> UNK', 
value: array([… dtype=float32)
%digit_recognizer_v19_1/gb1_proj_bn_1/batchnorm/sub:0, shape: [32], exponents: [0], docString: b'layout ==> UNK', 
value: array([… dtype=float32)
%digit_recognizer_v19_1/gb5_gm2_primary_conv_1/convolution/merged_input:0, shape: [40, 80, 1, 1], exponents: [0], docString: b'layout ==> UNK', 
value: array([ … dtype=float32)
%digit_recognizer_v19_1/gb1_gm1_ghost_bn_1/batchnorm/mul:0, shape: [1, 16, 1, 1], exponents: [0], docString: b'layout ==> UNK', 
value: array([… dtype=float32)
%digit_recognizer_v19_1/gb2_gm1_primary_conv_1/convolution/merged_input:0, shape: [20, 32, 1, 1], exponents: [0], docString: b'layout ==> UNK', 
value: array([ … dtype=float32)
%digit_recognizer_v19_1/gb5_proj_bn_1/batchnorm/sub:0, shape: [80], exponents: [0], docString: b'layout ==> UNK', 
value: array([… dtype=float32)
%digit_recognizer_v19_1/gb4_gm1_ghost_bn_1/batchnorm/mul:0, shape: [1, 32, 1, 1], exponents: [0], docString: b'layout ==> UNK', 
value: array([… dtype=float32)
%const_fold_opt__609, shape: [1, 28, 1, 1], exponents: [0], docString: b'layout ==> UNK', 
value: array([ … dtype=float32)
%digit_recognizer_v19_1/gb4_gm2_primary_bn_1/batchnorm/sub:0, shape: [32], exponents: [0], docString: b'layout ==> UNK', 
value: array([ … dtype=float32)
%digit_recognizer_v19_1/gb1_gm2_primary_bn_1/batchnorm/sub:0, shape: [16], exponents: [0], docString: b'layout ==> UNK', 
value: array([ … dtype=float32)
%digit_recognizer_v19_1/gb3_gm1_ghost_bn_1/batchnorm/mul:0, shape: [1, 28, 1, 1], exponents: [0], docString: b'layout ==> UNK', 
value: array([… dtype=float32)
%digit_recognizer_v19_1/head_conv_1/convolution/merged_input:0, shape: [128, 80, 1, 1], exponents: [0], docString: b'layout ==> UNK', 
value: array([… dtype=float32)
%digit_recognizer_v19_1/output_1/Cast/ReadVariableOp:0, shape: [128, 10], exponents: [0], docString: b'layout ==> UNK', 
value: array([ … dtype=float32)
%const_fold_opt__604, shape: [1, 20, 1, 1], exponents: [0], docString: b'layout ==> UNK', 
value: array([ … dtype=float32)
%digit_recognizer_v19_1/gb5_gm2_primary_bn_1/batchnorm/sub:0, shape: [40], exponents: [0], docString: b'layout ==> UNK', 
value: array([ … dtype=float32)
%digit_recognizer_v19_1/gb3_proj_1/convolution/merged_input:0, shape: [56, 56, 1, 1], exponents: [0], docString: b'layout ==> UNK', 
value: array([… dtype=float32)
%const_fold_opt__598, shape: [1, 28, 1, 1], exponents: [0], docString: b'layout ==> UNK', 
value: array([… dtype=float32)
%const_fold_opt__620, shape: [1, 20, 1, 1], exponents: [0], docString: b'layout ==> UNK', 
value: array([… dtype=float32)
%digit_recognizer_v19_1/entry_conv_1/convolution/merged_input:0, shape: [20, 3, 3, 3], exponents: [0], docString: b'layout ==> UNK', 
value: array([… dtype=float32)
%PPQ_Variable_0, shape: [1], exponents: [0], docString: b'layout ==> UNK', 
value: array([0., 0., 0., 0.], dtype=float32)
%PPQ_Variable_1, shape: [1], exponents: [0], docString: b'layout ==> UNK', 
value: array([0., 0., 0., 0.], dtype=float32)
%PPQ_Variable_2, shape: [1], exponents: [0], docString: b'layout ==> UNK', 
value: array([0., 0., 0., 0.], dtype=float32)
%PPQ_Variable_3, shape: [1], exponents: [0], docString: b'layout ==> UNK', 
value: array([0., 0., 0., 0.], dtype=float32)
%PPQ_Variable_4, shape: [1], exponents: [0], docString: b'layout ==> UNK', 
value: array([0., 0., 0., 0.], dtype=float32)
%PPQ_Variable_5, shape: [1], exponents: [0], docString: b'layout ==> UNK', 
value: array([0., 0., 0., 0.], dtype=float32)
%PPQ_Variable_6, shape: [1], exponents: [0], docString: b'layout ==> UNK', 
value: array([0., 0., 0., 0.], dtype=float32)
%PPQ_Variable_7, shape: [1], exponents: [0], docString: b'layout ==> UNK', 
value: array([0., 0., 0., 0.], dtype=float32)
%PPQ_Variable_8, shape: [1], exponents: [0], docString: b'layout ==> UNK', 
value: array([0., 0., 0., 0.], dtype=float32)
%PPQ_Variable_9, shape: [1], exponents: [0], docString: b'layout ==> UNK', 
value: array([0., 0., 0., 0.], dtype=float32)
%PPQ_Variable_10, shape: [1], exponents: [0], docString: b'layout ==> UNK', 
value: array([0., 0., 0., 0.], dtype=float32)
%PPQ_Variable_11, shape: [1], exponents: [0], docString: b'layout ==> UNK', 
value: array([0., 0., 0., 0.], dtype=float32)
%PPQ_Variable_12, shape: [1], exponents: [0], docString: b'layout ==> UNK', 
value: array([0., 0., 0., 0.], dtype=float32)
%PPQ_Variable_13, shape: [1], exponents: [0], docString: b'layout ==> UNK', 
value: array([0., 0., 0., 0.], dtype=float32)
%PPQ_Variable_14, shape: [1], exponents: [0], docString: b'layout ==> UNK', 
value: array([0., 0., 0., 0.], dtype=float32)
%PPQ_Variable_15, shape: [1], exponents: [0], docString: b'layout ==> UNK', 
value: array([0., 0., 0., 0.], dtype=float32)
%PPQ_Variable_16, shape: [1], exponents: [0], docString: b'layout ==> UNK', 
value: array([0., 0., 0., 0.], dtype=float32)
%PPQ_Variable_17, shape: [1], exponents: [0], docString: b'layout ==> UNK', 
value: array([0., 0., 0., 0.], dtype=float32)
%PPQ_Variable_18, shape: [1], exponents: [0], docString: b'layout ==> UNK', 
value: array([0., 0., 0., 0.], dtype=float32)
%PPQ_Variable_19, shape: [1], exponents: [0], docString: b'layout ==> UNK', 
value: array([0., 0., 0., 0.], dtype=float32)
%PPQ_Variable_20, shape: [1], exponents: [0], docString: b'layout ==> UNK', 
value: array([0., 0., 0., 0.], dtype=float32)
%PPQ_Variable_21, shape: [1], exponents: [0], docString: b'layout ==> UNK', 
value: array([0., 0., 0., 0.], dtype=float32)
%PPQ_Variable_22, shape: [1], exponents: [0], docString: b'layout ==> UNK', 
value: array([0., 0., 0., 0.], dtype=float32)
%PPQ_Variable_23, shape: [1], exponents: [0], docString: b'layout ==> UNK', 
value: array([0., 0., 0., 0.], dtype=float32)
%PPQ_Variable_24, shape: [1], exponents: [0], docString: b'layout ==> UNK', 
value: array([0., 0., 0., 0.], dtype=float32)
%PPQ_Variable_25, shape: [1], exponents: [0], docString: b'layout ==> UNK', 
value: array([0., 0., 0., 0.], dtype=float32)
%PPQ_Variable_26, shape: [1], exponents: [0], docString: b'layout ==> UNK', 
value: array([0., 0., 0., 0.], dtype=float32)
%PPQ_Variable_27, shape: [1], exponents: [0], docString: b'layout ==> UNK', 
value: array([6., 0., 0., 0.], dtype=float32)
%PPQ_Variable_28, shape: [1], exponents: [0], docString: b'layout ==> UNK', 
value: array([6., 0., 0., 0.], dtype=float32)
%PPQ_Variable_29, shape: [1], exponents: [0], docString: b'layout ==> UNK', 
value: array([6., 0., 0., 0.], dtype=float32)
%PPQ_Variable_30, shape: [1], exponents: [0], docString: b'layout ==> UNK', 
value: array([6., 0., 0., 0.], dtype=float32)
%PPQ_Variable_31, shape: [1], exponents: [0], docString: b'layout ==> UNK', 
value: array([6., 0., 0., 0.], dtype=float32)
%PPQ_Variable_32, shape: [1], exponents: [0], docString: b'layout ==> UNK', 
value: array([6., 0., 0., 0.], dtype=float32)
%PPQ_Variable_33, shape: [1], exponents: [0], docString: b'layout ==> UNK', 
value: array([6., 0., 0., 0.], dtype=float32)
%PPQ_Variable_34, shape: [1], exponents: [0], docString: b'layout ==> UNK', 
value: array([6., 0., 0., 0.], dtype=float32)
%PPQ_Variable_35, shape: [1], exponents: [0], docString: b'layout ==> UNK', 
value: array([6., 0., 0., 0.], dtype=float32)
%PPQ_Variable_36, shape: [1], exponents: [0], docString: b'layout ==> UNK', 
value: array([6., 0., 0., 0.], dtype=float32)
%PPQ_Variable_37, shape: [1], exponents: [0], docString: b'layout ==> UNK', 
value: array([6., 0., 0., 0.], dtype=float32)
%PPQ_Variable_38, shape: [1], exponents: [0], docString: b'layout ==> UNK', 
value: array([6., 0., 0., 0.], dtype=float32)
%PPQ_Variable_39, shape: [1], exponents: [0], docString: b'layout ==> UNK', 
value: array([6., 0., 0., 0.], dtype=float32)
%PPQ_Variable_40, shape: [1], exponents: [0], docString: b'layout ==> UNK', 
value: array([6., 0., 0., 0.], dtype=float32)
%PPQ_Variable_41, shape: [1], exponents: [0], docString: b'layout ==> UNK', 
value: array([6., 0., 0., 0.], dtype=float32)
%PPQ_Variable_42, shape: [1], exponents: [0], docString: b'layout ==> UNK', 
value: array([6., 0., 0., 0.], dtype=float32)
%PPQ_Variable_43, shape: [1], exponents: [0], docString: b'layout ==> UNK', 
value: array([6., 0., 0., 0.], dtype=float32)
%PPQ_Variable_44, shape: [1], exponents: [0], docString: b'layout ==> UNK', 
value: array([6., 0., 0., 0.], dtype=float32)
%PPQ_Variable_45, shape: [1], exponents: [0], docString: b'layout ==> UNK', 
value: array([6., 0., 0., 0.], dtype=float32)
%PPQ_Variable_46, shape: [1], exponents: [0], docString: b'layout ==> UNK', 
value: array([6., 0., 0., 0.], dtype=float32)
%PPQ_Variable_47, shape: [1], exponents: [0], docString: b'layout ==> UNK', 
value: array([6., 0., 0., 0.], dtype=float32)
%PPQ_Variable_48, shape: [1], exponents: [0], docString: b'layout ==> UNK', 
value: array([6., 0., 0., 0.], dtype=float32)
%PPQ_Variable_49, shape: [1], exponents: [0], docString: b'layout ==> UNK', 
value: array([6., 0., 0., 0.], dtype=float32)
%PPQ_Variable_50, shape: [1], exponents: [0], docString: b'layout ==> UNK', 
value: array([6., 0., 0., 0.], dtype=float32)
%PPQ_Variable_51, shape: [1], exponents: [0], docString: b'layout ==> UNK', 
value: array([6., 0., 0., 0.], dtype=float32)
%PPQ_Variable_52, shape: [1], exponents: [0], docString: b'layout ==> UNK', 
value: array([6., 0., 0., 0.], dtype=float32)
%PPQ_Variable_53, shape: [1], exponents: [0], docString: b'layout ==> UNK', 
value: array([6., 0., 0., 0.], dtype=float32)


values info:
%digit_recognizer_v19_1/gb1_gm1_primary_relu6_1/Relu6:0[FLOAT, 1x32x20x16], exponents: [0]
%Conv__457:0[FLOAT, 1x8x5x64], exponents: [0]
%digit_recognizer_v19_1/gb3_stride_dw_1/depthwise:0[FLOAT, 1x8x5x56], exponents: [0]
%Conv__429:0[FLOAT, 1x8x5x32], exponents: [0]
%digit_recognizer_v19_1/gb3_sc_dw_bn_1/batchnorm/mul_1:0[FLOAT, 1x40x8x5], exponents: [0]
%digit_recognizer_v19_1/gb5_gm2_ghost_bn_1/batchnorm/mul_1:0[FLOAT, 1x40x8x5], exponents: [0]
%digit_recognizer_v19_1/gb3_relu6_1/Relu6:0[FLOAT, 1x8x5x56], exponents: [0]
%Conv__293:0[FLOAT, 1x16x10x16], exponents: [0]
%digit_recognizer_v19_1/gb1_stride_bn_1/batchnorm/add_1:0[FLOAT, 1x32x16x10], exponents: [0]
%digit_recognizer_v19_1/gb3_gm2_ghost_dw_1/depthwise:0[FLOAT, 1x8x5x28], exponents: [0]
%digit_recognizer_v19_1/gb3_stride_bn_1/batchnorm/mul_1:0[FLOAT, 1x56x8x5], exponents: [0]
%digit_recognizer_v19_1/gap_1/Mean_Squeeze__630:0[FLOAT, 1x128], exponents: [0]
%digit_recognizer_v19_1/gb2_sc_dw_bn_1/batchnorm/add_1:0[FLOAT, 1x32x16x10], exponents: [0]
%digit_recognizer_v19_1/gb3_gm1_ghost_bn_1/batchnorm/mul_1:0[FLOAT, 1x28x16x10], exponents: [0]
%digit_recognizer_v19_1/gb1_gm1_ghost_relu6_1/Relu6:0[FLOAT, 1x16x32x20], exponents: [0]
%digit_recognizer_v19_1/gb1_gm2_ghost_bn_1/batchnorm/add_1:0[FLOAT, 1x16x16x10], exponents: [0]
%digit_recognizer_v19_1/gb3_gm1_ghost_relu6_1/Relu6:0[FLOAT, 1x28x16x10], exponents: [0]
%Conv__399:0[FLOAT, 1x8x5x28], exponents: [0]
%digit_recognizer_v19_1/gb4_gm2_ghost_relu6_1/Relu6:0[FLOAT, 1x32x8x5], exponents: [0]
%digit_recognizer_v19_1/gb5_gm2_ghost_dw_1/depthwise:0[FLOAT, 1x8x5x40], exponents: [0]
%Conv__365:0[FLOAT, 1x16x10x40], exponents: [0]
%digit_recognizer_v19_1/gb4_sc_dw_bn_1/batchnorm/add_1:0[FLOAT, 1x56x8x5], exponents: [0]
%digit_recognizer_v19_1/gb3_gm1_primary_relu6_1/Relu6:0[FLOAT, 1x16x10x28], exponents: [0]
%digit_recognizer_v19_1/gb1_gm2_ghost_bn_1/batchnorm/mul_1:0[FLOAT, 1x16x16x10], exponents: [0]
%Conv__487:0[FLOAT, 1x8x5x40], exponents: [0]
%Conv__337:0[FLOAT, 1x16x10x20], exponents: [0]
%digit_recognizer_v19_1/gb2_sc_dw_1/depthwise:0[FLOAT, 1x16x10x32], exponents: [0]
%digit_recognizer_v19_1/gb2_gm2_primary_relu6_1/Relu6:0[FLOAT, 1x16x10x20], exponents: [0]
%digit_recognizer_v19_1/gb1_add_1/Add:0[FLOAT, 1x16x10x32], exponents: [0]
%digit_recognizer_v19_1/gap_1/Mean:0[FLOAT, 1x1x1x128], exponents: [0]
%digit_recognizer_v19_1/gb5_sc_dw_1/depthwise:0[FLOAT, 1x8x5x64], exponents: [0]
%digit_recognizer_v19_1/gb1_stride_bn_1/batchnorm/mul_1:0[FLOAT, 1x32x16x10], exponents: [0]
%digit_recognizer_v19_1/gb5_sc_dw_bn_1/batchnorm/add_1:0[FLOAT, 1x64x8x5], exponents: [0]
%digit_recognizer_v19_1/gb4_gm1_concat_1/concat:0[FLOAT, 1x64x8x5], exponents: [0]
%Conv__473:0[FLOAT, 1x8x5x40], exponents: [0]
%Conv__419:0[FLOAT, 1x8x5x64], exponents: [0]
%digit_recognizer_v19_1/gb5_gm1_ghost_bn_1/batchnorm/mul_1:0[FLOAT, 1x40x8x5], exponents: [0]
%digit_recognizer_v19_1/gb1_gm1_ghost_bn_1/batchnorm/mul_1:0[FLOAT, 1x16x32x20], exponents: [0]
%digit_recognizer_v19_1/gb5_gm1_ghost_relu6_1/Relu6:0[FLOAT, 1x40x8x5], exponents: [0]
%digit_recognizer_v19_1/gb1_gm1_ghost_dw_1/depthwise:0[FLOAT, 1x32x20x16], exponents: [0]
%digit_recognizer_v19_1/gb4_gm2_concat_1/concat:0[FLOAT, 1x64x8x5], exponents: [0]
%digit_recognizer_v19_1/gb3_add_1/Add:0[FLOAT, 1x8x5x56], exponents: [0]
%digit_recognizer_v19_1/gb4_add_1/Add:0[FLOAT, 1x8x5x64], exponents: [0]
%Conv__351:0[FLOAT, 1x16x10x20], exponents: [0]
%Conv__463:0[FLOAT, 1x8x5x80], exponents: [0]
%digit_recognizer_v19_1/gb3_gm1_ghost_bn_1/batchnorm/add_1:0[FLOAT, 1x28x16x10], exponents: [0]
%digit_recognizer_v19_1/gb3_gm2_ghost_bn_1/batchnorm/mul_1:0[FLOAT, 1x28x8x5], exponents: [0]
%digit_recognizer_v19_1/gb3_sc_dw_bn_1/batchnorm/add_1:0[FLOAT, 1x40x8x5], exponents: [0]
%digit_recognizer_v19_1/gb5_gm2_ghost_relu6_1/Relu6:0[FLOAT, 1x40x8x5], exponents: [0]
%output[FLOAT, 1x10], exponents: [0]
%digit_recognizer_v19_1/gb4_gm1_primary_relu6_1/Relu6:0[FLOAT, 1x8x5x32], exponents: [0]
%digit_recognizer_v19_1/gb3_stride_bn_1/batchnorm/add_1:0[FLOAT, 1x56x8x5], exponents: [0]
%digit_recognizer_v19_1/gb5_relu6_1/Relu6:0[FLOAT, 1x8x5x80], exponents: [0]
%digit_recognizer_v19_1/entry_relu6_1/Relu6:0[FLOAT, 1x32x20x20], exponents: [0]
%digit_recognizer_v19_1/gb5_gm1_ghost_bn_1/batchnorm/add_1:0[FLOAT, 1x40x8x5], exponents: [0]
%digit_recognizer_v19_1/gb2_gm1_primary_relu6_1/Relu6:0[FLOAT, 1x16x10x20], exponents: [0]
%digit_recognizer_v19_1/gb3_gm2_ghost_relu6_1/Relu6:0[FLOAT, 1x28x8x5], exponents: [0]
%digit_recognizer_v19_1/gb2_add_1/Add:0[FLOAT, 1x16x10x40], exponents: [0]
%digit_recognizer_v19_1/gb3_gm2_primary_relu6_1/Relu6:0[FLOAT, 1x8x5x28], exponents: [0]
%digit_recognizer_v19_1/gb4_gm1_ghost_bn_1/batchnorm/add_1:0[FLOAT, 1x32x8x5], exponents: [0]
%input[FLOAT, 1x32x20x3], exponents: [0]
%digit_recognizer_v19_1/gb5_add_1/Add:0[FLOAT, 1x8x5x80], exponents: [0]
%digit_recognizer_v19_1/gb1_gm2_ghost_relu6_1/Relu6:0[FLOAT, 1x16x16x10], exponents: [0]
%Conv__443:0[FLOAT, 1x8x5x32], exponents: [0]
%digit_recognizer_v19_1/gb5_gm1_concat_1/concat:0[FLOAT, 1x80x8x5], exponents: [0]
%digit_recognizer_v19_1/gb2_gm1_ghost_bn_1/batchnorm/mul_1:0[FLOAT, 1x20x16x10], exponents: [0]
%digit_recognizer_v19_1/gb1_gm1_ghost_bn_1/batchnorm/add_1:0[FLOAT, 1x16x32x20], exponents: [0]
%digit_recognizer_v19_1/gb1_sc_dw_bn_1/batchnorm/add_1:0[FLOAT, 1x20x16x10], exponents: [0]
%digit_recognizer_v19_1/gb3_gm2_concat_1/concat:0[FLOAT, 1x56x8x5], exponents: [0]
%Conv__275:0[FLOAT, 1x32x20x16], exponents: [0]
%digit_recognizer_v19_1/gb4_gm2_ghost_bn_1/batchnorm/add_1:0[FLOAT, 1x32x8x5], exponents: [0]
%digit_recognizer_v19_1/gb1_gm2_primary_relu6_1/Relu6:0[FLOAT, 1x16x10x16], exponents: [0]
%digit_recognizer_v19_1/gb5_gm2_concat_1/concat:0[FLOAT, 1x80x8x5], exponents: [0]
%digit_recognizer_v19_1/gb2_gm2_ghost_bn_1/batchnorm/mul_1:0[FLOAT, 1x20x16x10], exponents: [0]
%Conv__371:0[FLOAT, 1x8x5x56], exponents: [0]
%digit_recognizer_v19_1/gb4_gm2_primary_relu6_1/Relu6:0[FLOAT, 1x8x5x32], exponents: [0]
%digit_recognizer_v19_1/gb1_sc_dw_bn_1/batchnorm/mul_1:0[FLOAT, 1x20x16x10], exponents: [0]
%digit_recognizer_v19_1/gb2_gm1_ghost_relu6_1/Relu6:0[FLOAT, 1x20x16x10], exponents: [0]
%digit_recognizer_v19_1/head_relu6_1/Relu6:0[FLOAT, 1x8x5x128], exponents: [0]
%digit_recognizer_v19_1/gb2_gm2_ghost_bn_1/batchnorm/add_1:0[FLOAT, 1x20x16x10], exponents: [0]
%digit_recognizer_v19_1/gb1_relu6_1/Relu6:0[FLOAT, 1x16x10x32], exponents: [0]
%digit_recognizer_v19_1/gb5_sc_dw_bn_1/batchnorm/mul_1:0[FLOAT, 1x64x8x5], exponents: [0]
%digit_recognizer_v19_1/gb3_gm1_concat_1/concat:0[FLOAT, 1x56x16x10], exponents: [0]
%digit_recognizer_v19_1/gb2_gm1_ghost_dw_1/depthwise:0[FLOAT, 1x16x10x20], exponents: [0]
%Conv__269:0[FLOAT, 1x32x20x20], exponents: [0]
%digit_recognizer_v19_1/gb5_gm1_ghost_dw_1/depthwise:0[FLOAT, 1x8x5x40], exponents: [0]
%digit_recognizer_v19_1/output_1/MatMul:0[FLOAT, 1x10], exponents: [0]
%digit_recognizer_v19_1/gb4_gm1_ghost_relu6_1/Relu6:0[FLOAT, 1x32x8x5], exponents: [0]
%digit_recognizer_v19_1/gb4_sc_dw_bn_1/batchnorm/mul_1:0[FLOAT, 1x56x8x5], exponents: [0]
%Conv__381:0[FLOAT, 1x16x10x28], exponents: [0]
%Conv__327:0[FLOAT, 1x16x10x40], exponents: [0]
%digit_recognizer_v19_1/gb4_gm2_ghost_dw_1/depthwise:0[FLOAT, 1x8x5x32], exponents: [0]
%digit_recognizer_v19_1/gb5_gm2_ghost_bn_1/batchnorm/add_1:0[FLOAT, 1x40x8x5], exponents: [0]
%Conv__501:0[FLOAT, 1x8x5x80], exponents: [0]
%digit_recognizer_v19_1/gb1_stride_dw_1/depthwise:0[FLOAT, 1x16x10x32], exponents: [0]
%digit_recognizer_v19_1/gb2_gm2_ghost_relu6_1/Relu6:0[FLOAT, 1x20x16x10], exponents: [0]
%digit_recognizer_v19_1/gb3_sc_dw_1/depthwise:0[FLOAT, 1x8x5x40], exponents: [0]
%digit_recognizer_v19_1/gb1_gm2_ghost_dw_1/depthwise:0[FLOAT, 1x16x10x16], exponents: [0]
%digit_recognizer_v19_1/gb4_sc_dw_1/depthwise:0[FLOAT, 1x8x5x56], exponents: [0]
%digit_recognizer_v19_1/gb1_sc_dw_1/depthwise:0[FLOAT, 1x16x10x20], exponents: [0]
%digit_recognizer_v19_1/gb3_gm1_ghost_dw_1/depthwise:0[FLOAT, 1x16x10x28], exponents: [0]
%digit_recognizer_v19_1/gb4_relu6_1/Relu6:0[FLOAT, 1x8x5x64], exponents: [0]
%digit_recognizer_v19_1/gb5_gm2_primary_relu6_1/Relu6:0[FLOAT, 1x8x5x40], exponents: [0]
%digit_recognizer_v19_1/gb2_gm2_concat_1/concat:0[FLOAT, 1x40x16x10], exponents: [0]
%Conv__413:0[FLOAT, 1x8x5x56], exponents: [0]
%digit_recognizer_v19_1/gb4_gm2_ghost_bn_1/batchnorm/mul_1:0[FLOAT, 1x32x8x5], exponents: [0]
%digit_recognizer_v19_1/gb2_gm1_ghost_bn_1/batchnorm/add_1:0[FLOAT, 1x20x16x10], exponents: [0]
%digit_recognizer_v19_1/gb3_gm2_ghost_bn_1/batchnorm/add_1:0[FLOAT, 1x28x8x5], exponents: [0]
%digit_recognizer_v19_1/gb4_gm1_ghost_bn_1/batchnorm/mul_1:0[FLOAT, 1x32x8x5], exponents: [0]
%digit_recognizer_v19_1/gb5_gm1_primary_relu6_1/Relu6:0[FLOAT, 1x8x5x40], exponents: [0]
%digit_recognizer_v19_1/gb2_sc_dw_bn_1/batchnorm/mul_1:0[FLOAT, 1x32x16x10], exponents: [0]
%digit_recognizer_v19_1/gb4_gm1_ghost_dw_1/depthwise:0[FLOAT, 1x8x5x32], exponents: [0]
%digit_recognizer_v19_1/gb1_gm1_concat_1/concat:0[FLOAT, 1x32x32x20], exponents: [0]
%digit_recognizer_v19_1/gb2_gm2_ghost_dw_1/depthwise:0[FLOAT, 1x16x10x20], exponents: [0]
%Conv__321:0[FLOAT, 1x16x10x32], exponents: [0]
%digit_recognizer_v19_1/gb2_gm1_concat_1/concat:0[FLOAT, 1x40x16x10], exponents: [0]
%digit_recognizer_v19_1/output_1/BiasAdd:0[FLOAT, 1x10], exponents: [0]
%Conv__503:0[FLOAT, 1x8x5x128], exponents: [0]
%digit_recognizer_v19_1/gb2_relu6_1/Relu6:0[FLOAT, 1x16x10x40], exponents: [0]
%digit_recognizer_v19_1/gb1_gm2_concat_1/concat:0[FLOAT, 1x32x16x10], exponents: [0]
%Conv__307:0[FLOAT, 1x16x10x32], exponents: [0]
%PPQ_Variable_54[FLOAT, 1x10x20x16], exponents: [0]
%PPQ_Variable_55[FLOAT, 1x16x10x20], exponents: [0]
%PPQ_Variable_56[FLOAT, 1x20x16x32], exponents: [0]
%PPQ_Variable_57[FLOAT, 1x20x16x32], exponents: [0]
%PPQ_Variable_58[FLOAT, 1x32x20x32], exponents: [0]
%PPQ_Variable_59[FLOAT, 1x10x32x16], exponents: [0]
%PPQ_Variable_60[FLOAT, 1x16x10x32], exponents: [0]
%PPQ_Variable_61[FLOAT, 1x10x16x16], exponents: [0]
%PPQ_Variable_62[FLOAT, 1x10x16x16], exponents: [0]
%PPQ_Variable_63[FLOAT, 1x16x10x32], exponents: [0]
%PPQ_Variable_64[FLOAT, 1x10x32x16], exponents: [0]
%PPQ_Variable_65[FLOAT, 1x16x10x32], exponents: [0]
%PPQ_Variable_66[FLOAT, 1x10x20x16], exponents: [0]
%PPQ_Variable_67[FLOAT, 1x10x20x16], exponents: [0]
%PPQ_Variable_68[FLOAT, 1x16x10x40], exponents: [0]
%PPQ_Variable_69[FLOAT, 1x10x20x16], exponents: [0]
%PPQ_Variable_70[FLOAT, 1x10x20x16], exponents: [0]
%PPQ_Variable_71[FLOAT, 1x16x10x40], exponents: [0]
%PPQ_Variable_72[FLOAT, 1x5x40x8], exponents: [0]
%PPQ_Variable_73[FLOAT, 1x8x5x40], exponents: [0]
%PPQ_Variable_74[FLOAT, 1x10x28x16], exponents: [0]
%PPQ_Variable_75[FLOAT, 1x10x28x16], exponents: [0]
%PPQ_Variable_76[FLOAT, 1x16x10x56], exponents: [0]
%PPQ_Variable_77[FLOAT, 1x5x56x8], exponents: [0]
%PPQ_Variable_78[FLOAT, 1x8x5x56], exponents: [0]
%PPQ_Variable_79[FLOAT, 1x5x28x8], exponents: [0]
%PPQ_Variable_80[FLOAT, 1x5x28x8], exponents: [0]
%PPQ_Variable_81[FLOAT, 1x8x5x56], exponents: [0]
%PPQ_Variable_82[FLOAT, 1x5x56x8], exponents: [0]
%PPQ_Variable_83[FLOAT, 1x8x5x56], exponents: [0]
%PPQ_Variable_84[FLOAT, 1x5x32x8], exponents: [0]
%PPQ_Variable_85[FLOAT, 1x5x32x8], exponents: [0]
%PPQ_Variable_86[FLOAT, 1x8x5x64], exponents: [0]
%PPQ_Variable_87[FLOAT, 1x5x32x8], exponents: [0]
%PPQ_Variable_88[FLOAT, 1x5x32x8], exponents: [0]
%PPQ_Variable_89[FLOAT, 1x8x5x64], exponents: [0]
%PPQ_Variable_90[FLOAT, 1x5x64x8], exponents: [0]
%PPQ_Variable_91[FLOAT, 1x8x5x64], exponents: [0]
%PPQ_Variable_92[FLOAT, 1x5x40x8], exponents: [0]
%PPQ_Variable_93[FLOAT, 1x5x40x8], exponents: [0]
%PPQ_Variable_94[FLOAT, 1x8x5x80], exponents: [0]
%PPQ_Variable_95[FLOAT, 1x5x40x8], exponents: [0]
%PPQ_Variable_96[FLOAT, 1x5x40x8], exponents: [0]
%PPQ_Variable_97[FLOAT, 1x8x5x80], exponents: [0]
%PPQ_Variable_98[FLOAT, 1x1x128x1], exponents: [0]


test inputs value:



test outputs value:
